src/model-HIV.pth (torch, 46620 bytes, 6 tensors)

fc1.weight f4 [100, 42]
-0.13988915 0.087581836 -0.16139731 0.0069979243 -0.06503136 -0.16642183 -0.16929932 -0.19785918
-0.1670262 0.057688806 0.036231242 -0.016122138 -0.19610004 -0.057814322 -0.15019196 -0.13532121
-0.15827118 -0.18433167 -0.18916345 -0.23784153 -0.20709634 -0.06049527 -0.23375186 -0.12866051
-0.22592548 0.06030334 -0.108269826 -0.19333796 -0.2017726 -0.072486766 0.03714595 -0.13328195
-0.17113623 -0.11766586 0.042722464 -0.066742435 -0.08522347 0.05782889 -0.23799151 -0.046509966
-0.009656514 0.027806018 79.604485 28.315725 97.95241 48.813526 33.251217 61.53615
-3.76343 -21.244678 32.338478 -55.668262 -14.637296 17.315386 -21.219822 -5.724782
-38.12525 -2.4158156 -1.833271 6.823637 32.19905 -38.21922 27.092165 -48.081486
-35.026676 43.386368 -55.58477 -2.1998167 -48.062145 -11.049543 4.021397 5.3228846
-14.480584 -1.7520573 -34.81512 4.079825 1.7987468 11.524179 17.43906 6.857361
43.42933 5.220434 11.381128 23.977058 79.626144 25.926016 101.91165 41.19308
31.724522 63.599567 -3.9542954 -38.524704 34.512737 -62.447014 -33.05528 19.645718
-38.43049 -7.1642346 -44.053112 -5.1469183 -2.5150526 0.38503912 34.402634 -44.10127
29.575857 -51.133995 -41.00928 46.186726 -62.338993 -5.2214875 -51.201477 -19.419315
1.4753007 7.009509 -33.0566 -2.6213906 -41.003323 1.4027561 2.0180173 5.30906
19.82985 0.34513846 46.31663 7.035401 5.5240254 25.97925 140.18979 55.015568
118.85109 116.998604 55.74361 53.050045 1.2981606 -2.7943492 12.793054 -48.31482
2.0839164 11.393162 -2.8523433 -1.768905 -37.36107 20.825792 -0.334991 11.703462
12.715331 -37.365456 5.7342696 -101.0899 -35.50703 18.609415 -48.27659 20.852583
-101.02833 30.793055 24.421112 13.658321 1.9980003 -0.1874698 -35.609753 24.512243
1.0583155 13.219598 11.113098 11.858893 18.511019 13.673874 13.315513 27.699898
-0.062138908 -0.028116032 -0.0345228 0.029857337 0.06637615 -0.15347958 -0.064764455 -0.11203201
-0.012687445 0.061649412 -0.015025288 -0.05339192 -0.08912047 0.042407975 0.0049612224 -0.1383963
-0.114550956 0.069829926 -0.010591656 -0.13355032 0.13184686 0.0408978 -0.082458995 0.13754477
-0.060481556 -0.1194877 0.09016512 -0.103656694 0.033576965 -0.05766964 0.1078978 0.098493055
-0.012284696 0.15277715 -0.021992296 -0.061694853 -0.10979161 -0.08531428 -0.015974939 -0.13430852
-0.08642365 -0.024704486 -0.12906532 0.039462574 0.037978243 0.06717499 -0.16263752 0.07853365
-0.2218811 0.07060511 -0.1934252 -0.10330041 0.06887405 0.011749847 -0.099557094 0.08303251
-0.01863221 -0.22056253 0.022716722 -0.034431405 -0.15341325 -0.14579855 -0.050355062 -0.08008301
0.0882224 -0.1907161 -0.10187882 -0.09485826 -0.18672137 -0.19691291 0.073740974 -0.21152712
-0.053077973 -0.08714867 0.041255023 -0.1269483 -0.011114849 -0.102340475 -0.2147733 -0.003920228
-0.20866425 -0.12972379 -0.0074422136 -0.20749845 0.7265497 -0.35457444 1.4148269 -0.3479855
00000000: 1a3f 0fbe 1b5e b33d 5645 25be d84e e53b
00000010: 292f 85bd 7c6a 2abe cd5c 2dbe 999b 4abe
00000020: eb08 2bbe 194b 6c3d 3667 143d 9312 84bc
00000030: 73ce 48be b6ce 6cbd eccb 19be a591 0abe
00000040: d711 22be 71c1 3cbe 10b4 41be bb8c 73be
00000050: 1011 54be e3c9 77bd a65c 6fbe 95bf 03be
00000060: 0259 67be a300 773d 92bc ddbd 63fa 45be
00000070: 7a9d 4ebe f173 94bd 5a26 183d 107b 08be
00000080: 563e 2fbe ccfa f0bd c0fd 2e3d 42b0 88bd
00000090: a589 aebd fcdd 6c3d 0cb4 73be 3c81 3ebd
000000a0: 5b36 1ebc 72c9 e33c 7f35 9f42 9b86 e241
000000b0: a2e7 c342 0d41 4342 3f01 0542 0525 7642
000000c0: 0adc 70c0 1af5 a9c1 9a5a 0142 4dac 5ec2
000000d0: 5d32 6ac1 e985 8a41 32c2 a9c1 6a31 b7c0
000000e0: 4280 18c2 b99c 1ac0 a0a8 eabf 3c5b da40
000000f0: d4cb 0042 7be0 18c2 c1bc d841 7153 40c2
00000100: 511b 0cc2 a48b 2d42 ce56 5ec2 ccc9 0cc0
00000110: a33f 40c2 eeca 30c1 49af 8040 1255 aa40
00000120: 79b0 67c1 6a43 e0bf af42 0bc2 ed8d 8240
00000130: 563d e63f 0a63 3841 3283 8b41 806f db40
00000140: a2b7 2d42 cc0d a740 1a19 3641 04d1 bf41
00000150: 9640 9f42 7b68 cf41 c4d2 cb42 b7c5 2442
00000160: d2cb fd41 f565 7e42 2d13 7dc0 4c19 1ac2
00000170: 0b0d 0a42 bec9 79c2 9b38 04c2 6e2a 9d41
00000180: d2b8 19c2 6941 e5c0 6336 30c2 8eb3 a4c0
00000190: 9ff6 20c0 d923 c53e 4c9c 0942 b367 30c2
000001a0: 5b9b ec41 3689 4cc2 8109 24c2 35bf 3842
000001b0: 215b 79c2 6d16 a7c0 50ce 4cc2 c25a 9bc1
000001c0: a7d6 bc3f e64d e040 f539 04c2 ddc4 27c0
000001d0: 6703 24c2 838d b33f 3227 0140 d2e3 a940
000001e0: 88a3 9e41 fdb5 b03e 3b44 3942 0122 e140
000001f0: d1c4 b040 81d5 cf41 9630 0c43 f10f 5c42
00000200: c2b3 ed42 49ff e942 75f9 5e42 3f33 5442
00000210: 202a a63f 9ed6 32c0 59b0 4c41 6042 41c2
00000220: e35e 0540 644a 3641 cb8c 36c0 7b6b e2bf
00000230: bc71 15c2 399b a641 f183 abbe 6141 3b41
00000240: ff71 4b41 3a76 15c2 237f b740 072e cac2
00000250: 3307 0ec2 15e0 9441 3a1b 41c2 17d2 a641
00000260: 810e cac2 2d58 f641 705e c341 7c88 5a41
00000270: 79be ff3f 15f8 3fbe 6370 0ec2 1319 c441
00000280: e276 873f 7983 5341 40cf 3141 07be 3d41
00000290: 9116 9441 30c8 5a41 570c 5541 6499 dd41
000002a0: 5e85 7ebd 9853 e6bc c867 0dbd 6097 f43c
000002b0: 38f0 873d c029 1dbe 3aa3 84bd 0a71 e5bd
000002c0: 00df 4fbc 1884 7c3d a02c 76bc 7cb1 5abd
000002d0: cb84 b6bd fcb3 2d3d c091 a23b c2b7 0dbe
000002e0: b199 eabd fe02 8f3d a088 2dbc 6ac1 08be
000002f0: dd02 073e 7484 273d 43e0 a8bd 89d8 0c3e
00000300: 82bb 77bd f8b5 f4bd 7ea8 b83d f649 d4bd
00000310: 0088 093d 0037 6cbd 86f9 dc3d bab6 c93d
00000320: c045 49bc 9d71 1c3e 3029 b4bc beb3 7cbd
00000330: 6cda e0bd 41b9 aebd e0dd 82bc 2c88 09be
00000340: e2fe b0bd 1061 cabc b329 04be 82a3 213d
00000350: 138f 1b3d 0b93 893d 738a 26be 40d6 a03d
00000360: cd34 63be 6999 903d 4111 46be 2a8f d3bd
00000370: d70d 8d3d 6e82 403c 97e4 cbbd f30c aa3d
00000380: 94a2 98bc 25db 61be 6b18 ba3c f207 0dbd
00000390: 5d18 1dbe 374c 15be 1c41 4ebd 9002 a4bd
000003a0: f2ad b43d 154b 43be d8a5 d0bd 0c45 c2bd
000003b0: e333 3fbe 8aa3 49be 8205 973d 919a 58be
000003c0: 4a68 59bd 007b b2bd 07fb 283d bcfe 01be
000003d0: 0e1b 36bc e297 d1bd 88ed 5bbe 4275 80bb
000003e0: 15ac 55be 50d6 04be d0dd f3bb 797a 54be
000003f0: 29ff 393f c88a b5be 0c19 b53f 282b b2be

fc1.bias f4 [100]
-0.025169061 176.65091 179.54605 326.81006 -0.043373942 0.057138037 2.0797107 -0.048562884
-0.008318411 -0.007833779 0.052969158 0.12831311 -0.24264812 -0.10069771 -0.14047728 -0.10890478
-0.04715035 -0.047267582 -0.025922606 -0.09398778 478.23795 229.06247 0.055822536 -0.18959458
0.016294256 -0.35169995 0.60537195 200.50706 0.044767413 0.024225637 478.4417 173.23154
0.007298947 -0.11678387 -16.062952 -0.19980836 168.92741 -0.18258843 -0.13752355 0.70349336
282.42593 -0.5370419 -0.0046616863 -0.12649791 -0.11396748 -0.06844356 0.061216876 0.07681906
0.54877764 0.28506908 171.22806 -0.06487502 -0.062738575 0.10947165 -0.18911946 -0.0717981
-0.14309315 0.56340533 -0.09992473 171.72337 -0.17889269 0.0474734 0.15224765 329.23932
278.41446 -0.047390547 162.80075 -0.0866254 -0.029559508 -0.058639668 40.56653 0.112425864
-0.08634312 -0.14556481 0.7768084 -0.01255241 -0.14994198 1.2334484 169.98378 168.45456
460.28156 0.061914057 506.80844 238.09442 0.12373124 178.92397 0.33917302 -0.024205498
-0.18094182 0.073299244 -0.031394847 166.91177 -0.13795811 0.009373411 -0.19138967 0.06095153
0.3263328 -0.09514699 0.060369074 -0.18868516
00000000: 592f cebc a2a6 3043 ca8b 3343 b067 a343
00000010: e0a8 31bd 9309 6a3d fb19 0540 e0e9 46bd
00000020: f249 08bc 4059 00bc 30f6 583d 8364 033e
00000030: c078 78be 9a3a cebd 47d9 0fbe 7809 dfbd
00000040: ba20 41bd a79b 41bd a55b d4bc aa7c c0bd
00000050: 751e ef43 fe0f 6543 2ca6 643d 1525 42be
00000060: 887b 853c 0412 b4be a8f9 1a3f cf81 4843
00000070: 095e 373d d874 c63c 8a38 ef43 463b 2d43
00000080: 012c ef3b 622c efbd ed80 80c1 909a 4cbe
00000090: 6bed 2843 76f8 3abe f9d2 0cbe 2418 343f
000000a0: 8536 8d43 947b 09bf 0fc1 98bb ab88 01be
000000b0: c867 e9bd 232c 8cbd 8cbe 7a3d 5053 9d3d
000000c0: b17c 0c3f 93f4 913e 623a 2b43 32dd 84bd
000000d0: 157d 80bd ac32 e03d 88a8 41be e20a 93bd
000000e0: 0387 12be 553b 103f 56a5 ccbd 2fb9 2b43
000000f0: a52f 37be 7873 423d cfe6 1b3e a29e a443
00000100: 0d35 8b43 971c 42bd fecc 2243 a868 b1bd
00000110: c826 f2bc 2630 70bd 2044 2242 883f e63d
00000120: a9d4 b0bd f10e 15be eadc 463f a0a8 4dbc
00000130: 648a 19be a3e1 9d3f d9fb 2943 5e74 2843
00000140: 0a24 e643 9899 7d3d 7b67 fd43 2c18 6e43
00000150: ce66 fd3d 89ec 3243 16a8 ad3e 9c4a c6bc
00000160: d048 39be ea1d 963d e297 00bd 6ae9 2643
00000170: e444 0dbe ef92 193c a7fb 43be 50a8 793d
00000180: 1815 a73e 6ddc c2bd 9045 773d af36 41be

fc2.weight f4 [64, 100]
0.08520501 3.1703465 4.0796266 -4.542432 0.01461494 -0.025012234 -0.21220201 0.112303846
0.0570414 0.042153977 0.08894297 0.09384788 0.010271998 -0.04541236 0.31414834 0.01208289
-0.046991754 0.122664765 -0.042779695 -0.009661824 2.1018217 -6.183954 -0.0631278 -0.03849957
0.01194611 -0.07337114 -0.029127324 6.599818 0.010955306 0.029112212 0.00067484274 4.3951855
-0.15935092 -0.09246575 -0.46355864 0.07827775 2.559474 0.018592015 -0.036936812 0.043695547
3.8204782 0.06856497 0.02974626 -0.08702367 0.22838995 0.11601087 -0.069612645 0.046210848
0.022589663 0.09832972 2.9911404 -0.012712285 -0.060970828 -0.06643418 0.015478157 -0.07519279
0.021882072 0.25287643 0.0482874 3.5645273 0.010800253 0.12155159 0.037256967 -6.4186287
4.43738 0.05458939 0.37080422 0.0023166689 -0.088742316 0.065026246 0.6572061 0.13299046
-0.019466624 0.07882132 -0.25129423 0.10509257 -0.015690504 0.041832633 3.544923 0.74825764
-4.439015 0.06516845 -0.8947362 -49.894188 0.07684458 2.3866558 -0.0028139718 -0.011641628
-0.06337466 -0.095400035 -0.025989892 2.0248919 0.056019608 -0.042557534 0.14192726 0.004618801
0.093423404 0.00793153 0.106343694 -0.034435872 -0.0072027 0.0059396196 -0.08236896 -0.22213218
0.027726091 -0.04076561 0.07638983 -0.0147330165 -0.08504441 0.09508415 0.08017067 0.019665323
-0.121676154 0.0929668 -0.09239471 0.0061597675 0.03474372 -0.124142446 -0.12054053 -0.060167015
-0.10623518 -0.07602408 -0.03147485 -0.14404881 -0.038742468 -0.020659186 -0.12903795 0.035396557
0.04559899 0.032995872 -0.023862474 0.002929629 -0.018808857 -0.06872904 -0.29520318 -0.09015211
-0.4017841 0.025337778 0.06796832 0.026886066 -0.04252774 0.0019295453 -0.008362494 -0.09069347
-0.015095949 0.067519926 0.019972466 -0.018744804 0.09791764 0.03960896 -0.1450476 -0.05017345
-0.043810762 0.09749573 -0.03442248 -0.01498656 0.033375137 -0.03765461 0.08969165 -0.046427608
-0.13278227 -0.09329964 -0.041380584 -0.022936257 -0.12725827 -0.054506578 -0.0924963 0.033402424
0.083191104 0.026334442 -0.071968034 -0.008802101 -0.08951175 -0.05799787 -0.058958624 -0.083099835
-0.09799842 -0.03344746 0.014725325 0.0018048984 -0.35982424 -0.019408777 -0.12765592 -0.31752345
-0.050900903 -0.11173235 -0.039674684 0.038625643 -0.073246196 0.04549647 -0.0710753 -0.0867421
0.013188146 0.092428215 0.06296555 -0.07850721 -0.03280442 0.05160191 -0.0025561738 -0.04953171
-0.08501444 2.464569 4.687725 -3.300554 0.03371095 -0.16154402 -0.18219963 -0.10665068
0.06963096 0.09194798 0.003143862 0.06394077 -0.055961896 -0.078699544 0.23537357 0.0173354
0.0610001 -0.047810633 -0.06461655 -0.05345907 3.556845 -4.6141343 -0.08494639 -0.09193187
0.08539542 -0.08309233 -0.0029918677 6.462171 -0.034903422 0.022427715 0.07573215 4.269099
-0.06434307 0.03296084 -0.15041673 -0.082447015 1.8403903 0.08770979 -0.062146913 0.05100587
4.356314 -0.056771442 -0.02110235 -0.006371461 0.10985429 0.05373634 0.019150138 -0.15417027
0.07379072 -0.009888281 2.4811635 -0.041250683 0.012147322 0.011576569 -0.05009676 0.08006083
00000000: f77f ae3d f5e6 4a40 4d8c 8240 9a5b 91c0
00000010: 8073 6f3c 75e6 ccbc 7c4b 59be 8fff e53d
00000020: 3ea4 693d a6a9 2c3d bb27 b63d 5133 c03d
00000030: e24b 283c 5002 3abd 0dd8 a03e 50f7 453c
00000040: 6d7a 40bd aa37 fb3d c339 2fbd a14c 1ebc
00000050: 3f84 0640 f3e2 c5c0 2649 81bd bab1 1dbd
00000060: 9eb9 433c 9c43 96bd 6d9c eebc b631 d340
00000070: e27d 333c bc7c ee3c eee7 303a 5ca5 8c40
00000080: e32c 23be af5e bdbd 8f57 edbe 1650 a03d
00000090: 6cce 2340 484e 983c 0e4b 17bd 1afa 323d
000000a0: b782 7440 ca6b 8c3d 6eae f33c 7739 b2bd
000000b0: 0edf 693e 1b97 ed3d 1391 8ebd 9647 3d3d
000000c0: f50d b93c 1861 c93d d86e 3f40 3047 50bc
000000d0: 8cbc 79bd a50e 88bd 1998 7d3c adfe 99bd
000000e0: 0842 b33c 0579 813e 02c9 453d 3721 6440
000000f0: 8bf3 303c 0af0 f83d c39a 183d 6865 cdc0
00000100: 04ff 8d40 2099 5f3d 0dda bd3e 41d3 173b
00000110: 88be b5bd 7b2c 853d a93e 283f a72e 083e
00000120: 7878 9fbc 126d a13d a3a9 80be c63a d73d
00000130: 5f89 80bc b258 2b3d 05e0 6240 d08d 3f3f
00000140: 690c 8ec0 0977 853d 6e0d 65bf a693 47c2
00000150: b160 9d3d f8be 1840 9d6a 38bb 87bc 3ebc
00000160: 93ca 81bd 1861 c3bd c1e8 d4bc d497 0140
00000170: d174 653d cf50 2ebd 6155 113e 5059 973b
00000180: c554 bf3d 3ff3 013c b9ca d93d a10c 0dbd
00000190: a004 ecbb 24a1 c23b 0fb1 a8bd 9e76 63be
000001a0: d421 e33c d7f9 26bd 4572 9c3d c062 71bc
000001b0: c32b aebd 7bbb c23d 8530 a43d 2c19 a13c
000001c0: 5931 f9bd 6165 be3d 7039 bdbd e0d7 c93b
000001d0: 6e4f 0e3d 653e febd f4dd f6bd b071 76bd
000001e0: d491 d9bd 83b2 9bbd c6eb 00bd 8881 13be
000001f0: 6cb0 1ebd 743d a9bc 8622 04be fbfb 103d
00000200: 02c6 3a3d ae26 073d 3c7b c3bc 05ff 3f3b
00000210: 0815 9abc d0c1 8cbd df24 97be aba1 b8bd
00000220: a5b6 cdbe 2c91 cf3c f932 8b3d 2b40 dc3c
00000230: 9131 2ebd cce8 fc3a d802 09bc 7fbd b9bd
00000240: 0055 77bc e347 8a3d 4c9d a33c b48e 99bc
00000250: 0b89 c83d 013d 223d 5c87 14be ad82 4dbd
00000260: ea72 33bd d7ab c73d 96fe 0cbd 308a 75bc
00000270: 5eb4 083d b83b 1abd 41b0 b73d e02a 3ebd
00000280: 13f8 07be e213 bfbd b07e 29bd d1e4 bbbc
00000290: fe4f 02be 4a42 5fbd b36e bdbd fbd0 083d
000002a0: 1960 aa3d 54bb d73c fa63 93bd b036 10bc
000002b0: f051 b7bd 2d8f 6dbd 997e 71bd 3f30 aabd
000002c0: 65b3 c8bd 3400 09bd 7d42 713c 5792 ec3a
000002d0: e23a b8be 28ff 9ebc 3cb8 02be 6f92 a2be
000002e0: 777d 50bd eed3 e4bd ec81 22bd ec35 1e3d
000002f0: 1a02 96bd 825a 3a3d ed8f 91bd d8a5 b1bd
00000300: 1813 583c 014b bd3d 15f4 803d 63c8 a0bd
00000310: ed5d 06bd 865c 533d 7b85 27bb c3e1 4abd
00000320: 0d1c aebd 80bb 1d40 d801 9640 473c 53c0
00000330: 7e14 0a3d cc6b 25be 8a92 3abe ac6b dabd
00000340: ad9a 8e3d 394f bc3d 4009 4e3b 61f3 823d
00000350: 4d38 65bd 3a2d a1bd c505 713e f802 8e3c
00000360: 3edb 793d 15d5 43bd af55 84bd e6f7 5abd
00000370: 59a3 6340 fda6 93c0 5ff8 adbd c746 bcbd
00000380: cbe3 ae3d 502c aabd 3613 44bb 1bca ce40
00000390: e4f6 0ebd 54ba b73c 7519 9b3d 769c 8840
000003a0: 4dc6 83bd f201 073d d806 1abe fbd9 a8bd
000003b0: e991 eb3f 31a1 b33d c38d 7ebd 88eb 503d
000003c0: ed66 8b40 2c89 68bd d6de acbc b0c7 d0bb
000003d0: 49fb e03d a31a 5c3d c0e0 9c3c d0de 1dbe
000003e0: 971f 973d 7502 22bc 62cb 1e40 7af6 28bd
000003f0: 9005 473c a6ab 3d3c 4332 4dbd eff6 a33d

fc2.bias f4 [64]
104.77767 -0.56806487 125.50489 528.7235 200.26822 553.0331 -0.36811775 236.91167
-0.6612998 171.04369 76.50793 232.20486 -0.34951454 485.4954 -0.39707482 -0.08461856
-0.054781094 193.31471 -0.16809423 -0.8651348 121.09582 41.730965 -0.0668732 103.80907
228.92506 228.72102 121.08083 234.13385 229.79002 -0.012579533 -0.02301878 225.62842
-0.7760305 90.21677 -0.471611 -0.37547672 -0.6094339 91.02319 -0.24589393 138.1465
-0.25487426 279.78302 127.625984 158.45474 179.70651 -0.42256612 234.60292 -0.44378132
74.75656 78.9915 73.679794 -0.6069635 -0.7620575 227.57828 -0.6275363 106.898285
-0.005884729 204.20897 197.1644 -0.28871956 -0.3890265 69.42916 81.511604 92.35085
00000000: 2b8e d142 b36c 11bf 8102 fb42 4e2e 0444
00000010: aa44 4843 1e42 0a44 ee79 bcbe 63e9 6c43
00000020: f24a 29bf 2f0b 2b43 0f04 9942 7234 6843
00000030: 92f3 b2be 69bf f243 644d cbbe 7f4c adbd
00000040: 2462 60bd 9150 4143 e520 2cbe 7979 5dbf
00000050: 0f31 f242 82ec 2642 d1f4 88bd 3e9e cf42
00000060: d1ec 6443 95b8 6443 6329 f242 4422 6a43
00000070: 3fca 6543 631a 4ebc e191 bcbc e0a0 6143
00000080: efa9 46bf fc6e b442 ff76 f1be 7c3e c0be
00000090: dc03 1cbf e00b b642 9ecb 7bbe 8125 0a43
000000a0: e17e 82be 3ae4 8b43 8140 ff42 6a74 1e43
000000b0: deb4 3343 965a d8be 599a 6a43 4e37 e3be
000000c0: 5c83 9542 a6fb 9d42 0e5c 9342 f661 1bbf
000000d0: 3316 43bf 0a94 6343 38a6 20bf eccb d542
000000e0: afd4 c0bb 7f35 4c43 162a 4543 0dd3 93be
000000f0: 7b2e c7be bbdb 8a42 f105 a342 a3b3 b842

head.weight f4 [4, 64]
-0.4913165 -0.0039352765 -0.6382597 0.010504567 0.6728232 0.088375315 -0.0571564 25.149591
0.07112225 0.16030028 46.348488 23.92735 0.035037145 -0.040941913 0.3187179 0.031168208
0.22977312 -0.32756183 0.014127368 -0.057996273 46.785564 20.51472 -0.019058425 15.229097
22.917952 22.93252 -0.32684338 18.57828 22.914797 -0.09000279 0.09631951 16.806412
0.12965548 -1.1012576 0.027409509 0.021940816 0.31121635 13.902212 -0.082531154 -0.60933775
0.74903715 1.3664024 -0.32132128 0.4297686 0.00014040011 -0.04364684 24.45221 0.032049745
-0.02625377 14.089304 10.100737 -0.38379264 0.016368182 19.005274 0.052854523 0.0242832
0.53386366 0.4737181 1.6772288 -0.16336715 0.121141605 15.529778 14.449955 38.63126
-0.49308625 0.06666575 -0.09413537 0.3355634 1.2829306 0.28142673 0.11843586 26.624378
-0.005554537 0.52850413 20.442167 14.419435 -0.07408758 0.29993382 0.27896672 -0.40734842
0.03960987 1.1369342 -0.0121096475 0.03219051 56.0261 15.201907 -0.50167876 19.654026
12.113895 11.572292 -0.31270576 16.921043 11.860427 0.080979496 -0.018065766 8.757129
-0.083297685 0.7869437 0.01912053 -0.26586738 -0.27581713 18.751865 0.17586812 -0.08530184
0.23882632 0.65660226 1.5136962 0.23922937 0.0496544 -0.29974368 26.50104 -0.07254101
0.7109239 18.209335 16.810837 -0.35662332 -0.28605813 9.712979 -0.11422942 -0.086398154
0.0024651063 1.1407878 1.0132151 -0.5118285 -0.46721762 48.053432 16.606335 45.86511
0.04318843 0.13108215 -0.41991797 0.028188782 -0.31584933 0.020432156 0.019857362 4.365819
-0.18020673 -0.43644744 18.544043 3.5472794 -0.045316033 -0.00869686 -0.32566854 -0.3388698
-0.050230272 -0.21007012 0.28008318 0.009450913 54.297306 -0.31281868 0.18265095 18.496952
2.6131766 2.2578511 -0.053785093 7.379215 3.0283606 -0.10380018 -0.045027003 0.69093156
-0.6973217 -0.6904587 -0.010056388 -0.041536115 0.06313424 14.78535 -0.44417733 0.0402278
0.47296694 -0.30780324 -0.45389757 -1.1089296 -0.6328587 0.004409848 4.1338515 -0.036192585
0.29020134 15.935972 6.7451644 -0.26522666 0.06272206 2.279641 -0.22140129 0.45565403
-0.09314591 -0.34496087 -0.63758606 -0.108290635 0.24046388 4.5856614 15.558396 20.010624
0.36352992 -0.06696759 0.17845257 0.016419632 -0.10532014 -0.013718039 -0.3038917 7.502328
-0.13979481 0.22153483 28.911467 0.009196356 0.27220213 -0.021840766 -0.5232696 0.120283104
0.23292495 -0.07581831 0.43359497 -0.031646162 62.11729 -0.25073093 0.07812879 26.626217
-0.72805214 -0.16399823 0.83687824 24.711021 -0.33095932 0.061317842 0.0729412 -0.14870404
-0.056734987 0.01884849 -0.2588297 -0.0020727192 0.005763367 24.008041 -0.22304748 -0.15405025
0.1107268 0.019466085 0.19562778 -0.31425706 -0.22685894 0.07698414 8.239333 -0.19035672
0.04984721 24.286507 15.370735 -0.2518009 0.28649268 -0.33420402 -0.026976716 0.3228071
-0.18852356 0.18555257 -0.062075898 0.17059253 0.26890752 6.9997053 25.029545 29.786812
00000000: d68d fbbe 7ef3 80bb fd64 23bf 591b 2c3c
00000010: 243e 2c3f 1efe b43d d41c 6abd 5d32 c941
00000020: 8ba8 913d c225 243e da64 3942 366b bf41
00000030: 1c83 0f3d b5b2 27bd fe2e a33e 7854 ff3c
00000040: a549 6b3e 2fb6 a7be 7a76 673c 808d 6dbd
00000050: 6b24 3b42 261e a441 6a20 9cbc 62aa 7341
00000060: f757 b741 cd75 b741 0458 a7be 51a0 9441
00000070: 8151 b741 6253 b8bd 2a43 c53d 8873 8641
00000080: 68c4 043e 02f6 8cbf e889 e03c 3abd b33c
00000090: c057 9f3e 766f 5e41 1806 a9bd 8ffd 1bbf
000000a0: e6c0 3f3f 46e6 ae3f 3984 a4be a10a dc3e
000000b0: 5e38 1339 07c7 32bd 209e c341 9846 033d
000000c0: 2512 d7bc ca6d 6141 9e9c 2141 7880 c4be
000000d0: 9116 863c cd0a 9841 fc7d 583d 90ed c63c
000000e0: 4aab 083f 2e8b f23e 6faf d63f b849 27be
000000f0: 1719 f83d f879 7841 0433 6741 6986 1a42
00000100: cd75 fcbe 0e88 883d 0bca c0bd f7ce ab3e
00000110: 1237 a43f 2a17 903e 808e f23d bafe d441
00000120: d502 b6bb 0c4c 073f 8f89 a341 01b6 6641
00000130: 3bbb 97bd ed90 993e bad4 8e3e f98f d0be
00000140: f63d 223d 0f87 913f 8b67 46bc 32da 033d
00000150: ba1a 6042 033b 7341 056e 00bf 723b 9d41
00000160: 84d2 4141 1c28 3941 f81a a0be 4c5e 8741
00000170: 4fc4 3d41 94d8 a53d a8fe 93bc 331d 0c41
00000180: fa97 aabd 2475 493f a8a2 9c3c c51f 88be
00000190: e737 8dbe d203 9641 c616 343e bbb2 aebd
000001a0: e38e 743e 1617 283f ccc0 c13f 8bf8 743e
000001b0: 6a62 4b3d 0178 99be 2102 d441 6290 94bd
000001c0: 1cff 353f b8ac 9141 987c 8641 5597 b6be
000001d0: 3676 92be 5d68 1b41 1df1 e9bd 84f1 b0bd
000001e0: 9f8d 213b 5605 923f 08b1 813f 3107 03bf
000001f0: 2637 efbe b736 4042 c6d9 8441 df75 3742
00000200: 5ae6 303d 663a 063e 7dff d6be 29ec e63c
00000210: 01b7 a1be 5661 a73c e8ab a23c cab4 8b40
00000220: 1d88 38be 0a76 dfbe 335a 9441 a006 6340
00000230: 4e9d 39bd 467d 0ebc 07be a6be 5880 adbe
00000240: 42be 4dbd 9f1c 57be 1067 8f3e 01d8 1a3c
00000250: 7130 5942 c529 a0be da08 3b3e c2f9 9341
00000260: 493e 2740 a280 1040 c24d 5cbd 8722 ec40
00000270: a9d0 4140 3095 d4bd 3c6e 38bd e4e0 303f
00000280: ad83 32bf e7c1 30bf 8cc3 24bc c621 2abd
00000290: 864c 813d cb90 6c41 366b e3be e8c5 243d
000002a0: b928 f23e 6398 9dbe 4365 e8be 68f1 8dbf
000002b0: 0703 22bf 7c80 903b 8348 8440 ad3e 14bd
000002c0: 4595 943e bef9 7e41 63d8 d740 cacb 87be
000002d0: 6c74 803d a3e5 1140 05b7 62be 7c4b e93e
000002e0: 48c3 bebd b69e b0be d738 23bf 7bc7 ddbd
000002f0: 2a3c 763e bdbd 9240 31ef 7841 c215 a041
00000300: 9820 ba3e 4e26 89bd 45bc 363e 7782 863c
00000310: 16b2 d7bd a0c1 60bc b197 9bbe 1213 f040
00000320: 5f26 0fbe 07da 623e af4a e741 50ac 163c
00000330: 145e 8b3e 68eb b2bc fff4 05bf fd56 f63d
00000340: e183 6e3e a146 9bbd 2900 de3e 689f 01bd
00000350: 1b78 7842 ce5f 80be fd01 a03d 7e02 d541
00000360: a061 3abf 27ef 27be a73d 563f 2cb0 c541
00000370: 8073 a9be 6b28 7b3d 3262 953d df45 18be
00000380: f262 68bd 2668 9a3c 5485 84be 75d6 07bb
00000390: a0da bc3b 7810 c041 8f66 64be 59bf 1dbe
000003a0: bcc4 e23d 5777 9f3c a652 483e 4de6 a0be
000003b0: b64d 68be dca9 9d3d 4fd4 0341 dfec 42be
000003c0: 972c 4c3d c44a c241 88ee 7541 0cec 80be
000003d0: 2baf 923e ca1c abbe 46fe dcbc f946 a53e
000003e0: 520c 41be 7e01 3e3e 4c43 7ebd cfaf 2e3e
000003f0: 3fae 893e 96fd df40 823c c841 644b ee41

head.bias f4 [4]
2407.3757 2508.863 3176.6492 3771.9983
00000000: 0376 1645 cfcd 1c45 638a 4645 f9bf 6b45
