src/model-HIV.pth (torch, 30180 bytes, 8 tensors)

fc_1.weight f4 [32, 6]
000000 9e 76 82 be 10 af 68 3e 34 5e 08 be 94 7a 94 3d
       -0.25481123 0.22723031 -0.13317186 0.072499424
000010 74 44 8a be 58 d3 7f bd ae 5b 0c bf 8a ca 0d bf
       -0.2700535 -0.062457412 -0.5482739 -0.55387175
000020 c2 ba 16 bf dc ad 20 bf 74 4c 2b be 22 25 b2 be
       -0.5887872 -0.6276529 -0.16728383 -0.34793955
000030 d8 0f a5 3e 9d f2 e3 c2 93 72 c8 40 62 47 32 41
       0.3223865 -113.973854 6.263986 11.142427
000040 dc 06 61 c2 e1 13 ae 41 0d ba 7f bd 9f d0 6c be
       -56.2567 21.759706 -0.06243329 -0.23126458
000050 aa 90 1d be dc 56 cf be b3 e4 78 bd de c4 2c 3e
       -0.15387216 -0.40495956 -0.06076498 0.16871974
000060 ab 16 48 40 37 e4 0c 40 bb 9a cc 40 dd d9 af 42
       3.1263835 2.2014291 6.393888 87.925514
000070 11 8c 63 bf f8 9c 0b 42 2b 40 69 be 35 f3 e1 be
       -0.888856 34.90329 -0.22778384 -0.44130865
000080 71 46 68 3f a5 ad ec be 06 5d 82 be 98 db 0f 3f
       0.90732485 -0.4622623 -0.25461596 0.5619445
000090 74 66 20 be 38 30 7e 3e 30 f2 e6 bd 60 12 1f 3e
       -0.15664083 0.24823081 -0.11276662 0.15534353
0000a0 40 44 d4 bd 88 ed 33 3d b0 dc e9 be 35 d7 1a bf
       -0.1036458 0.0439277 -0.45676184 -0.6048463
0000b0 cf b6 37 3f c9 45 dd bf f3 d1 46 bf 5a e1 57 3f
       0.7176332 -1.7286922 -0.7766411 0.84328234
0000c0 da 02 1b c0 30 1d ae c1 6b 9c 66 c1 45 a7 38 41
       -2.422049 -21.764252 -14.413188 11.540837
0000d0 40 93 37 40 95 f7 f2 41 79 1f 33 bf 2e 41 8d c2
       2.8683624 30.37089 -0.699699 -70.627304
0000e0 de b0 15 42 12 13 da c2 ec b8 db c1 65 09 3e 41
       37.42272 -109.03725 -27.465294 11.877294
0000f0 c8 8c 7f bd 00 02 63 3a e4 1d 96 3e c6 dd 30 be
       -0.06239012 0.0008659661 0.2931968 -0.172721
000100 2a b1 2e be 4a a8 31 be 7d 10 22 bf 48 ec 92 be
       -0.1705977 -0.17349353 -0.6330641 -0.28695893
000110 b4 77 50 bf db 2e 43 be ec 0c 26 be 2d 5c 32 bf
       -0.8143265 -0.19060843 -0.16215867 -0.696719
000120 68 c3 0a b9 46 68 51 c1 20 76 b2 c0 9f 0d 9d 42
       -0.000132335 -13.087957 -5.5769196 78.5266
000130 ab 72 2b 40 c8 fb 14 42 ad ad e6 bc de de 99 be
       2.6788738 37.24588 -0.028158987 -0.30052847
000140 2a 34 8f bd 8d 9e c6 bd c6 f3 f5 be c5 99 63 be
       -0.069923714 -0.0969821 -0.48037547 -0.22226627
000150 95 a4 08 bf e7 f3 c5 be b2 86 39 bf e6 97 36 be
       -0.5337613 -0.38662645 -0.72471154 -0.17831382
000160 b3 70 20 be 7f 87 f3 be bb 3a 89 3e ff c3 74 c3
       -0.15667991 -0.47564313 0.2680262 -244.76561
000170 ef 38 f5 41 f8 97 4f c3 85 ac 51 c3 0d 16 c5 3e
       30.6528 -207.59363 -209.6739 0.38493386
000180 69 ed 07 bf 20 0d 29 bd 29 e6 b6 be b1 f7 3b bd
       -0.53096634 -0.041272283 -0.35722473 -0.045890514
000190 e6 b5 d5 bb 79 61 cf be 4e f3 99 be bd 1d ca be
       -0.006521928 -0.40504053 -0.3006844 -0.39475814
0001a0 67 48 b9 bd d0 50 95 bd ec 4b 3c bc ab 47 e5 be
       -0.09047013 -0.072908044 -0.011492711 -0.4478124
0001b0 18 c6 2a 3e 8a d8 89 c2 af 07 37 c1 ce b1 73 42
       0.1667713 -68.92293 -11.439376 60.923637
0001c0 2a 79 14 c2 7a 65 fc 41 e6 1e ad be 6c 5e 09 3e
       -37.118324 31.54955 -0.33812636 0.13414925
0001d0 cf 11 22 bf 78 c8 1c bf 3d 7e 30 be 32 29 91 3e
       -0.63308424 -0.6124339 -0.17235656 0.28351742
0001e0 c2 14 9f be d1 c5 54 c2 c4 fd 7c 42 87 a6 d5 c2
       -0.31070524 -53.19318 63.247818 -106.82525
0001f0 4f 44 b9 c1 4b 72 3a 41 84 06 b4 be 57 c8 57 bf
       -23.158354 11.652904 -0.3516122 -0.8429007
000200 f3 fe 73 3f 8a e7 da bf ea 77 80 bf 10 50 15 3f
       0.95310897 -1.710191 -1.0036595 0.5832529
000210 d0 ad fb be ac 06 0b 3e 4a 09 20 3f bc 93 b0 bd
       -0.49156046 0.13576764 0.62514174 -0.08621928
000220 a4 ed e5 bd 57 db f6 bc 40 85 d7 bc fc 40 7c 3e
       -0.11226967 -0.030133886 -0.026308656 0.24634165
000230 d0 72 86 3e e7 d0 42 be 68 0e 42 bd 00 34 43 bb
       0.2625947 -0.19025002 -0.04737702 -0.0029785633
000240 75 82 d0 bf 64 55 f2 c1 d7 94 bc c1 0b bf e9 c2
       -1.6289812 -30.291695 -23.572676 -116.87313
000250 7a 23 c9 c1 8a 1d 3a 41 6d 0c be 3e 4f 61 ce c2
       -25.142323 11.632212 0.37118855 -103.190056
000260 c2 5d 01 c1 26 05 32 42 1c d2 83 c2 06 0c ef 41
       -8.08539 44.505028 -65.91037 29.88087
000270 a7 d1 32 bf e7 2a fd be e7 d0 92 be ec d2 a4 3f
       -0.69851154 -0.49446794 -0.28675005 1.2876868
000280 85 5e 80 be c2 c9 e5 3f 97 d5 6f bf b8 ac 8f bf
       -0.25072113 1.7952197 -0.9368529 -1.1224585
000290 26 1b 60 bf d1 f0 a5 bf 0e 92 6e bf 94 e0 b9 3f
       -0.87541425 -1.2964116 -0.9319161 1.4521661
0002a0 5f 9e 8a be ef 5a c1 be 7f ac 60 be 08 1c 47 3e
       -0.27073953 -0.3776469 -0.21940802 0.19444287
0002b0 d6 c1 cd be c8 3c ac 3d 91 a6 94 be 8e 07 c9 3e
       -0.40186948 0.084100306 -0.2903333 0.39263576
0002c0 64 90 16 be c0 f2 87 bc ee 60 c3 be 5c fc cd bd
       -0.14703518 -0.016595244 -0.3815989 -0.10057899
0002d0 f8 20 ca be a1 fa ed be 8f a0 37 c0 42 57 17 bf
       -0.39478278 -0.46480277 -2.8691747 -0.5911752
0002e0 f6 80 93 40 ec 12 04 41 d3 9f dd 3b 98 33 18 c2
       4.6094923 8.25462 0.0067634373 -38.050385
0002f0 00 cd 81 bd 68 20 94 42 d1 59 1f c1 d3 a1 04 42
       -0.06337929 74.06329 -9.959428 33.15803

fc_1.bias f4 [32]
000000 b4 04 e0 bd 89 b2 c0 be ac 68 4d 42 22 4f 0a bd
       -0.10938397 -0.37636212 51.35222 -0.033766873
000010 49 ff d6 42 48 84 ce bd b0 cc 00 3d 06 10 be 3f
       107.498604 -0.100838244 0.031445205 1.484864
000020 4b 3b 89 42 42 c2 40 42 c8 08 9a be 5e f5 e4 be
       68.61581 48.189705 -0.30084825 -0.4471845
000030 37 f2 57 42 f4 b8 5f 3d 3b 82 a9 be dd ae 99 42
       53.986538 0.054619744 -0.3310717 76.84153
000040 5a 64 1b bf 34 43 97 be 73 5c 3a 42 44 c8 72 be
       -0.607 -0.2954346 46.590282 -0.23709208
000050 3a fe 5d 42 b2 33 55 3f dc 3a 81 be 88 1a 4a 3d
       55.49827 0.83282006 -0.2524022 0.04934171
000060 3d bd 41 42 1c ef 4b 42 a4 f5 e8 3f 60 ee a3 3f
       48.434803 50.983505 1.8199964 1.2807121
000070 76 ae b2 be 08 11 c5 3d 04 f7 ea c0 1e 8b 43 42
       -0.34898728 0.09622389 -7.3426533 48.885857

fc1.weight f4 [64, 32]
000000 61 78 07 3e 39 15 72 3d 60 3e fb bd be c9 b6 3d
       0.13229515 0.05910227 -0.122677565 0.08925198
000010 c2 8d 82 be 84 50 5c be c5 09 25 3e 02 8f d9 bd
       -0.25498778 -0.2151509 0.16117008 -0.1062298
000020 3e 78 6b be 1f 75 cd 3d 61 be e7 bd 60 32 1b bc
       -0.22995088 0.10032105 -0.11315609 -0.00947246
000030 17 13 fb be 8a cb a5 3d 81 f2 3a be c2 3c 13 be
       -0.49038002 0.080954626 -0.1825657 -0.14378646
000040 a6 65 8e 3d cc a7 1e be 37 86 ce bd 53 60 cb 3b
       0.06952982 -0.15493697 -0.10084193 0.006206551
000050 93 be 28 3e c2 fe e2 3d 8b d9 67 3d 41 8e 1b 3e
       0.16478948 0.110837474 0.05660395 0.15190984
000060 75 a6 26 3e 9d 26 2a bd 35 6e 53 be dd 74 bf 3d
       0.16274436 -0.04154073 -0.2064751 0.09348462
000070 86 d7 c7 3d c4 63 19 be 7a 83 9b be a4 72 0d bf
       0.09757905 -0.14979464 -0.30373746 -0.5525305
000080 40 18 18 bb 52 7d ec 3c 6e ba 58 be d3 9a 81 3d
       -0.0023207814 0.028868351 -0.21164867 0.063283585
000090 62 b6 d0 bd 58 bd b2 3d 03 4d 04 3e 62 a0 03 be
       -0.10191037 0.08727521 0.12920003 -0.1285415
0000a0 a2 5e 6a be 20 0b a3 3d 9c cb 33 3d a4 5a 64 be
       -0.22887662 0.07961106 0.04389535 -0.22300202
0000b0 1a 9c b4 bd ef 3e e8 3b 8c a5 2a bd 13 fd 0a be
       -0.088188365 0.0070875804 -0.041661784 -0.13573103
0000c0 05 15 24 bd 69 9d 34 3e e9 37 ac bd a9 2c 58 3d
       -0.04005911 0.17638172 -0.084091015 0.052776966
0000d0 a8 71 9e bd eb 53 4c be 40 48 53 be e0 b0 38 bc
       -0.07736522 -0.19953887 -0.2063303 -0.011272639
0000e0 fa 2c 44 3d c0 d6 43 3d 1a bb b4 bd 46 fd da 3d
       0.047894455 0.047812223 -0.08824749 0.10692839
0000f0 24 22 1f 3d ed 2a 30 3e 55 9a 3f bd e9 19 a5 bd
       0.03885092 0.17203875 -0.046778042 -0.080615826
000100 14 32 f5 bd b0 96 08 be b2 ae 7c bf 56 b9 a5 3d
       -0.11972442 -0.13338733 -0.98704064 0.08091991
000110 81 a2 21 bf 93 8a 13 3e aa e0 b7 3d a4 19 13 be
       -0.63138586 0.1440833 0.08978398 -0.1436525
000120 b4 9c f6 bf 0b 0d af be b4 df b4 bd 80 00 e8 bb
       -1.9266572 -0.34189638 -0.088317305 -0.0070801377
000130 6d 3d 8c 3f b5 7a 30 3e 9f 4c 2b 3e 19 10 3e bc
       1.0956246 0.17234309 0.16728447 -0.011600518
000140 f6 34 64 bd e5 35 0e be 76 4e d5 bf e4 c5 21 be
       -0.05571457 -0.13887747 -1.6664569 -0.15798146
000150 e8 4b 85 bf 55 03 1c 3e f2 c2 cf 3d 1c bd 73 bd
       -1.041379 0.15235646 0.10144605 -0.05950652
000160 2f 35 11 bf 5b 4d 58 bf 21 92 21 3e d6 ec 1a be
       -0.56721777 -0.84493035 0.157784 -0.15129408
000170 48 a7 dd 3c e3 10 8c bd f2 52 27 bf 87 e3 f1 bf
       0.027057305 -0.068391584 -0.6536094 -1.8897561
000180 7c 62 39 bd 8f c6 47 be 70 6a 79 be 8a 67 0e be
       -0.045259938 -0.19509338 -0.24357009 -0.13906685
000190 19 c9 92 be 6f ab 4e bd 55 5f 12 3e 7d d0 b3 3d
       -0.2866905 -0.05045646 0.14294179 0.0878
0001a0 d1 82 b4 be 81 34 4d be 3e 75 e2 3d 0f 6e b4 3c
       -0.35256055 -0.2003956 0.110575184 0.022025136
0001b0 98 8b 8f be b0 33 ce bc 86 de 01 be a7 39 77 be
       -0.2803619 -0.02517113 -0.12682542 -0.24143086
0001c0 d3 e4 e5 3d 88 85 29 3d c0 ea 8a bd 11 65 42 be
       0.112252854 0.04138711 -0.06783056 -0.18983866
0001d0 50 d7 bf bd 62 48 37 bc 36 3f 90 3e 40 b1 af bd
       -0.093672395 -0.011186691 0.28173226 -0.0857873
0001e0 b0 b4 a4 be ad 70 1f be d2 04 8a bd 69 f5 c1 be
       -0.32169104 -0.15570326 -0.06739201 -0.37882546
0001f0 51 fe 1b 3e cb 10 1e be a6 bd 85 be 54 8e be bd
       0.15233733 -0.15436094 -0.26121253 -0.09304491
000200 4e 33 fb bd db e3 ac 3c bf 83 db be 43 e8 52 be
       -0.12265645 0.021104744 -0.42873952 -0.20596413
000210 49 86 97 be 22 13 06 bd c0 98 d8 bc 9b 6a ff 3c
       -0.2959464 -0.03273309 -0.026440024 0.031178763
000220 65 4b ea be 04 a6 dc be e4 bb 43 3d 06 8b 37 3d
       -0.45760646 -0.4309541 0.04778661 0.044810317
000230 08 c6 a1 be 32 61 c3 3d 96 d1 14 3d c1 76 de bc
       -0.31596398 0.09540023 0.03633269 -0.027156236
000240 1e 02 2a 3d cc aa c6 bd c1 28 c4 be 5e 43 b3 3d
       0.041505925 -0.09700546 -0.38312343 0.08753084
000250 07 9d 97 be 77 f2 3c be 93 34 93 bd 23 59 be bd
       -0.2961199 -0.18451868 -0.07187762 -0.09294345
000260 d8 ba 26 bd a6 e8 8f be 89 85 12 be b2 92 1c bc
       -0.04070553 -0.28107184 -0.14308752 -0.009556459
000270 be 39 b8 3d 97 ae 15 be 34 33 d3 be e7 1e f6 be
       0.089953884 -0.14617382 -0.41250002 -0.48070452
000280 5b 7d 03 3e 25 74 c1 bd 08 46 fc bf 8e be d7 3d
       0.12840788 -0.09445981 -1.9708872 0.10534392
000290 90 31 a1 3f 31 4d f5 bd 2a 24 e8 3d 9e 69 fa 3d
       1.259325 -0.11977614 0.11335023 0.12227176
0002a0 7d 89 05 40 48 b8 04 c1 d6 4e ff 3d dd 55 1a 3e
       2.0865166 -8.294991 0.12466209 0.15071817
0002b0 53 1f 6d 40 dd dc e5 bd f8 3e c1 bd db a5 d1 c1
       3.7050369 -0.11223767 -0.094358385 -26.205984
0002c0 ce da d7 3d 00 28 84 3a 5a ac ce be cd 34 1b 3e
       0.105397806 0.0010082722 -0.4036587 0.1515686
0002d0 b0 b8 82 c0 f4 bc 91 bd d7 a7 2a 3e dd 8b 2c 3e
       -4.085045 -0.07116118 0.16665588 0.16850229
0002e0 78 57 38 40 12 06 40 c0 90 d6 9d 3e 8f 41 93 3e
       2.8803387 -3.0003705 0.3082776 0.28760955
0002f0 74 8d 58 3d e8 5c 0a 3d 95 40 a3 bf 7e 6c cb 3f
       0.052869275 0.03378001 -1.2754084 1.5892484
000300 36 5e b3 3d ca cc c9 3d f5 fb 4e be 00 0f 69 3d
       0.08758204 0.098535135 -0.20213301 0.05689907
000310 c0 50 fc be 40 09 de 3c 26 fd 80 3d 94 43 6a bd
       -0.49280357 0.02710402 0.06298284 -0.057193354
000320 3b a6 21 be 05 11 85 be 1f 6b 33 3e 64 c1 2c bd
       -0.15786068 -0.25989547 0.17521332 -0.04217662
000330 af 3c 18 bf 71 7f af bd 75 dc 04 3e 44 cf 85 be
       -0.59467596 -0.085692294 0.12974723 -0.26134694
000340 70 8a 44 bc e4 7f eb bd 1c 59 82 bd c0 10 d8 3c
       -0.011995897 -0.114990026 -0.063646525 0.026375175
000350 f2 8e d0 bc f8 a0 f5 bc e6 23 b0 3d f6 b0 bb 3d
       -0.025458787 -0.029983982 0.08600597 0.09164612
000360 c5 90 0d bd d9 cc 7d be 2d fb 4e be e7 66 b6 be
       -0.03456189 -0.24785174 -0.20213003 -0.35625383
000370 bd f1 13 be 78 c9 aa bc 59 9b 87 be 87 de 23 bf
       -0.14447685 -0.02084802 -0.26485708 -0.64011425
000380 66 8b 22 be d2 d6 32 be e1 8c bb be 74 c6 d7 bd
       -0.15873489 -0.1746476 -0.3663092 -0.10535899
000390 f1 e9 a1 be 30 4e 52 3d c6 71 a0 3d 23 b8 fa bd
       -0.31623796 0.051344097 0.078342006 -0.122421525
0003a0 13 ce a8 be a2 e2 2f be 81 1a af bd 18 11 8a 3c
       -0.32969722 -0.17176297 -0.08549977 0.016853854
0003b0 d1 95 50 be ec 40 dd bd f0 37 33 3c c1 a9 2b be
       -0.2036965 -0.108033985 0.0109386295 -0.16763975
0003c0 8a 77 8e 3d 36 4d 92 3d 88 37 b0 be f0 46 d8 bc
       0.06956394 0.07143633 -0.34417367 -0.026401013
0003d0 5b 16 89 be 00 f1 78 bb 1b 0e 83 bd 93 26 05 3e
       -0.26774868 -0.0037985444 -0.06399175 0.13002996
0003e0 1f 44 df be fc c2 07 be 2c e8 21 3d 40 26 09 bb
       -0.4360666 -0.13257974 0.039528057 -0.002092734
0003f0 a2 87 ef 3d 22 86 d7 3d da da d8 be 9a 3e ad be
       0.11695792 0.10523631 -0.4235447 -0.33836824

fc1.bias f4 [64]
000000 83 e2 e7 be a9 82 34 bd a3 1a 69 41 cc ea f6 bc
       -0.45290002 -0.04406992 14.569003 -0.030141257
000010 78 a8 05 bf ec 50 50 c1 6a 58 e7 be 72 ee 2e 42
       -0.5221019 -13.019756 -0.45184642 43.732857
000020 1c d4 e2 bd 90 43 3a 41 3a b3 d4 be 79 d8 b0 be
       -0.11075613 11.641495 -0.4154299 -0.34540156
000030 b9 d4 3d 42 f1 b9 47 bf 30 51 51 be 27 98 e3 3e
       47.457737 -0.780181 -0.20441127 0.4445202
000040 b6 f1 1a 42 ba 29 0b bf cf 60 a3 be 8b 83 2b 42
       38.736046 -0.54360545 -0.31909797 42.87846
000050 0a c8 0e bf ef 55 2d be 4d dc ec be da b6 cd be
       -0.55773985 -0.16927312 -0.46261826 -0.40178567
000060 08 94 28 be 5b 5a 31 bf ea 69 8a be e2 50 fd 41
       -0.1646272 -0.69278497 -0.2703393 31.664494
000070 08 e7 e2 be 55 ce f9 be b4 24 89 bc 04 c7 d7 42
       -0.44316888 -0.4879023 -0.016741134 107.8887
000080 40 cc c2 be 36 ba b9 42 0e 91 b8 be 2b ad f5 be
       -0.38046455 92.86369 -0.36048168 -0.4798368
000090 4c b8 fa be 54 a8 0f bf d1 02 3e bf bb d9 66 42
       -0.48968732 -0.56116223 -0.7422305 57.712627
0000a0 89 4a 1f be de cd 3d 42 c9 33 e2 be c6 db f1 be
       -0.15555777 47.451042 -0.44180134 -0.47237986
0000b0 b6 2b 78 be a5 59 33 42 e4 3e ee bc c9 e5 1d 42
       -0.24235424 44.837543 -0.029082723 39.4744
0000c0 da 8b 2c bf 29 44 33 42 fc b4 d9 42 21 55 a4 be
       -0.67400897 44.816563 108.853485 -0.32096198
0000d0 9f 55 0e bf 3a 36 4c 42 33 8f 83 41 b2 14 ab be
       -0.555994 51.052956 16.444921 -0.33414227
0000e0 d7 c5 af be 03 13 e4 41 30 95 e4 be ac 9a 8c 42
       -0.34330627 28.509283 -0.4464507 70.30209
0000f0 d7 1e 05 bc 1b f7 8f 42 8c 4c d1 be 2f fa a6 be
       -0.008125029 71.98263 -0.40878713 -0.3261275

fc2.weight f4 [64, 64]
000000 f8 77 e5 bc cf 61 a8 bd 39 5f cb bd e0 8a 77 bf
       -0.028011307 -0.082217805 -0.09930272 -0.9669628
000010 56 3d a6 bc cf 9c 8b be c8 38 c9 bc 08 14 b1 3d
       -0.02029292 -0.27268073 -0.024563208 0.08646399
000020 c6 c4 d8 bd 9e e9 fb be d8 d0 7d 3d 08 b1 09 3d
       -0.105844066 -0.49201673 0.061966747 0.033616096
000030 4d e8 74 3c d0 b0 50 3f e2 9f a8 bf 5f c4 88 bd
       0.014947963 0.81519794 -1.3173792 -0.0667808
000040 51 5d dd 3e a4 d1 29 3e b2 32 03 3d d5 be 91 be
       0.43235257 0.16583878 0.03203077 -0.28465906
000050 b6 35 ed 3f 1a c5 e9 3d 59 58 67 c0 00 76 08 be
       1.8532016 0.11414547 -3.6147673 -0.13326263
000060 22 c2 8b bf 24 d9 1f 3f fe 3c b4 bd 6e ef 0e c0
       -1.091862 0.62440705 -0.08800696 -2.2333636
000070 54 94 19 bd 50 e5 cb bd aa dc a6 bc 0f b4 9d bf
       -0.037494972 -0.09955847 -0.020368893 -1.2320575
000080 86 25 76 bf 91 56 36 bf 0a 3d 12 41 0c 88 35 3d
       -0.96151006 -0.7122584 9.139902 0.044319198
000090 76 0d 80 ba 13 bd 0f be 65 78 17 be 8e d4 18 bf
       -0.0009769637 -0.1403697 -0.1479202 -0.5969933
0000a0 15 99 59 40 82 37 14 be 68 04 a5 bf a9 d3 ae bf
       3.3999684 -0.144743 -1.289197 -1.3658344
0000b0 c4 1d a7 bf b6 5d 78 3d 4f 9c b4 bf 62 30 95 3e
       -1.3055959 0.060636245 -1.4110202 0.29138476
0000c0 f5 26 8e bd 17 66 98 be b1 0e 81 bd 45 90 0a bf
       -0.06941024 -0.29765388 -0.0630163 -0.5412639
0000d0 85 21 d7 bd 2f 54 00 bd f4 05 e7 be dd c2 a6 bd
       -0.1050444 -0.031330284 -0.4512173 -0.08142636
0000e0 66 8e c2 be cc 4b af be 38 6b be 3d a9 92 29 bf
       -0.37999266 -0.34237516 0.09297794 -0.6623941
0000f0 e2 23 df 3d 85 af 2b bf 1e a3 40 be b0 f3 6d c0
       0.10895516 -0.67064697 -0.18812224 -3.7179985
000100 b6 d3 56 3c 54 42 86 3e af f8 60 be 87 9a 52 bd
       0.013111999 0.2622248 -0.21969865 -0.0514169
000110 d0 c9 14 c0 39 10 11 c0 08 37 49 3e d2 31 93 be
       -2.3248177 -2.2666152 0.19649899 -0.28748947
000120 4d c2 99 3e 26 5c af bf e2 b2 96 bd 38 00 c7 3e
       0.30031052 -1.3699996 -0.07358338 0.38867354
000130 99 db 85 be e9 d4 be bc 72 b4 38 3f 85 e8 a3 3c
       -0.26144102 -0.023294883 0.7215034 0.020008335
000140 bf ff c4 3e 7b 5f 18 be 8f 87 86 bd 5b 98 b7 be
       0.3847637 -0.14880173 -0.065688245 -0.35858425
000150 ed c1 88 bc fd 3b c6 bf 05 67 de 3f 00 12 ad 3e
       -0.016694034 -1.5487057 1.7375189 0.33802795
000160 27 c8 ea bf 37 88 48 3f 65 f2 d2 bc 8e 7c 9c bd
       -1.8342332 0.7833285 -0.025750348 -0.076409444
000170 96 f3 ba 3e f1 03 91 3e 99 df 16 bc 5d cb c4 be
       0.36513966 0.2832332 -0.009208583 -0.38436404
000180 63 bd d8 bf 55 7c fe bd 07 dc 0d 3f 22 e1 42 3e
       -1.6932796 -0.12426058 0.5541386 0.19031194
000190 45 61 7f 3e 03 eb 98 3d 8c 6e 0a be 71 14 45 c0
       0.24939449 0.074667 -0.13518733 -3.0793726
0001a0 d0 f7 3d bf 76 85 cd be 15 c7 2a c1 a4 28 07 c0
       -0.74206257 -0.40140885 -10.673604 -2.1118555
0001b0 4f c4 b0 be d5 67 1f bf fa 29 38 c0 67 e7 c6 3e
       -0.34524772 -0.6226781 -2.877562 0.3884842
0001c0 8f b6 26 3e d6 88 26 3e ae 18 8e 3c bb f2 e4 3e
       0.16280578 0.16263136 0.017345753 0.4471644
0001d0 55 25 18 be 03 e7 a5 be 0a 20 ae 3e 9f 68 26 be
       -0.14857991 -0.3240281 0.3400882 -0.16250847
0001e0 d1 cf d9 3e 9e 4f 1a 40 3b 67 49 3e c6 ca f2 bf
       0.42541364 2.4111094 0.19668286 -1.8968132
0001f0 38 17 13 3d c5 fe f4 bf fa 79 a4 be ca 98 d5 c0
       0.035910815 -1.914025 -0.3212431 -6.674901
000200 fa c0 e5 bc 4c 33 53 bd 42 94 73 3d 8b cd a8 3d
       -0.02804612 -0.051562592 0.05946756 0.08242329
000210 fb 86 17 bf 7a 38 85 bd 7e 70 9b 3d 24 5e b0 3d
       -0.5919034 -0.06504913 0.075898156 0.08611706
000220 47 8f 82 bd ac 1a 8b 3c b2 c5 a1 bd b2 d6 15 bd
       -0.06374984 0.016980492 -0.078990355 -0.036581703
000230 11 23 f5 be 13 f6 5c 3d 02 f9 0f bf f4 52 a8 be
       -0.47878316 0.053945612 -0.5623933 -0.32875788
000240 e5 02 87 be 1e 8d 0a be 8b 6c 02 be 5f b9 27 3d
       -0.26369396 -0.13530394 -0.12736718 0.040948268
000250 79 17 a4 3d 6d 76 0c be 65 26 de bd c6 79 36 3d
       0.080122896 -0.13717051 -0.10847167 0.044549726
000260 44 86 c6 be 32 56 8e 3c 40 10 17 3e a1 13 c6 bd
       -0.38774312 0.017375086 0.14752293 -0.09671713
000270 bf bc f3 3d 78 5e aa bd a5 ec ef bd da 00 f8 be
       0.11901235 -0.083188 -0.11715058 -0.4843815
000280 f2 da 57 3d 86 90 6e be 7d d9 ba 3d 26 5a b0 3c
       0.052699037 -0.23297319 0.09123514 0.021527361
000290 86 0d 16 be 6d c1 2d bc 94 09 0b be 50 7f b1 be
       -0.14653596 -0.010605198 -0.13577873 -0.34667444
0002a0 08 d8 21 bc 70 fc c8 bc a2 a8 a9 be d0 61 3a bf
       -0.009878166 -0.024534434 -0.3313647 -0.728055
0002b0 0a 4c 6b 3c af f6 c8 bc 36 ad a3 bd a7 ec 0c 3b
       0.014361391 -0.02453169 -0.07992022 0.002150336
0002c0 c3 28 c5 bc aa 76 af 3c 3a 26 bd be 66 90 98 bd
       -0.024067288 0.021418888 -0.36943227 -0.07449417
0002d0 c4 a2 54 3d b6 1e 10 be 59 b3 fc 3c 59 dc fa bc
       0.051913038 -0.14074215 0.030847238 -0.030622648
0002e0 70 3c cf bd 5e 34 96 be 9c 6b e8 3d ec d0 b0 be
       -0.101189494 -0.29336828 0.1134865 -0.34534395
0002f0 bc 97 a9 3d 75 34 9b be 88 0a 08 be 42 d3 4a bd
       0.08280894 -0.3031346 -0.13285267 -0.049517877
000300 e8 e8 3b bd 1d 05 f4 3c 13 74 a2 3f 69 6f 4c 3e
       -0.045876414 0.029787594 1.2691673 0.19964375
000310 cc d2 c1 bf 17 77 87 3e 28 67 40 bd a4 40 a9 40
       -1.5142455 0.26458046 -0.046973377 5.2891407
000320 f1 a7 28 bf 24 76 c9 3f 6a aa 68 bf 81 84 9e be
       -0.6588126 1.5739179 -0.9088503 -0.30960467
000330 ec 33 ef 40 c5 70 9e bd 49 39 0e c0 21 9c 6e 3f
       7.475088 -0.07736353 -2.2222464 0.93206984
000340 34 07 de 3f bc d6 cc bd 5b 5f 2e bf 74 97 25 41
       1.7345948 -0.10001895 -0.6811425 10.349476
000350 b4 bd 17 40 fd 5e 18 40 21 4a a7 3e 55 2d 7a bc
       2.3709536 2.3807976 0.32673743 -0.015269597
000360 a3 52 af bf a0 22 25 40 46 a7 d2 bd 9e b3 8b 40
       -1.3697094 2.5802383 -0.10285811 4.365676
000370 6c 6d 30 be 2c 91 cf 3d 1b 63 19 be d0 69 c2 40
       -0.17229241 0.10135111 -0.14979212 6.0754166
000380 bf 06 ca be 82 e7 dc bf 4e 5e 22 40 b0 d7 5f 3c
       -0.39458272 -1.725815 2.537006 0.013662264
000390 05 86 1c be 0e 7d 36 bd 8f 20 b3 3c 7a f4 4d c0
       -0.152855 -0.044552855 0.021866111 -3.2180467
0003a0 d8 b9 fe 3f 6d 07 12 40 97 30 9b bf df 6d c5 bf
       1.9900465 2.2817032 -1.2124203 -1.5424155
0003b0 8c b4 57 bf 13 65 93 3e a2 d8 d7 bf 07 d8 ff 3f
       -0.8425987 0.2878805 -1.6862986 1.9987801
0003c0 bb a2 2f bd d3 9a 3a 41 5d ff 31 41 c4 94 98 3f
       -0.0428798 11.662799 11.124845 1.19204
0003d0 7f a9 85 3d 07 ad 01 41 ae 2c 3a 41 58 18 6f bf
       0.065264694 8.104743 11.635908 -0.9339652
0003e0 1b e9 8e bf 2f 27 fe be d8 f1 72 3d f6 1f e5 be
       -1.1164888 -0.4963927 0.05931267 -0.44750947
0003f0 28 cc bd 3d 81 d6 c7 3f 21 50 c5 bb bd 7f 42 c0
       0.09267455 1.5612336 -0.006021515 -3.0390465

fc2.bias f4 [64]
000000 48 79 4f c0 e4 de a1 42 97 90 64 bf ce 95 d6 40
       -3.2417774 80.93533 -0.89283127 6.7057867
000010 d1 81 09 43 a3 e7 bf 41 57 00 48 bf 48 66 d9 42
       137.5071 23.988104 -0.7812552 108.69977
000020 8b 6c d0 be 1a b9 50 bf 83 42 31 3d d1 d3 24 c0
       -0.40707812 -0.8153244 0.04327632 -2.5754282
000030 f7 15 3a bf d8 b8 d1 42 c9 8e 7a 42 3c 2d da 42
       -0.72689766 104.86102 62.63944 109.08835
000040 e6 d4 88 41 46 80 43 bf 4f d7 fa be bc a4 2e bf
       17.103954 -0.76367605 -0.48992392 -0.68220115
000050 94 68 e3 41 a0 2d c3 42 95 39 de 42 27 29 39 bf
       28.426064 97.58911 111.112465 -0.7232842
000060 01 31 0b 41 cc be e3 42 76 0f 64 bf 4e 56 55 c1
       8.699464 113.87265 -0.8908609 -13.3335705
000070 86 64 50 bf 13 58 03 bf 08 ca 00 bf 24 c5 ee 40
       -0.81403387 -0.51306266 -0.50308275 7.461565
000080 ac 51 68 42 e1 fd cc 42 ff 5c 01 43 e0 56 62 bf
       58.079758 102.49586 129.36327 -0.8841381
000090 0c ce 4c bf c9 35 0f 41 1a 01 23 41 1d 01 a3 bf
       -0.800019 8.950631 10.187769 -1.2734715
0000a0 0f 80 a4 42 08 72 21 bf f0 ff b4 42 8b 39 d2 42
       82.250114 -0.6306462 90.49988 105.11239
0000b0 0f 4d d5 42 bb 13 bc be 0f 38 d2 42 08 ab ee 41
       106.650505 -0.36733803 105.10949 29.833511
0000c0 ca b5 c8 bf c3 6f 99 be 13 0f 2f bf 5a 90 d4 40
       -1.5680478 -0.2996808 -0.68382376 6.642621
0000d0 1c 5e 2d 3f e2 1f c5 bd fb 94 f9 40 cd 0f fa bf
       0.67721725 -0.09625222 7.799436 -1.9536072
0000e0 da b9 19 43 e5 4f fd 42 df 59 15 bf 4e 3f 7e 40
       153.72598 126.656044 -0.5834026 3.9726138
0000f0 ff 0a b5 be ab 92 89 bf e3 f0 86 c0 1e 3e 04 c1
       -0.35359952 -1.0747885 -4.216905 -8.265165

head.weight f4 [4, 64]
000000 40 29 33 bb df 2d b4 40 90 02 90 3e ad 17 b6 3f
       -0.002733782 5.6305995 0.28126955 1.4225975
000010 be 71 74 3f 24 b3 d7 3d d0 18 47 3f 0d 20 0f 3e
       0.95486057 0.10532215 0.77772236 0.1397707
000020 84 4d d5 ba 59 ee 2b 3e 06 c5 df 3e 40 11 d8 bc
       -0.0016273712 0.16790141 0.43705004 -0.026375413
000030 d1 ae 86 3c a2 25 29 40 26 a1 6f 3f 19 26 7a 3f
       0.01644078 2.642922 0.9360527 0.9771438
000040 a0 67 28 3f d5 4b 8c be 02 21 a9 3d f7 00 8b 3e
       0.6578312 -0.27401605 0.08258249 0.27149174
000050 fd 20 ac 3e 13 cc 15 bc 97 60 b4 be 2e 86 a6 3e
       0.33618918 -0.009142893 -0.35229942 0.32524246
000060 00 b3 18 40 c8 43 34 40 26 f9 08 3e 54 a6 84 3f
       2.3859253 2.816637 0.13376293 1.0363259
000070 29 f7 2a bd 89 d1 9a be 0d 42 dc 3d fe 94 87 3c
       -0.041739617 -0.30237988 0.10754786 0.016550537
000080 42 fd 3a 40 f2 8f fd bf a5 5c 6a 40 c4 15 13 3f
       2.9217076 -1.9809554 3.6619046 0.57455087
000090 5d 4a 98 be 34 b4 0a be 41 a8 92 3f 80 c4 b8 3b
       -0.29744235 -0.13545305 1.1457597 0.005638659
0000a0 f4 3f 4b bf 8d ba 42 3d ba 5a 86 bf 0b 6f 1c 3f
       -0.7939446 0.04754119 -1.0496438 0.6110694
0000b0 a2 bd dc 3e 81 9e c5 be b7 e1 55 3e 50 a3 2b c0
       0.43113428 -0.3859749 0.20886885 -2.6818428
0000c0 fc 63 eb bd 94 dc c6 3d 9a 72 a3 bd 19 3f b1 3e
       -0.1149368 0.09710041 -0.07980843 0.34618452
0000d0 a5 06 a5 3d 6f da b5 3c 1b 49 43 3d 30 55 60 3d
       0.08057908 0.022198884 0.04767714 0.05476874
0000e0 e3 4b 84 be 7b 1b 04 40 13 8f b1 3e 40 38 0c 3c
       -0.25839147 2.0641773 0.3467947 0.008558333
0000f0 0b 86 aa 3e bb 9d 8d 3c 29 49 91 be 1a d7 bc be
       0.33305392 0.017287126 -0.2837613 -0.3688286
000100 bf d6 62 be 87 d7 d3 bf 43 dc c5 3d fc 34 19 be
       -0.22152232 -1.6550149 0.09661152 -0.14961618
000110 93 96 91 3e 48 36 22 3e 72 1c 12 3e 08 3d b9 bd
       0.28435192 0.15841019 0.14268664 -0.09044844
000120 8b 27 9a 3c 88 6b 8a 3e 7b a9 9b 3e d4 ee a3 bd
       0.018817684 0.27035165 0.3040274 -0.08004537
000130 c7 6b 7d bc 9c bb 52 40 55 d0 7f 3e 88 ab e3 3f
       -0.015467591 3.2927008 0.24981816 1.7786722
000140 5e 92 46 3f 9d 28 06 3e bc b4 ba bd af 4e 1a 3e
       0.7756709 0.1310143 -0.091165036 0.15069078
000150 94 77 10 c0 a3 dd 00 3f f4 b3 66 c0 14 85 1b 3f
       -2.2572985 0.5033819 -3.6047335 0.60749936
000160 c4 e9 85 40 55 87 5f 40 5d e4 b5 3d b6 56 f8 c0
       4.184786 3.492635 0.088814475 -7.760585
000170 36 fd 73 bd d7 0b 31 3f 11 73 4c 3e c0 3e 14 3e
       -0.059567653 0.6915869 0.1996577 0.14477062
000180 51 f0 88 3f 6d c4 b2 3f 62 7c 86 3d a7 c3 07 3e
       1.0698339 1.3966194 0.06566693 0.13258229
000190 65 dc 86 3e 95 25 06 be 7f 60 00 bf e4 56 d5 3d
       0.26340023 -0.13100274 -0.5014724 0.10416964
0001a0 bb e8 80 3d a5 a8 2d 3d d5 4b ab be 2b eb 8d 3f
       0.0629439 0.04239716 -0.33456293 1.1087393
0001b0 c9 9c 06 be 35 b4 c1 3e fc db 4b 40 d9 f5 58 c0
       -0.13145746 0.378328 3.1853018 -3.3900054
0001c0 48 43 10 3d ac 91 a3 3c 80 16 80 3d d9 d9 5c c0
       0.035220414 0.019966923 0.062542915 -3.4507964
0001d0 81 22 a6 bd 73 0d d2 bc a1 c9 f3 3c 9f 96 b4 bd
       -0.0811205 -0.025641179 0.02975923 -0.08817791
0001e0 e3 44 2f 40 7c ca 2d 40 b6 11 be 3d f2 0a aa 3c
       2.7385795 2.7154837 0.09280722 0.020757172
0001f0 40 f8 00 bf 9d f0 82 3d 1b 57 b8 bf a7 03 a0 be
       -0.503788 0.063935496 -1.4401582 -0.31252787
000200 97 5d 44 3f 6a b8 12 c0 ee f5 0e 3f 8d 16 cb 3f
       0.76705307 -2.2925057 0.5584401 1.5866257
000210 05 af 84 3f 85 66 49 be c8 7c f7 bd 48 c4 39 bf
       1.0365912 -0.19668014 -0.12084347 -0.72565126
000220 ff 8f 3e bd f2 10 16 bf 30 ec 04 3f fe 19 48 3e
       -0.046524044 -0.58619606 0.51922894 0.19541165
000230 ea ae 58 bc 10 c0 2d 40 05 b7 d5 3e e7 32 db 3f
       -0.0132252965 2.7148476 0.41741195 1.7124909
000240 1b 58 95 3e 7c 1b 53 bd 7a 4f e0 bd ca 9f 5b 3d
       0.29168782 -0.051539883 -0.10952659 0.053619184
000250 39 67 44 3e b2 64 d2 3e 87 bd 97 40 a2 39 83 be
       0.19180001 0.4109245 4.7418857 -0.25629908
000260 0d e5 b0 3f bc 26 3b 40 e0 09 f6 bd 3a d5 bb 3f
       1.3819901 2.9242392 -0.12013602 1.4674447
000270 6c 87 91 3d 0d 31 91 3e b8 ef 0e 3d ea ab c3 3c
       0.07105908 0.28357735 0.034896582 0.023885686
000280 99 3a 0e c0 51 6a 69 3e df 68 b7 c0 c6 db 23 bf
       -2.2223265 0.22794463 -5.7315516 -0.6400722
000290 e6 56 a0 bd b5 08 05 be c5 57 55 40 7c 6f 55 be
       -0.078290746 -0.12991603 3.333482 -0.20843309
0002a0 1a 98 c0 3f a1 f8 5f 3e 58 79 fb be fb 5d 16 3f
       1.5046418 0.21872188 -0.49116015 0.5873715
0002b0 69 a7 00 bd 8e 27 98 be c7 cf 55 bf bf 78 7c 3e
       -0.031409655 -0.29717678 -0.8352017 0.24655436
0002c0 80 3e 9c 3a 9e 45 85 be 7a 35 a9 bd f5 34 d5 3f
       0.0011920482 -0.26029676 -0.08262153 1.6656786
0002d0 b6 7b 90 3e 20 64 27 3b 8e ca 26 be 2e 86 b1 bd
       0.28219384 0.0025541857 -0.16288206 -0.08668171
0002e0 e3 0d e0 3f 9e 7e 15 40 b2 5e 01 bf 30 96 a6 3d
       1.7504238 2.335853 -0.5053512 0.08134115
0002f0 e5 e5 4f 3f 52 8b 9f 3e d8 6b 08 bf 55 88 68 c0
       0.81210166 0.3116098 -0.53289557 -3.633321
000300 b1 a9 38 40 df 94 09 3f 34 d1 2f bf 5d b3 0a c0
       2.8853571 0.53742784 -0.68678594 -2.1671975
000310 b3 5e 16 3f c8 36 73 be e2 95 e0 be 5f bc 32 bf
       0.5873825 -0.23751366 -0.43864352 -0.6981868
000320 38 f7 62 be 73 7b 42 bd d6 05 56 be 60 af b8 bd
       -0.22164619 -0.04748101 -0.20900664 -0.09017825
000330 2d 08 9a 3e 04 5e b6 3f 18 23 83 3e 1a 7c 2e 40
       0.30084363 1.4247441 0.25612712 2.7263246
000340 c4 1e 7f 3e 8d 66 8f be f0 53 c7 3d f4 3b 43 bd
       0.2491408 -0.28007928 0.09732807 -0.047664598
000350 4b c1 b7 3e fc 7e b1 3d d7 3b 25 40 5c 79 4f be
       0.35889658 0.086667985 2.5817773 -0.20261139
000360 50 f1 eb 3d 58 ea 84 3f dd 21 73 be 0e ae 85 be
       0.11520636 1.0384016 -0.23743387 -0.26109356
000370 1a 12 db bc df 84 8d bc f4 20 90 be 74 ce fc bd
       -0.02674203 -0.017275272 -0.2815014 -0.12344065
000380 09 ea 95 3f f6 1f b7 3f 43 33 f0 bf 20 b4 83 be
       1.1712047 1.4306629 -1.8765644 -0.25723362
000390 fb ee 52 be a9 ab 01 bf 01 8d 8e 3f 80 35 76 be
       -0.20598976 -0.5065256 1.1136781 -0.24043846
0003a0 ec 38 b6 3f 8b f1 be 3e 4d 7a 30 be 03 e4 b0 3e
       1.4236121 0.37293658 -0.17234154 0.3454896
0003b0 e3 c4 28 be a9 c9 84 be 15 c7 33 bf 46 49 3a 3f
       -0.16481356 -0.25935104 -0.7022565 0.72768056
0003c0 f6 ef 68 3e fc 43 ea 3c 60 de 57 3c b2 7f 19 c0
       0.22747788 0.02859687 0.013175577 -2.398419
0003d0 70 a8 53 3e 1c 1d 84 be 2b 0a 90 3d fc 35 20 3e
       0.20669723 -0.2580346 0.070331894 0.15645593
0003e0 42 c5 eb 3f 09 b8 79 40 e7 b2 6f 3e 30 90 7a be
       1.8419573 3.9018576 0.2340809 -0.24469066
0003f0 de 56 bc bd 72 ce 6f bd 55 01 95 3e 81 1f 8b bf
       -0.09196256 -0.05854649 0.2910258 -1.0868989

head.bias f4 [4]
000000 81 b9 ab 42 04 69 d0 42 e6 f7 bd 42 a6 ec 20 43
       85.86231 104.20511 94.98418 160.92441
