src/model-HIV.pth (torch, 32468 bytes, 10 tensors)

conv1.weight f4 [16, 6, 1, 1]
000000 d1 ca 97 be 50 81 0d 3e 07 60 3f be 00 88 93 be
       -0.29646924 0.1381886 -0.18688975 -0.28814697
000010 9c 9a 14 be 19 02 a9 be 64 0a 12 be 66 d3 b0 c0
       -0.14512104 -0.33009413 -0.14261776 -5.5258055
000020 12 49 2c 40 c8 26 58 c1 3f 53 8a c0 7c e9 56 41
       2.6919599 -13.509468 -4.322662 13.432003
000030 77 76 3f be c5 87 dc c0 a5 9b 96 3e 4c e3 47 c1
       -0.18697535 -6.8915734 0.29415622 -12.492992
000040 e9 7c a5 c0 0e 33 81 41 5c d1 86 be 32 e4 b0 3e
       -5.171498 16.14993 -0.26331604 0.345491
000050 9b 06 0a c1 57 70 89 be f3 94 6d 3f 26 c7 f2 c0
       -8.626613 -0.2684352 0.92805403 -7.58681
000060 06 60 4a bd 76 dd f0 3d b2 cc 73 41 a7 a9 5c 41
       -0.04940798 0.1176099 15.237474 13.791419
000070 61 37 58 bd 93 72 03 c1 6a b6 e9 bc ff 1e 13 bf
       -0.05278719 -8.215472 -0.028529365 -0.5746917
000080 da 6e c7 bf 45 47 66 3f 24 f9 e6 3d 50 dc 92 3f
       -1.5580704 0.899525 0.112779886 1.1473484
000090 e5 3c 91 bd a0 8b 39 c0 4b b5 d0 c0 6d 85 4e 41
       -0.07091693 -2.899147 -6.5221305 12.907575
0000a0 22 98 c7 be d2 75 38 42 e0 80 fd bd 4d a9 ff be
       -0.38983256 46.11506 -0.123780966 -0.49933854
0000b0 cb fb 65 3f 69 3d c4 3d bc ba a3 3d ed ce 2d 3f
       0.8983733 0.095820256 0.07994601 0.6789387
0000c0 43 02 4f 3c d6 d7 5e c1 35 a2 fa c0 b8 0a 53 bf
       0.012634817 -13.927694 -7.8323007 -0.8243823
0000d0 0e 86 53 c1 1d 8b 79 41 2c 51 0d be b9 59 d1 3e
       -13.220228 15.596463 -0.13800496 0.40888765
0000e0 47 8e 99 40 48 18 22 41 31 6d 1c 3f 0a 38 8d 41
       4.798618 10.130928 0.6110411 17.652363
0000f0 48 73 2b bd 96 d7 ab be c6 99 9a be 8b e5 ce be
       -0.041857988 -0.33562917 -0.30195445 -0.40409502
000100 78 46 79 3d 8a b4 a2 3e d7 18 79 bd 58 4d 6d be
       0.06085822 0.31778365 -0.060814705 -0.23174036
000110 a0 b5 e1 bd 5c 65 7d 3e 7e 90 38 3d cb 89 c3 be
       -0.1102097 0.24745697 0.045059673 -0.38191065
000120 70 d1 c6 bd 28 16 bf be 3a b1 82 3e dc 87 18 3e
       -0.09707916 -0.3732159 0.25525838 0.14895576
000130 d0 bb 5b 3d e6 73 06 be 3a bb e7 be 92 bc 5c 40
       0.05364591 -0.13130149 -0.4526003 3.4490094
000140 bd 33 d7 be 67 f3 aa 41 0e 37 e6 3f 3f bc d9 41
       -0.4203166 21.368849 1.7985551 27.216917
000150 c4 cc fe 3d 60 92 14 41 15 c7 b7 c1 10 80 a6 c0
       0.124414 9.285736 -22.972208 -5.2031326
000160 9f 83 e6 40 60 84 6d c1 54 fe ae bc 8d 9c 91 bc
       7.203567 -14.844818 -0.021361507 -0.017774845
000170 aa 92 4f be 06 88 ab 3d 40 88 ad bd 98 54 5c bd
       -0.20270792 0.08375554 -0.08473253 -0.053791612

conv1.bias f4 [16]
000000 1c 4a 84 be fb 86 a7 41 6d de c3 41 c3 ac d0 c0
       -0.2583779 20.940908 24.483606 -6.521089
000010 cc 47 1d 40 da ce 5b 3f fc 1e 61 42 a9 6b 4d 3f
       2.4575071 0.85862505 56.28026 0.802424
000020 63 4c 23 42 e6 2d 87 41 c8 ad a3 3e ff ac 19 be
       40.824596 16.897411 0.31968522 -0.15007399
000030 a0 fd 31 be 75 3c a9 40 9c 7a 62 c2 62 26 8d be
       -0.17381907 5.28863 -56.619736 -0.27568346

conv2.weight f4 [32, 16, 1, 1]
000000 86 7e 5c 3e 8c 87 04 be bb be 62 be 3d 39 89 3d
       0.2153264 -0.12942332 -0.2214307 0.067003705
000010 8d c6 98 be 8f 4d 13 3e e7 d8 12 be 20 56 1c be
       -0.29838982 0.14385055 -0.14340554 -0.15267229
000020 d3 0b 04 bf fb a8 a9 bd 1c 00 be bd f8 27 93 bd
       -0.5158054 -0.082841836 -0.092773646 -0.07185358
000030 38 02 76 3d 02 c7 15 be 58 bd c2 be 68 2c 53 3d
       0.06006071 -0.14626697 -0.38035083 0.05155602
000040 2c 48 85 3d 74 9c 48 be 14 3b 13 be e0 d7 de bd
       0.06507906 -0.19590932 -0.14378005 -0.10881019
000050 ec 1f ec be 97 a4 7f be b1 a7 c9 be 3f a1 af bc
       -0.46118104 -0.2496513 -0.3938575 -0.021439193
000060 03 a7 77 bd 94 e4 6f be 18 8c 40 3d 68 5a 86 be
       -0.06046201 -0.2342704 0.047008604 -0.2624085
000070 16 b8 49 be 72 69 2d be 8c bc 16 bd 35 e2 fa 3d
       -0.1969913 -0.16934755 -0.036800906 0.12250177
000080 c0 41 ce bb 7b a8 0e 3f e9 c0 7b 3f c7 39 0b 3d
       -0.006294459 0.5572583 0.9834123 0.033990648
000090 f4 6d d7 be a2 fd 46 be 89 10 5c be 67 9e 8c be
       -0.42076075 -0.1943269 -0.21490683 -0.274646
0000a0 c5 52 a8 bd bb 07 7a 3e 00 61 47 bd e8 07 b0 bd
       -0.08218912 0.24417011 -0.04867649 -0.08595258
0000b0 40 da 27 bd 17 99 d4 be 26 5a b1 bf 19 fe 0f be
       -0.040979624 -0.41523048 -1.3855636 -0.14061774
0000c0 88 43 6e 3e 37 4e 81 3f 6a a4 bb 3e ca 55 99 be
       0.23267949 1.0101994 0.36648875 -0.29948264
0000d0 f9 58 69 be 86 06 00 be 46 19 fe bd bb be 52 3c
       -0.22787847 -0.12502488 -0.12407164 0.0128628565
0000e0 b4 fc 6c be 14 23 7c be e2 e3 63 be 8b 9e f4 3d
       -0.23143274 -0.24622756 -0.22254899 0.11944302
0000f0 b8 de 39 bd cd 9e ec bf 91 9a 3b be cf 00 3b be
       -0.045378417 -1.8485962 -0.18320681 -0.18262027
000100 c0 52 27 3c f4 46 7b be ce 7a 0e be f5 61 99 bc
       0.0102126 -0.24538785 -0.13914034 -0.018723467
000110 6a ac f5 bd 86 12 94 3d c2 39 60 be 2d 14 76 be
       -0.11995776 0.072300956 -0.21897033 -0.24031134
000120 7e ec 48 be ad 0a 8e 3d 2c 71 e5 3d 17 79 66 3e
       -0.19621465 0.0693563 0.112032264 0.2250713
000130 a2 30 47 be 9f 5c 83 be 46 eb a0 bd c5 69 96 3c
       -0.19452146 -0.25656602 -0.07857375 0.018360982
000140 20 85 2a bd 88 e1 80 be 69 c4 f0 3d ac 09 4a bd
       -0.041630864 -0.25172067 0.11756212 -0.04932563
000150 87 e8 0f be 14 e8 2e 3d 79 07 ca be a0 15 a5 3d
       -0.14053546 0.042701796 -0.39458826 0.08060765
000160 97 2a 40 be 31 fd af be c0 e9 28 3d 05 32 de 3d
       -0.18766247 -0.34372857 0.041238546 0.10849384
000170 66 95 05 be e7 b6 a2 be 0f 3e c7 bc 98 9b 69 bd
       -0.13045272 -0.31780168 -0.024321584 -0.05703315
000180 88 e6 0b 3d 2d b3 24 3f 53 ab 47 3f 9e a7 dd bd
       0.0341554 0.643359 0.77995795 -0.10822986
000190 02 bc 44 bf 01 40 55 3e 06 7e 6c bd 34 ff 5d be
       -0.7684938 0.20825197 -0.057737373 -0.21679384
0001a0 8e f4 48 be f4 c6 dc 3e 74 b7 83 bd 75 39 e1 bd
       -0.1962454 0.4312054 -0.06431475 -0.10997287
0001b0 32 31 70 be c0 9b 8a 3e d9 b9 1f bf fb 21 89 bd
       -0.23456267 0.27071953 -0.62392956 -0.066959344
0001c0 90 7b 75 3e e9 a7 3a 3f 79 bf 3b 3f 63 e6 90 be
       0.23972917 0.7291246 0.7333904 -0.2830077
0001d0 59 ac 43 be db 00 16 be 8f fd 54 3f 64 5c 51 3e
       -0.19108714 -0.14648764 0.831994 0.204454
0001e0 3c 56 3a 3f 56 93 f1 3e 48 1a 9a 3d 7a 6f c1 bd
       0.72787833 0.4718272 0.07524544 -0.094450906
0001f0 c2 86 2c be 0f 24 29 3f 67 5a 91 bf b7 d8 5c 3e
       -0.16848281 0.66070646 -1.1355714 0.21567045
000200 2c 21 ba 3d 40 ee 43 be 6c 02 ec bd fb a8 92 be
       0.09088358 -0.19133854 -0.115238994 -0.28644547
000210 16 e6 5c bc e2 4e 3d be 57 38 5b be da 76 8e be
       -0.013482591 -0.18487123 -0.2140821 -0.27825052
000220 56 6a 7d be 9d 1a f3 bb e4 50 f6 bd bd 7e 55 be
       -0.24747595 -0.007418944 -0.120271474 -0.20849128
000230 50 0b 0e bd e2 8c 2d be 15 1d a5 be 29 e6 bb 3d
       -0.034678757 -0.16948274 -0.3224875 0.09174759
000240 9c 86 98 bd fc 2a ca bd af 2e 17 be 4e 19 0a be
       -0.0744755 -0.0987148 -0.14763902 -0.13486215
000250 78 66 c7 bd c3 66 40 3e 9d c9 72 be 6b 73 2b 3e
       -0.09736341 0.187892 -0.23709722 0.16743247
000260 f1 99 a6 be 40 7a 30 3c 44 e8 eb 3d 4e b4 03 be
       -0.32539323 0.010771334 0.115189105 -0.1286175
000270 1c ed 05 be b3 72 a0 bd e4 d8 89 be fe 25 7b 3e
       -0.13078731 -0.07834377 -0.26923287 0.24526212
000280 ec 6c 4d be 9d a1 7e 3e 7f 1d d3 3e c1 dc 0f bf
       -0.20061082 0.24866338 0.4123344 -0.5619622
000290 3c 9f c5 bf 84 ec f8 bc 94 c5 a9 bd 1e a4 48 3e
       -1.543922 -0.030386217 -0.08289638 0.19593856
0002a0 40 42 b2 be 26 a3 82 3f 98 f7 e2 3d 2b d9 16 3e
       -0.3481617 1.0206039 0.11082381 0.1473128
0002b0 46 cd 79 3e 7d 36 65 3e 9e 54 8c bf 27 05 2c 3e
       0.24394712 0.22384067 -1.0963323 0.1679884
0002c0 e2 42 7c be c0 d6 7b 3d 80 b3 a6 3d e3 77 2f 3e
       -0.24634889 0.0614841 0.08139706 0.17135577
0002d0 bb 56 57 bd 59 75 44 be 83 b0 98 be 77 d8 2b 3e
       -0.052572947 -0.1918539 -0.29822168 0.16781794
0002e0 22 ad 58 bd ea 86 26 be 80 55 78 3e 4d d7 58 be
       -0.052899487 -0.16262403 0.24251366 -0.2117588
0002f0 58 01 87 bd 3a a3 ed bd 9d c0 14 be bc 93 5a be
       -0.06592053 -0.116033986 -0.14526601 -0.21345419
000300 e8 1e e6 bd 93 81 9e 3e 29 20 29 3f bb 3a bc be
       -0.11236364 0.30958232 0.660647 -0.36763558
000310 32 70 75 bf 56 c5 04 3e c8 0a de be 86 70 6b be
       -0.9587432 0.12965903 -0.433676 -0.22992143
000320 04 21 17 be 79 80 32 3e 98 f8 ff 3d 83 bc 86 bd
       -0.14758688 0.17431821 0.12498587 -0.065789245
000330 18 00 04 bd fd 43 78 3e df d2 db be 4f 9d f5 bc
       -0.032226652 0.24244685 -0.4293432 -0.029982237
000340 82 23 2c 3e d6 da 41 bd b0 7f ca bc 8a 37 9b 3c
       0.1681042 -0.04732784 -0.02471909 0.018947382
000350 a3 60 2e be 93 a1 47 3e 6f de 0d be d1 c8 cc ba
       -0.17029051 0.1949523 -0.13854383 -0.0015623813
000360 90 7b f8 be aa ee 20 be 5e 29 38 be f3 0a 40 3e
       -0.4853177 -0.15716043 -0.1798453 0.18754177
000370 fa 0f 37 be f2 8d b7 bd b7 52 df be 7a dd 16 be
       -0.17877188 -0.08962621 -0.43617794 -0.14732924
000380 90 78 4e be bc 90 91 be 42 bd 08 be 31 2a 0d bd
       -0.20163178 -0.28430736 -0.13353446 -0.034464065
000390 83 6f e7 bd 49 d4 ab bd 30 2e 39 be 78 21 cb 3d
       -0.11300566 -0.083900996 -0.18084025 0.09918493
0003a0 b6 f4 be bd 6b 98 20 3e 00 84 c1 3b 50 e6 7c 3e
       -0.09324019 0.15683143 0.005905628 0.24697232
0003b0 4c 84 54 be d2 68 32 be 2e 45 8b bd 70 16 74 be
       -0.20753592 -0.17422798 -0.06800304 -0.23836684
0003c0 0c 6e 2c be 2b a7 d6 bd d4 dd 05 3d 2a d9 54 bd
       -0.16838855 -0.104811035 0.032682255 -0.051964916
0003d0 c4 01 38 be 1a d0 32 be 38 71 4d be a8 5d 89 3d
       -0.17969424 -0.17462197 -0.20062721 0.06707317
0003e0 34 77 7e bd 09 71 02 be 64 81 e0 bd 48 0c 06 3e
       -0.0621254 -0.12738432 -0.10962179 0.13090622
0003f0 1c 2e 8c 3d ac 7c 8d be b9 5a 6e bd a6 39 71 be
       0.06844732 -0.2763418 -0.05819199 -0.23557147

conv2.bias f4 [32]
000000 7b ca d9 be 40 b2 88 be d5 56 b5 41 ac 56 f9 40
       -0.42537293 -0.26698494 22.667398 7.79183
000010 38 03 7b 3f 35 1f e0 be c7 33 ca 41 23 ed 88 42
       0.98051786 -0.4377381 25.275282 68.46316
000020 f0 c6 90 be 8f 70 cc be f1 cf 9c 41 b3 07 90 bd
       -0.28276777 -0.39929625 19.601534 -0.070327185
000030 e2 99 d8 41 80 14 6b be b4 fa c1 bd 6f 36 6f be
       27.075138 -0.22957039 -0.09471646 -0.23360609
000040 09 e0 0f 3e dc 41 e3 be 88 d6 d3 be f4 a9 73 40
       0.14050306 -0.44386184 -0.41374612 3.807248
000050 92 07 c8 be e4 78 96 c1 9a 9b 06 c1 e6 2e fc 3e
       -0.39068276 -18.809029 -8.412989 0.4925453
000060 97 fb f1 bd 1a a3 d0 bc 41 57 52 42 e0 40 cc 41
       -0.11815565 -0.025468398 52.58521 25.531677
000070 ea d3 13 be 20 6f 9f bb 57 d7 c1 41 a4 80 96 41
       -0.14436308 -0.004865542 24.230146 18.812813

fc1.weight f4 [64, 32]
000000 98 1a 94 3d 86 cc b2 bd cb 48 9a be 99 24 44 be
       0.07231635 -0.08730416 -0.30133662 -0.19154586
000010 1f 89 2f be b0 de 5e 3c 16 df 5e be d3 3c 40 3c
       -0.17142151 0.0136028975 -0.21764788 0.011733252
000020 b2 04 dc 3d 5a 97 da 3d b7 fe ab be 25 73 44 3e
       0.10743083 0.10673399 -0.3359277 0.19184549
000030 3c ef e8 be 99 8f 31 be 18 41 22 bd c0 ce 2e 3b
       -0.4549502 -0.17339934 -0.03961286 0.0026673526
000040 ab 99 a0 3b 76 22 a1 3d 82 98 ff 3d 1f 15 26 bd
       0.004901131 0.07867901 0.124802604 -0.040547486
000050 55 79 1b be 16 a7 2c bd 0e 89 df be 2a ba e1 bd
       -0.15183003 -0.042151533 -0.43659252 -0.11021836
000060 6c 3a fd bd ce af 33 3d 37 02 f9 bd 27 b6 d2 bd
       -0.12364659 0.043868832 -0.121586256 -0.10288649
000070 73 cf 1a 3e 26 9a b5 3d 33 53 73 be c5 91 8a bd
       0.15118198 0.08867292 -0.23762207 -0.067660846
000080 21 5e 85 3d ea d7 d0 3d f2 9d e6 3c 3f a1 8f bd
       0.06512094 0.10197432 0.028151486 -0.07013177
000090 c1 07 54 be 53 9d e2 3d 80 c9 8a 3e fa f9 9a 3e
       -0.20706083 0.110651635 0.27106857 0.30268842
0000a0 1a 9a 13 3d a8 f0 a7 3d e2 2a f2 3e b0 cf 80 3e
       0.036035635 0.082001984 0.47298342 0.25158453
0000b0 0d 61 ac 3e f2 41 f5 bd 9d 8e f3 bd ef 11 55 be
       0.33667794 -0.11975469 -0.11892436 -0.20807622
0000c0 14 8e 2e 3b 30 1c 39 3e b5 00 a6 3d 57 ab 6c be
       0.0026634978 0.18077159 0.081056036 -0.23112236
0000d0 ce e7 a4 3e db 80 46 bf f9 e4 6f bf cd 08 8a bd
       0.32208103 -0.7754037 -0.9370876 -0.0673996
0000e0 94 ea 90 3b 65 07 a2 3d f9 cd e3 bd 02 4b ee 3e
       0.004422495 0.07911567 -0.111232705 0.465416
0000f0 49 14 68 3d 54 0a ab bd e4 25 66 3e fc fc 72 be
       0.05665997 -0.08351579 0.22475392 -0.23729318
000100 f5 88 5d be 3d 1f 05 3e b4 b2 0b 3f b5 01 0a 3f
       -0.21634276 0.13000198 0.54569554 0.53908855
000110 f2 f0 98 3b fd 22 a8 3a 8c 91 14 3e 6f ba 2b 3f
       0.004667395 0.001282781 0.14508647 0.6708135
000120 6c 7f 4a be e0 f5 89 3d 16 5d 7b 3f fe 49 79 3e
       -0.1977517 0.0673635 0.9818891 0.24344632
000130 50 96 1b 3f c4 f8 b6 bb d8 7f 4e be 06 5e 46 be
       0.60776234 -0.0055838544 -0.20165956 -0.19371805
000140 a8 95 14 3e 8e 0a 57 bd da 4c 26 3c 22 48 87 be
       0.14510214 -0.0525003 0.010150159 -0.2642222
000150 43 86 8c 3a 6e 32 6c bf 81 b0 24 bf a8 ad c4 3c
       0.0010721165 -0.9226445 -0.64331824 0.024008587
000160 70 2c d6 3d 40 5f a6 3e f1 1c a1 3b cd ef 53 3f
       0.104576945 0.32494545 0.00491678 0.8278778
000170 f4 25 ce 3d 29 c1 ad bd 57 34 1e 3f 47 ba 42 3f
       0.10065833 -0.08484108 0.61798614 0.76065487
000180 47 33 20 3e ab 81 85 bd 4c ff 92 3d 01 09 c0 bd
       0.15644561 -0.06518873 0.071776 -0.09376717
000190 ec 08 06 bd 09 00 1a be 8c 2c ec bd 78 bb d4 bd
       -0.032723352 -0.15039076 -0.11531934 -0.10387319
0001a0 c2 b5 9f 3d 4c 17 72 3d 29 fa 1a be c2 a0 2f be
       0.077983394 0.05910425 -0.15134491 -0.17151168
0001b0 da c9 03 be ee fe 58 3d 10 d1 3d bd 3d 16 d0 bc
       -0.12869969 0.052977495 -0.046341956 -0.025401229
0001c0 bb a7 5d 3e 5e 88 a1 3d c3 bb 1d 3e 9f 10 2d bd
       0.21646015 0.07887338 0.15403657 -0.04225218
0001d0 00 29 71 ba fb 72 49 bd 01 bc 0d 3d 9f a3 19 be
       -0.000919953 -0.04918192 0.034603123 -0.15003823
0001e0 64 36 04 3d c6 e9 9b 3e 54 98 c6 bd e5 6c 22 be
       0.032278433 0.30451792 -0.09697023 -0.15861852
0001f0 bc 34 69 3d c4 7e 0f 3d d1 ab 98 bd ca ca f3 be
       0.056935057 0.035033002 -0.074546464 -0.47615653
000200 f7 ce 84 be 50 5f 98 3d 27 6c 32 3e 24 50 68 bd
       -0.25939152 0.074400544 0.1742407 -0.056717053
000210 80 1d a8 be a2 01 d0 bd aa f6 6e bc 10 6b e0 3e
       -0.32835007 -0.101565614 -0.0145851765 0.43831682
000220 d3 ff c9 bd e7 b9 6d bc 9f 60 2a 3f 55 34 81 be
       -0.09863248 -0.014509655 0.6655368 -0.2523524
000230 1b c7 c6 3d 6b 6d 23 be 02 52 81 3c 57 4b 36 be
       0.09705945 -0.15959708 0.015786175 -0.17802177
000240 4d 64 c1 bb 8f d1 f7 3b 23 e1 e9 3d e5 d9 e8 bf
       -0.0059018494 0.007562823 0.114198945 -1.8191496
000250 73 14 07 bc 5d e6 6e be 95 da 95 bf 33 f8 51 be
       -0.008244622 -0.23330064 -1.1707331 -0.20504837
000260 5b 7f 0e 3e 46 d2 b3 3e d3 cc d8 bd 3e 5f 34 3e
       0.1391577 0.35121363 -0.10585942 0.17614457
000270 c7 6b a7 3d 89 9e 09 3e bf 75 24 be 25 49 34 be
       0.08174854 0.13439383 -0.16060542 -0.17606027
000280 d3 e3 50 be 84 1a 03 bd 05 50 a3 3e 14 eb 8d bd
       -0.20399408 -0.03200771 0.31896988 -0.06929603
000290 a2 74 f5 bd 80 5e 85 3d 46 d0 85 bc 66 53 76 be
       -0.119851366 0.06512165 -0.016334664 -0.24055251
0002a0 30 3a 27 bc 6d 68 19 3e ef 71 04 3e 4d 00 d8 bd
       -0.010206744 0.14981242 0.12934087 -0.10546932
0002b0 14 15 76 be c8 a0 a2 3c d4 fe 1c 3d da 39 6b bd
       -0.24031478 0.019852057 0.03832896 -0.05742822
0002c0 46 22 80 bd fc 01 17 be 55 9a 02 3e 0b 1a b5 3d
       -0.06256537 -0.1474685 0.12754185 0.08842858
0002d0 2c ee 54 3d 27 33 c2 bd bb 86 fd 3b e8 0e fa 3c
       0.05198495 -0.09482413 0.0077370084 0.030524686
0002e0 0e d2 e3 bd 2c 2d 42 3e 16 81 be bd 87 b0 85 be
       -0.11124049 0.18962544 -0.09301965 -0.26111242
0002f0 ea a0 32 be 8a b7 b7 bd ce 47 9b bc 85 77 51 be
       -0.17444196 -0.08970554 -0.018955138 -0.2045575
000300 84 7b c9 bd 5b 93 80 3d 0b fa 37 bd d8 10 46 3e
       -0.09838012 0.06278106 -0.044916194 0.19342363
000310 3a 1b c4 be 3d 9b c5 bd 53 59 a4 3c a4 24 cb be
       -0.38302022 -0.0964875 0.020062124 -0.39676392
000320 d4 17 1a 3e 1e d9 97 bd 0a 07 76 3f 8e 57 f1 3d
       0.15048152 -0.07414459 0.9610449 0.11784278
000330 3a 15 f8 bd d5 7e b3 3d f5 99 5b be 4b 40 41 3e
       -0.12113424 0.08764426 -0.21445449 0.18872182
000340 b7 26 6d bb c0 80 a1 be d4 50 26 3d 85 4b 88 bf
       -0.0036186406 -0.3154354 0.040604427 -1.0648047
000350 3e 7d ab 3d a1 61 8c bf 79 c5 1a bf 7c c4 63 3d
       0.083734974 -1.0967294 -0.6045757 0.055607304
000360 18 40 86 3c 7b 71 10 bd f9 89 05 be 4a 83 5b 3e
       0.016387984 -0.035264473 -0.13040914 0.21436802
000370 d2 8e 22 3e 68 1f e2 bd dc a4 1d be 30 06 13 be
       0.15874794 -0.110411465 -0.1539492 -0.14357829
000380 36 8d 99 3d 59 08 f2 3d da 4c 2d be 07 84 0b 3e
       0.07497637 0.118179984 -0.16923848 0.13624583
000390 49 92 f4 bd 11 68 c1 bc eb 55 64 be 87 1a 49 be
       -0.11941964 -0.023609193 -0.222984 -0.19639026
0003a0 4f ca 07 3e b6 81 80 bd f6 1f 19 be 05 45 67 3e
       0.13260768 -0.062747404 -0.14953598 0.22584923
0003b0 14 0b 63 be 4e 36 eb 3d c0 16 3b bd b9 54 ae bd
       -0.22172195 0.11484967 -0.045675993 -0.08512253
0003c0 75 4a 78 3d 13 ce 96 bd a2 05 2a be f2 de ca 3d
       0.060617883 -0.07363524 -0.16603711 0.09905805
0003d0 12 05 ae 3d 9c f5 f9 bc 80 9d c5 bd a2 cd a2 3c
       0.08497061 -0.030512623 -0.09649181 0.019873444
0003e0 70 18 e2 3c d0 3e 9a bc 9f fe 90 bd b6 54 35 be
       0.027599543 -0.01882878 -0.07079815 -0.17708096
0003f0 c0 ee f3 bb 77 03 2d 3e 71 79 96 3c 2f a6 fc bd
       -0.0074442327 0.16895853 0.018368455 -0.123363845

fc1.bias f4 [64]
000000 29 e7 19 42 8b 14 a3 42 a5 83 9b 42 26 2b 98 be
       38.475742 81.54012 77.75712 -0.2972042
000010 3c 95 52 42 d9 bb 27 be 81 df 66 42 ae 6d 5a be
       52.645737 -0.16380252 57.718266 -0.21330902
000020 a8 18 43 42 a8 79 8b be b1 56 96 42 41 52 0d bf
       48.77408 -0.27241254 75.16932 -0.55203635
000030 7b 2b fd bf 53 bb 58 c0 49 9d 6f 42 40 eb 61 42
       -1.9778894 -3.3864334 59.9036 56.479736
000040 1f 93 5f 42 bf a9 b7 bd f9 cc 8f 42 48 4f 7e 42
       55.893673 -0.089679234 71.90034 63.577423
000050 62 98 67 42 d4 47 64 42 78 8d 42 42 d9 be 4b 42
       57.89881 57.070145 48.638153 50.936375
000060 ad 08 b8 be 6d 03 cb bd 2d 37 d0 be 42 2c 0b bf
       -0.3594412 -0.09912763 -0.40667096 -0.5436441
000070 fb 71 6b be bb 87 2a be b8 95 43 42 22 f3 3f 42
       -0.22992699 -0.1665334 48.89621 47.987434
000080 ee 17 d0 bd a1 26 73 42 6b 89 36 be b3 b3 6a 42
       -0.10160814 60.787724 -0.17825858 58.675488
000090 6c 10 03 bf 03 d2 30 42 13 4a 82 be 0f 8c 75 41
       -0.5119693 44.20509 -0.2544714 15.346694
0000a0 11 85 6f 42 0f 40 4f 42 13 4e 1a 42 c4 43 82 42
       59.879948 51.812557 38.576244 65.132355
0000b0 97 1f 6b 42 13 8a 30 41 8f 8a 77 42 06 4f 99 bd
       58.78085 11.03371 61.88531 -0.07485776
0000c0 6d 95 4b 42 ab 51 c2 bd 51 90 4c 42 6a 30 60 42
       50.895924 -0.09488233 51.140934 56.04728
0000d0 99 99 55 42 8c 6c ba bd 55 4b 11 bf 05 c3 e8 41
       53.399998 -0.09102735 -0.5675557 29.095224
0000e0 85 43 76 42 d6 71 58 42 0d fe 6e 42 09 42 bb bd
       61.565937 54.111168 59.748096 -0.091434546
0000f0 d6 0c a0 42 50 0a 29 42 81 e0 18 bf 38 c2 4a 42
       80.02507 42.26007 -0.59717566 50.689667

fc2.weight f4 [64, 64]
000000 e8 3d c6 41 90 a2 63 c0 47 89 93 c0 95 b0 11 bf
       24.780228 -3.556797 -4.6105075 -0.5691007
000010 2c 0f 8e c0 83 12 94 be ba 0f 84 3f 82 d4 ad be
       -4.439352 -0.28920373 1.0317299 -0.33951193
000020 7e 2a 95 bf 93 0b 34 be a6 c9 8f c0 87 7b 95 be
       -1.1653593 -0.1758254 -4.4933653 -0.29195806
000030 1b e0 83 be 7b 6b 7c bf 97 d1 8b 3f 9f 3b 66 c0
       -0.25756916 -0.986015 1.0923337 -3.597389
000040 c0 73 70 3e cc ae 2a b9 20 0d 8f c0 3e f3 3a 3f
       0.23481655 -0.0001627758 -4.470352 0.7302741
000050 39 55 38 40 85 a4 3f be 71 a5 96 c0 63 22 a5 3f
       2.8802016 -0.18715103 -4.7076955 1.2901119
000060 1b a0 ae be 0e 5f 71 be ac f9 d6 be cb 3d f8 be
       -0.34106526 -0.23571417 -0.4198736 -0.48484644
000070 d6 84 96 bd 0c fd 92 be f0 19 37 41 a9 64 88 3d
       -0.07349555 -0.28708684 11.443832 0.066598244
000080 74 28 60 3d d6 47 c7 bf bf 87 16 bd 6a d2 df be
       0.05472608 -1.5568798 -0.03675055 -0.4371522
000090 24 9b bb be 8f 81 ec 40 c1 6c 87 be 62 d1 a3 c0
       -0.366418 7.3908153 -0.2645016 -5.1193094
0000a0 bd 4f 01 c0 35 6e 88 40 2b 28 76 41 bd f4 09 40
       -2.0204918 4.263453 15.384807 2.1555626
0000b0 99 4b 93 c0 8c 0d 30 c0 15 62 39 c0 4d 1e 8f be
       -4.602978 -2.7508268 -2.8966115 -0.27952805
0000c0 9f d5 76 be 70 65 36 3d 30 5a d6 3f 17 b5 90 c0
       -0.24104927 0.044530332 1.6746273 -4.5221057
0000d0 d6 8d be c0 2a a5 13 be 70 d7 7b be 2b 14 8d c0
       -5.954814 -0.14418474 -0.24593902 -4.408712
0000e0 b7 e8 8c c0 e5 41 06 3e 08 51 92 bf fa da 53 bf
       -4.4034076 0.13111074 -1.1430979 -0.82756007
0000f0 66 d2 89 c0 d0 c8 ab 41 f7 9c e7 bd a2 65 96 c0
       -4.3069334 21.473053 -0.113092355 -4.6999063
000100 34 18 a0 41 33 7a 76 c0 98 06 14 c0 f6 b3 39 be
       20.011818 -3.8512084 -2.3129025 -0.18135056
000110 2a a6 61 c0 cd ca 06 be 9f 87 2e 3f 63 ee 49 be
       -3.5257668 -0.131633 0.6817569 -0.19719844
000120 f6 6b ad 40 1c 47 63 bd a1 24 1f c0 e5 68 1d bd
       5.419429 -0.055487737 -2.4866107 -0.038430113
000130 26 b4 52 be 7b 2a 73 bf 23 0a ab bf 9c 85 e1 bf
       -0.20576534 -0.94986695 -1.3362468 -1.7618899
000140 05 4c 22 c0 94 cc 74 bd bc f1 2a c0 85 cd 63 c0
       -2.5358899 -0.059765413 -2.6710043 -3.559419
000150 24 8b 4a 3e ae 65 6f c0 b3 39 26 c0 21 79 f0 bf
       0.1977964 -3.740581 -2.5972717 -1.8786966
000160 58 7c 42 3c 9a 78 66 be 44 98 15 be ce b1 16 bc
       0.011870466 -0.22506943 -0.14608866 -0.009197665
000170 3d bd e3 3c 4b 39 84 be 33 0e 3d 41 55 67 ef bf
       0.027800197 -0.2582496 11.815967 -1.870341
000180 31 b5 81 3e 12 0e b2 be 78 5c a0 3e f8 a8 47 c0
       0.2533355 -0.3477636 0.31320548 -3.119688
000190 13 c3 2e 3d cf 7a 8e 40 b4 4f 82 bd bd 59 22 c0
       0.042666506 4.4524913 -0.063628584 -2.5367272
0001a0 09 3b 0d c0 a2 7a 12 40 48 8f 8f 41 70 bb 55 c0
       -2.2067282 2.288735 17.944962 -3.3395653
0001b0 d8 fc 69 c0 3f 47 97 40 10 a6 6a c0 ad 5c 51 be
       -3.6560574 4.727447 -3.6663857 -0.20445509
0001c0 2f 20 b0 3f 20 5a ac bc 41 b7 b7 3f 35 57 10 c0
       1.3759822 -0.021039069 1.43528 -2.2553227
0001d0 a3 52 87 bf 2c ad c8 bb 68 6d 90 be 6f 13 43 c0
       -1.0572094 -0.0061241593 -0.2820847 -3.0480611
0001e0 79 9a 17 c0 43 28 27 c0 1d b4 26 c0 48 26 32 bf
       -2.3688033 -2.6118324 -2.6047432 -0.6958966
0001f0 97 d7 10 c0 9f 08 99 41 55 16 8d bd 20 38 20 c0
       -2.2631586 19.12921 -0.06889025 -2.5034256
000200 5e df 9d 41 15 16 6c c0 33 dc ff bf b3 a0 03 be
       19.734066 -3.6888478 -1.9989074 -0.1285427
000210 ae a8 4a c0 d7 30 e5 bd 0a cf 5e 3f f7 d1 55 be
       -3.1665454 -0.11190956 0.87034667 -0.20880876
000220 ab ab b0 40 90 2f 14 be 4d cd 03 c0 89 e9 3c be
       5.5209556 -0.14471269 -2.0594056 -0.18448462
000230 0a de 0c be 21 28 94 bf 49 c5 a1 bf 9e f7 ea bf
       -0.13756576 -1.1574746 -1.2638332 -1.8356817
000240 0e 12 23 c0 dd 9d c2 3d f0 6d 1f c0 74 be 64 c0
       -2.547977 0.09502766 -2.491085 -3.5741243
000250 b0 db 22 3e 76 3e 6e c0 5f 8f 04 c0 96 d1 d9 bf
       0.15904117 -3.7225623 -2.0712507 -1.7017086
000260 8d 89 93 3d b9 fd b3 be 58 4c 0b 3d 6b 74 b4 bd
       0.0720397 -0.35154513 0.034008354 -0.088112675
000270 15 d2 41 bd 63 3a 75 be eb 4b 39 41 7b fe b9 bf
       -0.04731949 -0.23948054 11.581035 -1.4530786
000280 d3 33 b2 3d a9 2e 28 3e b4 ae 64 3e 46 ad 40 c0
       0.08701291 0.1642405 0.22332269 -3.0105758
000290 c4 2e b6 bc 05 57 88 40 98 f1 c3 bd 97 58 e5 bf
       -0.022239096 4.2606225 -0.09567565 -1.791766
0002a0 04 ea 13 c0 8d 6b ed 3f 1a 62 8e 41 b6 d4 46 c0
       -2.3111582 1.8548447 17.797901 -3.1067328
0002b0 2d 7d 76 c0 11 70 9e 40 e2 e1 62 c0 05 7b a2 be
       -3.8513901 4.95118 -3.5450368 -0.3173448
0002c0 2f ff 51 3f 88 a2 5e bd c5 55 ba 3f 7c e7 dd bf
       0.82030004 -0.05435422 1.4557425 -1.7336268
0002d0 8d ca 41 bf 5f 86 e6 3d 28 ca 97 be cf f8 22 c0
       -0.7569969 0.11256098 -0.2964642 -2.546436
0002e0 00 f7 e6 bf ae 06 2b c0 90 72 2a c0 fe 92 98 be
       -1.8044128 -2.6722827 -2.6632423 -0.29799646
0002f0 02 fe f1 bf 82 af 97 41 c7 d6 f9 bd 2b c6 fe bf
       -1.8905642 18.960697 -0.12199169 -1.9904226
000300 64 07 a0 3d ee da 41 be d9 9f 60 be fc a3 ef 3d
       0.0781391 -0.18931171 -0.21935977 0.117011994
000310 26 73 6a be 0c f2 b5 bd 17 61 64 be a8 b3 35 bd
       -0.22895488 -0.088840574 -0.22302662 -0.044360787
000320 4b 84 4a bd 80 90 4a bc f8 9c 3f be de 72 e3 bd
       -0.04944257 -0.012363553 -0.18712223 -0.111058936
000330 62 12 cd 3d a8 7f 8d bd 1e 58 30 be cc c2 90 be
       0.10013272 -0.06909114 -0.17221114 -0.28273618
000340 be 18 6d be 80 00 86 3b 74 71 83 be 65 b1 01 be
       -0.2315397 0.004089415 -0.25672495 -0.12665327
000350 0d 9d 34 bd 4b 87 e2 bd 28 7d ad bd c4 a5 10 be
       -0.044095088 -0.11060961 -0.08471137 -0.14125735
000360 30 a3 3e 3c 90 66 8e 3c 0c d4 98 3d 88 d9 c9 3d
       0.011635587 0.01738289 0.0746232 0.09855944
000370 a4 fc f5 bd 58 07 ca bc b0 54 85 be 91 fe df bd
       -0.12011078 -0.024661705 -0.26041174 -0.109372266
000380 70 34 e7 bc e8 c7 1b 3d 40 91 2c bc f4 29 7f be
       -0.028223246 0.038032442 -0.010532677 -0.24918348
000390 8c a7 43 3d a0 cb ca bd e0 dc b0 bb ea df 5b be
       0.047767207 -0.0990212 -0.005397424 -0.21472135
0003a0 fa ab 9c bd 5a 0a ad 3d 80 32 57 bd 06 17 90 bd
       -0.076499894 0.0844924 -0.052538395 -0.07035641
0003b0 96 0a 89 bd 2c b2 3d 3d 6a 84 2b be f4 d5 ae bd
       -0.06691472 0.046312496 -0.1674973 -0.08536902
0003c0 ec 2b 5b bd aa b8 b2 bd ac 20 e9 bd f0 3f d7 bc
       -0.053508684 -0.08726628 -0.11383185 -0.026275605
0003d0 25 26 fa bd f0 b6 8d 3d e8 25 43 bd f8 00 56 bd
       -0.12214307 0.06919658 -0.047643572 -0.052247018
0003e0 42 4f d2 bd 08 ec 2f be 0c bf 57 bd 46 c9 9d 3d
       -0.102690235 -0.17179883 -0.05267243 0.077044055
0003f0 50 8a 53 be 0a 92 f6 bd 48 12 66 bd e0 6f 82 3c
       -0.20658231 -0.120395735 -0.056169778 0.015922487

fc2.bias f4 [64]
000000 04 4f 60 42 84 81 a9 42 51 22 a8 42 64 77 8c bd
       56.077164 84.75296 84.067024 -0.068587095
000010 25 9d 70 bc a0 c4 aa 42 98 66 0c 42 19 db 20 42
       -0.014685904 85.38403 35.10019 40.213963
000020 71 30 65 be 2b 31 94 be dc 56 a7 42 83 81 31 42
       -0.2238176 -0.28943762 83.66965 44.376476
000030 e8 56 b3 be 10 48 a4 bd 06 87 85 be 0a f7 66 be
       -0.35027242 -0.08021557 -0.26079577 -0.22555175
000040 94 91 35 3d 47 e3 28 be ca 7e 19 3d 60 2e 9f 42
       0.044328287 -0.1649295 0.03747443 79.590576
000050 82 8f 03 be 6a e4 8b be cb a6 dc bd 85 4b a7 42
       -0.12847713 -0.27322704 -0.10774001 83.6475
000060 f9 4b 52 be 39 83 a8 42 fb 74 ac 42 74 00 90 42
       -0.20536794 84.256294 86.22848 72.000885
000070 29 7a a8 42 3b 46 a8 42 fe e1 57 42 7e 22 91 42
       84.238594 84.13717 53.970695 72.56737
000080 e1 e0 85 be bb 26 03 3e 0b 07 a4 42 aa e5 99 42
       -0.2614813 0.12807743 82.013756 76.94856
000090 42 7e 53 be d7 a2 10 be c1 c7 40 41 64 d4 0b be
       -0.20653632 -0.14124618 12.048768 -0.1365524
0000a0 1d e2 67 be b9 51 8a 3d 4d bd 1c be 95 d5 12 be
       -0.22644849 0.067538686 -0.15306588 -0.14339288
0000b0 d3 05 b2 3d 89 da 95 42 dd f6 96 bd 64 5a 42 42
       0.08692517 74.92683 -0.07371304 48.588272
0000c0 dd 0f a8 42 5c 0c c9 bd 19 23 a5 42 3b 55 87 3e
       84.03098 -0.098168105 82.56855 0.26432213
0000d0 65 6e 03 3d 27 ab 39 41 d7 e2 a7 42 0e e8 ed bd
       0.032087702 11.604285 83.94305 -0.116165265
0000e0 d8 45 e9 be 6f a1 53 42 36 26 96 41 a0 c4 5b 41
       -0.455611 52.90765 18.768658 13.735504
0000f0 03 22 72 41 1e 90 f0 41 de ad f3 bd a0 d9 32 be
       15.133304 30.07037 -0.11898397 -0.1746583

head.weight f4 [4, 64]
000000 95 94 a3 bf 16 3b 0d 40 cb 0b aa bd d4 2d 1b bd
       -1.2779719 2.2067313 -0.083030306 -0.037885502
000010 ae e1 bd bd 36 ec 15 be 95 62 0b 41 1d d6 96 3c
       -0.092715606 -0.14640889 8.711568 0.018412644
000020 ec d9 0c 3e 94 98 f7 bd a7 9e b4 3e 32 0c 80 bd
       0.13755006 -0.12089649 0.35277292 -0.06252326
000030 3f ea 19 bd 54 d5 67 bd 24 e9 e5 3d 37 b5 9c bd
       -0.03757691 -0.05659993 0.11226109 -0.076517515
000040 79 3c 03 3e 68 03 9a 3d de 66 fe bd cf b6 22 40
       0.12816037 0.07520181 -0.12421964 2.5424078
000050 6c 2d 41 3d ca 6a aa bc e5 34 07 be c5 99 1a be
       0.04716246 -0.020802874 -0.13203771 -0.15097721
000060 5e 20 8b be 26 0d ab 3e d6 5e 48 bd 57 ce 63 40
       -0.27173132 0.3340847 -0.048918568 3.559469
000070 37 d7 c5 bc 69 8b 1c 3e 7f d3 16 41 33 87 9b bf
       -0.024150474 0.15287556 9.426635 -1.2150635
000080 9e 3a df 3d 64 74 34 3d 3e ca 1d bf aa a5 85 bf
       0.10899852 0.04405631 -0.6163672 -1.0441182
000090 23 67 3f 3e fc 0b 9a 3d be b1 79 bc 3a 3a 91 bd
       0.18691687 0.07521817 -0.015240131 -0.07091184
0000a0 88 ea 1b 3e ca 02 33 3e 74 1e 35 bd 27 80 99 bb
       0.15226185 0.17481533 -0.044218495 -0.0046844664
0000b0 ce 97 6e 3d 2f 1c 9e be f8 3d b7 3c c2 93 29 41
       0.05825024 -0.30880877 0.022368416 10.598574
0000c0 b2 d1 d9 3d b7 0b 95 bd cd 29 3a 40 10 3c a4 bd
       0.10635699 -0.07277625 2.9088013 -0.080192685
0000d0 fc 71 32 bd d7 ee 01 3e a5 54 56 be 82 99 73 bc
       -0.043565735 0.12688766 -0.20930727 -0.014868142
0000e0 21 8c 8b bb 53 c8 13 41 f7 bd c7 3f 61 b6 9e 3f
       -0.004258648 9.236407 1.5604848 1.2399408
0000f0 d1 4d b1 3f c2 3c 78 3e 3a 75 a0 3d 34 0a da 3d
       1.3851873 0.24241927 0.07834859 0.10646477
000100 4e f0 61 bf 5a 3e ca 3f c5 56 37 be 40 ec 4e 3c
       -0.882573 1.5800278 -0.17904194 0.012629569
000110 00 8d 00 bc 8a fa 72 be ad f5 19 41 4b d0 e1 3d
       -0.007846117 -0.23728386 9.622479 0.11026057
000120 af 38 b0 bb e2 bd 9d 3d 5a 75 ac 3e 67 05 2f 3d
       -0.005377851 0.07702233 0.33683282 0.04272976
000130 81 81 16 3e 9e 2f 91 3d c0 e5 1e 3b 40 e1 7d bd
       0.1469784 0.070891604 0.0024245828 -0.061982393
000140 be cb 0d bd c2 e0 da 3d 80 07 64 3c 4d b6 a2 3f
       -0.03461813 0.106874004 0.013917804 1.2711884
000150 29 26 85 3c 9f 7f e3 3d bb 49 9b bb 36 9d 6f bd
       0.016253548 0.11108326 -0.004739014 -0.058499537
000160 de 17 86 3e 04 83 92 3e 39 07 6e 3d 32 b0 be 40
       0.26190084 0.28615582 0.058112357 5.959008
000170 23 7a 86 3d cc 7e 83 be c8 cd 22 41 a4 48 bb bf
       0.065662645 -0.25682676 10.17524 -1.4631543
000180 cc 2b 82 bd 52 8a cf 3d be af ab bf f4 e7 f2 bf
       -0.0635601 0.101338044 -1.3413007 -1.8977036
000190 a4 7d 32 3d 5c 90 80 3d 75 74 b2 3d e0 e5 69 bc
       0.04357685 0.06277534 0.08713619 -0.014275998
0001a0 fd 81 63 bd 61 3f 7b be 6c 8a 94 bd b2 96 f3 3d
       -0.05554389 -0.24535896 -0.072529644 0.11893977
0001b0 63 8b 5f bd 62 62 52 be 26 d1 f2 bd e8 9b 23 41
       -0.05457629 -0.20545343 -0.11856298 10.225563
0001c0 b2 12 cd bd 7c f6 5c 3c f9 a5 ec 3e 14 64 08 3e
       -0.100133315 0.013486501 0.46220377 0.13319427
0001d0 0f ed 76 3c d2 60 9e bf 25 b5 6c bd 7b 41 05 3d
       0.015071168 -1.2373297 -0.05778994 0.03253315
0001e0 2c 45 65 3d ec b5 aa 40 0a 92 8e bd 28 4a 33 3f
       0.05597417 5.3347073 -0.069614485 0.7003503
0001f0 9f 8d 47 3f a1 9d f7 bd c6 1f b7 3d ec f4 3c 3d
       0.7795047 -0.12090612 0.08941607 0.046132013
000200 0f d7 07 c0 58 f5 74 3f 14 50 12 3e 20 34 94 3b
       -2.1225011 0.95686865 0.1428836 0.0045228153
000210 77 f2 c1 bd 89 3e 60 bd c8 5e 42 41 f9 d7 e3 bf
       -0.094700746 -0.05474714 12.14814 -1.7800285
000220 c7 e2 96 bc 80 79 db 3c ea 6f eb bc 83 e3 6a be
       -0.018418683 0.026791334 -0.028739888 -0.22938351
000230 f0 47 b2 be b1 4e 10 3e 68 ab 63 bd 18 de 93 bc
       -0.3482051 0.14092518 -0.055583388 -0.018050238
000240 1a 8d cf bd 10 2c 3f bc cd 4e 6f 3d b3 88 ad 3f
       -0.10134335 -0.01166822 0.05842476 1.3557342
000250 4b 77 3d 3d 04 1b 7a bd 1f a9 07 bb 88 31 1f bc
       0.046256345 -0.06106092 -0.002070017 -0.009716399
000260 65 dd af be 06 52 07 bb cf b8 10 3e 47 18 06 40
       -0.34348598 -0.0020648255 0.14132999 2.0952318
000270 8b 0b 01 3d 2b c2 28 3d 7a 22 06 41 b7 95 d4 bf
       0.03150515 0.041200798 8.383417 -1.6608189
000280 26 28 ac bd d1 4c 90 bd 85 1b de bf e4 f3 dd bf
       -0.08406095 -0.070459016 -1.7352148 -1.7340055
000290 14 cc 82 3b 68 fe c1 bc 36 9f 3e 3e f6 a7 50 be
       0.003991613 -0.02368088 0.18615422 -0.20376572
0002a0 bc f9 de bd ea 3e 9d be 08 5f 29 3d d0 4d da bc
       -0.10887477 -0.30712062 0.041350394 -0.026648432
0002b0 9b df 75 3c e1 4b 34 3e 82 36 c6 bd 41 c5 07 41
       0.015006925 0.1760707 -0.09678365 8.485658
0002c0 46 ec 83 bd 05 e2 86 bd 99 22 9f 3f 30 7d 8c be
       -0.0644155 -0.065860786 1.2432433 -0.2743926
0002d0 a5 34 64 bd bd 77 15 40 03 01 7d 3e 6e b2 e9 bd
       -0.05571427 2.3354332 0.24707417 -0.11410986
0002e0 f8 49 71 3e 93 13 6b 40 57 58 96 be eb d7 b0 3f
       0.23563373 3.6730697 -0.29364273 1.3815893
0002f0 62 dc 0b 40 e1 31 67 3f 4e 2a 64 3d 85 1b 17 be
       2.185326 0.90310484 0.055704407 -0.14756592
000300 b9 00 7f be ae a1 c6 3d 51 d3 97 ba c7 d6 c7 3d
       -0.2490262 0.09698807 -0.0011583363 0.097577624
000310 c6 e1 44 bd 2d d1 34 be 6a 9c 4f 41 e9 aa 28 3e
       -0.048066877 -0.17657919 12.975687 0.16471447
000320 05 49 01 3e 3b 91 fe 3d 81 3a a3 bd 06 ef b9 bd
       0.12625511 0.12430044 -0.07970143 -0.09078793
000330 90 c8 15 be 28 88 fa 3d 5a df 16 3d 91 05 fe 3d
       -0.1462729 0.12233001 0.0368341 0.124034055
000340 70 f2 05 3e a5 d7 38 3d 99 b0 2f bc c0 79 c6 3d
       0.13080764 0.04512753 -0.0107232565 0.09691191
000350 c1 71 f6 3b 65 a4 c6 3d 26 df 05 bd 46 42 1e 3e
       0.0075208847 0.096993245 -0.032683514 0.15454969
000360 09 bf e3 bc 76 59 65 bd 07 7a 93 bb 8e 4f 81 bd
       -0.027801054 -0.05599352 -0.004500631 -0.06314002
000370 0b 65 69 3d 76 fc 7f bd a3 cf aa 40 c5 5e 31 bd
       0.056981128 -0.062496625 5.3378463 -0.04330327
000380 bb 0b 06 3e 64 9e 8d 3e 36 e0 34 be 76 7b 5c be
       0.13090412 0.27659905 -0.17663655 -0.21531472
000390 72 2f bf 3d db d2 22 bd 87 68 13 3e a5 6e 38 3e
       0.09335221 -0.03975187 0.14395343 0.18010958
0003a0 06 13 05 be 5e c3 40 3e 8e f6 ae 3c 07 cb 9b 3c
       -0.12995538 0.18824527 0.0213578 0.01901771
0003b0 f9 58 9f 3c 62 d2 23 be 78 8e 09 be d4 40 0e 41
       0.019451605 -0.15998223 -0.13433254 8.890827
0003c0 a6 a0 1f be 2f 95 c5 3c 22 e6 c4 3f 1c e3 66 3e
       -0.15588626 0.024118988 1.5382731 0.22547573
0003d0 d7 e8 0e 3d f4 3b 14 bd 4b 27 20 3c 6f 9d c9 bd
       0.034890022 -0.03618999 0.009774993 -0.09844481
0003e0 e8 3b 34 3e 5d 9f 9c 40 97 5c 0c 3d be 58 9f 3e
       0.17600977 4.8944535 0.034267988 0.31122392
0003f0 34 9f 22 be a5 b4 51 3e 39 65 4d be 95 48 1a be
       -0.15881044 0.20479067 -0.20058145 -0.1506675

head.bias f4 [4]
000000 fe fa fc 41 19 99 ef 41 22 15 7d 42 f5 31 a1 42
       31.622555 29.949755 63.270638 80.59757
