src/model-HIV.pth (torch, 32468 bytes, 10 tensors)

conv1.weight f4 [16, 6, 1, 1]
000000 f5 31 a1 be ff f9 b8 be c6 af cb 3e a4 8f 76 3e
       -0.31483427 -0.36128232 0.39782542 0.24078232
000010 14 1a 43 be 38 2c 18 bd 49 d3 4f 3e 40 3b a8 c0
       -0.19052917 -0.037151545 0.20295443 -5.2572327
000020 33 c9 5b c0 82 7a b1 41 32 3f f6 bf bd a1 c1 40
       -3.4341552 22.184818 -1.9238036 6.0509934
000030 1c 62 bd bb ba 0b f5 3d ac 24 f0 40 00 9c be 41
       -0.005779518 0.11965127 7.5044765 23.826172
000040 21 88 91 3f 0c 4e 94 41 75 f8 73 3c 26 9b e9 c0
       1.1369668 18.538109 0.01489078 -7.300189
000050 42 d4 83 c0 c2 cd a5 41 02 72 53 c0 bd d1 a0 40
       -4.1196604 20.725468 -3.3038335 5.025603
000060 93 3a 1d 3b 26 b9 02 40 c2 62 f1 40 e7 a8 9c c1
       0.0023991212 2.0425506 7.5433054 -19.582472
000070 4a 6b a3 3e d1 a2 f4 c0 d3 f3 fd bc f3 43 94 bf
       0.31917793 -7.644875 -0.031000054 -1.1583236
000080 a5 8b 5c c0 c8 0d c3 41 e1 97 17 3e 59 84 d6 40
       -3.4460232 24.38173 0.14804031 6.7036557
000090 70 70 1b be 55 4a 59 be b0 8f dd 3c e8 54 2e 3e
       -0.1517961 -0.21219762 0.027046055 0.17024577
0000a0 17 b0 cd be 4d 80 ca be 3a ec 53 3d eb d6 9d 40
       -0.40173408 -0.3955101 0.051738955 4.932485
0000b0 54 54 1d 40 58 b3 ac c1 55 44 ee 3f 39 7b ed c0
       2.458272 -21.58757 1.8614603 -7.421292
0000c0 65 e7 d1 bb b1 cd 95 c0 63 72 96 c0 a6 7d a1 41
       -0.006405758 -4.681359 -4.701463 20.186352
0000d0 87 5f f0 bf ea 73 c5 40 11 0f 55 3d 33 03 9e 40
       -1.8779153 6.1703997 0.05201632 4.9378905
0000e0 78 7f 27 40 c2 4e ae c1 82 aa 08 40 d6 64 e3 c0
       2.617155 -21.788456 2.135407 -7.106059
0000f0 b4 63 ef 3a f1 a4 d8 bf 77 c5 6b c0 c2 0c ba 41
       0.0018263967 -1.6925336 -3.6839273 23.25623
000100 10 76 cf 3e 3c 50 55 41 d8 63 99 bd d2 d1 1a 3f
       0.40519762 13.332088 -0.07489747 0.6047641
000110 92 4f 21 41 c6 5d 44 c1 45 00 ea bd 52 49 13 40
       10.081926 -12.272894 -0.11425833 2.30135
000120 9f 47 11 bb c6 9b 0c bf 05 75 08 41 48 d8 ae c1
       -0.0022167934 -0.5492519 8.528569 -21.855606
000130 a5 26 e4 bf 75 5c a3 c0 ef bf d6 3d 52 a8 d8 bf
       -1.7824293 -5.1050363 0.10485827 -1.6926367
000140 30 47 07 c0 29 ec d6 41 5e 48 2d 3e 31 d1 c6 40
       -2.11372 26.865313 0.16922137 6.213036
000150 6f 28 7a be 88 6b 75 3e 50 95 9e bd 44 89 b0 3e
       -0.24429487 0.23966801 -0.07743323 0.34479725
000160 cc 63 92 be 84 70 5e 3e 85 3a be be 8c 57 b4 3e
       -0.28591764 0.21722609 -0.37154022 0.35223043
000170 38 bd 00 be 68 f0 cd 3d c9 f4 b1 be 00 6d 8a bd
       -0.12572181 0.100556195 -0.3475707 -0.06759071

conv1.bias f4 [16]
000000 94 0d a8 3e d1 0c 85 41 8b d0 e9 41 e4 66 40 41
       0.3282286 16.631258 29.226828 12.02512
000010 6c f0 3e c1 c2 b1 94 41 00 41 85 bc ad 59 88 c1
       -11.933697 18.586796 -0.016266346 -17.043787
000020 92 66 51 41 07 0b 89 c1 5d 28 b6 41 09 d0 1c 40
       13.087542 -17.130384 22.769709 2.4501975
000030 f6 e8 06 c1 41 ce ad 41 7a d8 c0 3e 70 0b d7 bd
       -8.431875 21.72571 0.3766516 -0.105002284

conv2.weight f4 [32, 16, 1, 1]
000000 18 f1 54 3e ac 56 a4 3d e0 37 4b 3c a0 bc 09 be
       0.20795095 0.08024344 0.012403458 -0.13450861
000010 58 d5 86 3d 8e f3 55 be c8 50 40 3d 9a 44 5f be
       0.06583661 -0.2089369 0.04695204 -0.21803513
000020 78 cc 85 3d 9c 39 bf 3d d0 4d a3 3c dc 4f 5f be
       0.0653314 0.0933716 0.019934565 -0.21807808
000030 c8 91 79 3d 36 ce 70 be 80 ee ec bd d2 9c 54 be
       0.060930043 -0.23516163 -0.11568928 -0.20762947
000040 a0 95 dd bc 2b 0f a4 be 7d 71 a8 bf 27 25 44 bf
       -0.027048886 -0.32042822 -1.3159634 -0.7661919
000050 a3 80 e3 3e 4a 1a 7a be 20 ce 6f be e5 7d 44 3f
       0.4443408 -0.24424091 -0.23418474 0.767546
000060 99 4a f1 be d0 e7 11 3f c1 19 fa bf 56 84 62 3f
       -0.47127226 0.5699434 -1.953911 0.8848318
000070 cf db 43 40 38 55 87 3c 74 05 fb bd cc 16 20 3e
       3.060291 0.016520128 -0.122568995 0.15633696
000080 fa d2 68 3e d9 1f 21 3e 26 1d bd 3f 5c b1 37 3f
       0.22736731 0.15734805 1.477452 0.71755004
000090 d1 73 50 be 87 41 84 3d 58 70 4d 3e f3 ef c1 be
       -0.2035668 0.06457811 0.20062387 -0.3787838
0000a0 53 91 28 3f 5f 4e 22 bf 74 9f 32 3f 78 fa 22 be
       0.6584675 -0.63400835 0.69774556 -0.15915859
0000b0 2c 86 a3 bf 33 ab 57 3e 64 01 2b be 10 74 c5 3c
       -1.2775321 0.21061401 -0.16699749 0.024103194
0000c0 b0 ef 05 3d 1a d1 95 3d 25 89 b5 bc 8b c7 dc 3d
       0.032699287 0.073152736 -0.022160122 0.10780247
0000d0 f3 fd 31 be e8 30 35 be e0 8e ce bd 8d 03 32 bf
       -0.1738203 -0.17694438 -0.10085845 -0.6953667
0000e0 e6 9a 97 bd 1b 1a ac be ea 7f 1f 3f b4 d7 b4 3d
       -0.074025914 -0.33613667 0.62304556 0.088302046
0000f0 ce 19 18 3d 52 f7 3f bd c8 c3 7d 3e 50 5f b0 bc
       0.037133984 -0.046866722 0.24781716 -0.021529824
000100 d4 c6 a9 bd 55 68 89 bd 96 99 9a 3f e8 83 f6 3c
       -0.082898766 -0.06709353 1.2078121 0.030092195
000110 93 77 85 be fb 57 b7 bd b4 61 c2 3d f0 9c ff be
       -0.2606779 -0.08952328 0.09491292 -0.4992442
000120 56 a4 d4 be fe 3a 0b bf 1d a0 77 3f 08 8b 1e be
       -0.41531628 -0.5438689 0.9672869 -0.15482724
000130 99 5d b2 be 9a c9 f1 be 60 75 57 3d f8 b4 13 bd
       -0.34837034 -0.47224122 0.052602172 -0.036061257
000140 b8 b8 25 3e 70 ae e6 3c 10 66 80 3d b4 a4 ff 3d
       0.16183746 0.02815935 0.06269467 0.124825865
000150 ba f6 2b be 58 e6 00 3e ec bf e5 3d 00 de d4 bb
       -0.16793337 0.12587869 0.11218247 -0.006496191
000160 c6 ad 25 be b8 b2 ba bd 6c 5d 68 be 0c b4 e6 bd
       -0.1617957 -0.09116119 -0.22691888 -0.1126481
000170 24 12 28 be 2c 4f df bd 00 7d ae ba 9c 9e 61 3e
       -0.1641317 -0.10903773 -0.0013312399 0.22033161
000180 d6 7c 68 3e 1c f6 04 3f 7c 6d f3 3f 23 6a 96 3f
       0.22703871 0.51938033 1.9017787 1.175114
000190 7a 98 a1 3d 73 1f 7d 3e 56 4a 3a 3e c6 d1 73 bf
       0.07890411 0.24719028 0.1819242 -0.95241964
0001a0 c8 95 98 3e fc f0 5b bf 64 a1 4b 3f 38 cf 8f 3a
       0.29801774 -0.8591459 0.7954314 0.001097179
0001b0 a0 a0 a2 3f 26 be 7b bd 52 ee 66 be a4 7e 73 be
       1.2705269 -0.061460637 -0.2255185 -0.23778778
0001c0 e0 29 3f 3d b3 3f d4 3d 45 ad 82 bd 3d 6f ae bd
       0.046670794 0.10363712 -0.06380705 -0.08517311
0001d0 72 51 86 be 03 c1 11 3d b4 dc 4e be 71 c4 27 bd
       -0.26234013 0.03558446 -0.20201379 -0.040958825
0001e0 50 39 b9 bd c4 18 a9 bd 31 e7 2e be 54 39 55 be
       -0.090441346 -0.08256677 -0.1708038 -0.2082265
0001f0 1e 7f 31 3e db 52 1b be ac 88 fc bd 00 b7 18 3b
       0.17333648 -0.15168326 -0.123307556 0.0023302436
000200 f4 6f 8e bd 13 d0 e8 3d 82 0c dd bf 09 8a 5a bf
       -0.06954947 0.11367812 -1.7269442 -0.85366875
000210 5f 40 85 3e 5a 38 33 bd bc 36 50 3e a5 7e 00 3f
       0.26025674 -0.043754913 0.2033338 0.50193244
000220 11 f9 1b be bc f3 5b 3f 64 22 19 c0 e2 9f 40 bd
       -0.1523173 0.85918784 -2.392724 -0.047027476
000230 c0 3a 8f 3f 42 46 95 3e 1a 93 0b be 7c d5 2c 3e
       1.1189804 0.29155165 -0.13630334 0.16878313
000240 ea f2 58 3e 92 ca 50 c0 6d 3d d7 3e 42 06 57 be
       0.21186414 -3.262364 0.42039052 -0.20998481
000250 0a 7d 9c 3e cd 07 d4 bf b0 af 40 3e d5 70 7e 3e
       0.30564147 -1.6564881 0.1881702 0.2484773
000260 00 c0 ae bf 8e 11 dd 3e 3d ee 3b c0 63 f0 c9 be
       -1.3652344 0.43177456 -2.936416 -0.39441213
000270 75 1d 92 3d fe 70 10 c0 4c 67 a8 bd 00 25 0c bc
       0.07134525 -2.2568965 -0.08222827 -0.008553743
000280 6c 7d 0c be db 43 bb be 42 99 68 3e dd 0a ac bf
       -0.1371972 -0.36575207 0.22714713 -1.3440815
000290 fb 39 61 be 60 79 22 bd a8 91 e3 3d 80 3b f1 bd
       -0.21994774 -0.039666533 0.11111766 -0.11778927
0002a0 3d 31 3b bf 62 3e ee be 69 43 d8 3f 1d 2e 38 be
       -0.73122007 -0.4653197 1.6895572 -0.17986341
0002b0 15 1b 98 bc cd 23 36 3d b0 ac 0c be d8 c5 34 bd
       -0.018567601 0.044467736 -0.1373775 -0.04413399
0002c0 20 4c 6e 3d 87 63 8f be c8 a8 df bf e5 0b 58 bf
       0.058178067 -0.2800562 -1.7473383 -0.8439315
0002d0 00 19 f1 3e a7 5a 7a 3e b0 a2 ca bd ee 43 7b 3f
       0.47089386 0.24448644 -0.098943114 0.9815053
0002e0 36 22 17 bf 15 fe 14 3f a1 62 b7 bf 4b 56 28 3f
       -0.59036577 0.582002 -1.4326974 0.6575667
0002f0 c2 0a 14 40 e8 5d 36 be e0 41 12 be 80 d6 e0 bb
       2.3131566 -0.1780926 -0.14282942 -0.006861508
000300 f8 24 9c 3d 3a fe 79 3e 35 aa bd bf 95 7c 9a bf
       0.07624239 0.24413386 -1.4817568 -1.206927
000310 66 aa 92 bd f8 14 13 3f 00 9c a2 b9 21 5c 6d 3e
       -0.07161407 0.5745387 -0.00031015277 0.23179676
000320 2b 85 8a 3e 08 ee e2 3e fb 2b d7 bd a2 e5 e1 3d
       0.27054724 0.44322228 -0.105064355 0.11030127
000330 c5 3a 7f bf 29 04 51 3e a8 c4 3c 3e 98 e1 53 be
       -0.9969905 0.20411743 0.18434393 -0.20691526
000340 f8 1b 5a be 40 63 7f be e8 33 29 40 0d 2b a4 bf
       -0.21299732 -0.24940205 2.643793 -1.2825638
000350 7e 46 00 be 3a 4a fe 3d dc 14 51 be 15 f1 bd 3e
       -0.1252689 0.12416501 -0.20418113 0.37097993
000360 c4 1a 26 bf 72 3b b8 3e a2 9f 39 40 ed a8 96 3e
       -0.6488459 0.35982853 2.9003682 0.29425755
000370 cf c5 4f 3e 9e 1a 4e 3c d4 4b b1 3d e6 a7 44 3e
       0.20290302 0.012579588 0.08657041 0.19204673
000380 2e 8f 49 be 3c 96 86 bd 4e 87 de 3e 1d f7 dd bd
       -0.19683525 -0.06571624 0.43462604 -0.10838149
000390 87 a4 37 be eb 02 96 3d 80 aa dc 3d 84 35 2a bf
       -0.17933856 0.07324775 0.10774708 -0.6648791
0003a0 95 bd 4d bd 0b ae 1e bf 69 db 30 3f 5c 02 a3 bd
       -0.050229628 -0.6198432 0.69084793 -0.079594344
0003b0 51 d0 87 be f6 c4 c6 3d 90 2b d3 bd fc ac de bd
       -0.2652612 0.09705536 -0.10311043 -0.10872838
0003c0 10 e6 ea bc 58 fa a8 bd 88 20 cb 3d 70 33 46 bd
       -0.028674155 -0.08250874 0.09918314 -0.0483889
0003d0 60 ee df 3d 78 84 9b 3d b4 d8 43 be e0 20 93 bd
       0.10934138 0.07593626 -0.19125634 -0.07184005
0003e0 40 fd 64 bc 96 4f 67 be a8 75 78 be f8 d4 7d bd
       -0.013976395 -0.22588953 -0.24263632 -0.06197068
0003f0 bc ad 72 be a8 99 37 bd ec 33 ee bd 38 3c f0 3d
       -0.23699087 -0.044824272 -0.11630997 0.11730236

conv2.bias f4 [32]
000000 10 f8 e3 bd 86 9d 41 c1 eb 9d c9 41 41 2d de 40
       -0.111312985 -12.100958 25.202108 6.943024
000010 f3 84 3e 41 78 50 43 bd af dd 17 41 c4 9d 55 3e
       11.907458 -0.047684163 9.491622 0.20860964
000020 8c d7 f9 c0 3b 9b 9f c1 3f 2f da 40 d2 12 7f c1
       -7.807562 -19.950796 6.8182673 -15.942095
000030 d7 65 10 c1 a4 38 a7 41 56 3e ab 40 1c c4 46 be
       -9.024863 20.902657 5.3513594 -0.19410747
000040 17 71 ef 3f b6 0a 26 3e 44 b5 57 c1 38 e7 c5 41
       1.8706387 0.16215023 -13.481754 24.7379
000050 ac 07 c7 40 42 33 2b 41 46 1f 22 be 4e 55 c9 41
       6.2196865 10.700014 -0.15832242 25.166653
000060 70 e8 7e 3e 43 f7 8e 41 f1 23 00 c1 fd 98 12 40
       0.24893355 17.870733 -8.008775 2.2905877
000070 2e 32 85 41 d2 25 ea 40 72 60 0f 3e 36 7e 48 be
       16.649502 7.3171167 0.14001635 -0.19579396

fc1.weight f4 [64, 32]
000000 24 b6 36 3d 5a 57 2c 3f fc 59 26 bf 33 6b 86 3e
       0.044607297 0.6732079 -0.64981055 0.26253662
000010 0a 0c cd bd ac 76 36 3d c1 9e ac 3f 73 2d 0f be
       -0.10012062 0.044546768 1.3485948 -0.13982181
000020 2f 38 96 3d 76 b5 f7 3e 20 6a 91 bc 86 c4 4d 3f
       0.07334935 0.4838063 -0.0177508 0.80377996
000030 ee 2b 27 be 52 02 69 bf bb a7 81 bd 49 a0 17 be
       -0.16325352 -0.91019166 -0.0633082 -0.14807238
000040 48 02 62 3e f6 3b a6 3d 61 3d 9a bf 5f 73 b0 be
       0.22071183 0.081169054 -1.2049981 -0.3446302
000050 74 3c 18 bf 43 9c c9 be 6a 1d 08 3e 10 43 6b be
       -0.59467244 -0.3937703 0.1329247 -0.22974801
000060 7f cb 2c 3e 5d 59 80 3e bb 6f 86 3e 6e b8 0d be
       0.16874503 0.2506818 0.2625712 -0.13839886
000070 ac 2e e1 be 0b e5 40 bf 8e c7 fe 3d 75 08 2b 3e
       -0.4398092 -0.7534949 0.12440406 0.16702445
000080 50 22 f0 3c d9 ef 27 bf 86 c7 4c 3d 1d a3 82 3d
       0.029313236 -0.65600353 0.049994968 0.06378768
000090 e2 08 19 bc 3c 06 03 bd 97 54 d9 be b9 39 15 3e
       -0.009340497 -0.031988367 -0.4244735 0.145728
0000a0 41 81 9a be 86 a3 d8 be 88 d6 af be ed f0 0a bf
       -0.30176738 -0.42312258 -0.34343362 -0.54273874
0000b0 29 d2 82 be 0d 8b b6 3e 53 29 5a 3e 92 72 b4 3d
       -0.25550964 0.35652962 0.21304826 0.08810915
0000c0 fa 4b 1c 3e 30 e7 6e bc 7c 16 66 bf 06 a2 56 3e
       0.15263358 -0.014581487 -0.8987806 0.20960245
0000d0 e3 61 c1 3e 5a 85 2b 3f 05 da 1f be ac 8d ca bd
       0.37769994 0.67000353 -0.15610512 -0.09890303
0000e0 c8 d3 8e 3c f3 62 a6 bd 7a fb c1 be fb 53 26 3e
       0.01743497 -0.08124342 -0.37887174 0.16242974
0000f0 74 8c 8c 3e c1 59 43 3f 00 90 67 b9 97 a1 90 bd
       0.27450907 0.7630883 -0.00022083521 -0.07062071
000100 f0 f7 87 3d 78 48 2c be 7c fd 17 be e4 4d 22 be
       0.06639087 -0.1682452 -0.1484279 -0.15850025
000110 33 7c 0c 3a 86 6f 23 be ba 9e ba bd 24 c4 2f be
       0.00053590833 -0.15960512 -0.09112306 -0.17164665
000120 ec 5a 78 bd 74 e2 82 bd c8 60 7c 3d a9 ab 8b be
       -0.060633585 -0.06390849 0.061615735 -0.27279404
000130 8a 61 0d bd 49 d8 a7 bd 06 c9 03 be 84 a3 43 3d
       -0.03451685 -0.0819555 -0.12869653 0.047763363
000140 2e e2 bf 3d 20 74 b1 bc 54 c4 a9 bd b1 2f b2 bd
       0.09369312 -0.021661818 -0.082894 -0.08700503
000150 ee 56 0c 3d ac e0 04 3c 82 dc 74 bd f5 82 8f bd
       0.03426259 0.008110207 -0.059780605 -0.070074
000160 33 1b ec bd 1f 27 6f bc b3 f2 d7 3c ea 2a e6 3c
       -0.11528625 -0.01459673 0.026360845 0.028096635
000170 b3 5c 51 be 75 52 fe bd f1 40 1c be 0c 07 fd bd
       -0.20445518 -0.12418071 -0.15259148 -0.1235486
000180 d5 46 0c be aa 08 3f bd a8 7d 18 3d c0 af dd 3d
       -0.13698895 -0.046639122 0.03722921 0.10824537
000190 3a 0a f0 3c 50 44 40 3c e9 02 0d 3e 4b 2f 2e 3e
       0.029301751 0.011735037 0.13770641 0.17010228
0001a0 aa 5f e5 bd 39 68 04 3e 68 92 fa ba 4d 7d ad bd
       -0.11199887 0.12930383 -0.0019117119 -0.08471165
0001b0 3b 62 c5 bd 75 07 f0 bd e9 15 4d bd f0 6f dc 3c
       -0.096378766 -0.11720172 -0.050069723 0.026908845
0001c0 f6 ba 0c be 7d 2f b7 bd 76 9f 50 3d b0 d4 7d bd
       -0.13743195 -0.089446045 0.050933324 -0.061970413
0001d0 06 e3 eb bd 79 48 ad 3d b9 5e 18 be fe 95 d6 bd
       -0.11517911 0.08461089 -0.14879884 -0.104778275
0001e0 5e 33 ef 3d a1 00 31 be 2b 45 09 3e 1b 8f 2a 3e
       0.116797194 -0.17285396 0.13405292 0.16656153
0001f0 36 1d 2b 3d 37 0b fd bd da 5a e1 bd 94 53 28 3d
       0.041775905 -0.12355655 -0.11003657 0.04109533
000200 20 fb 26 3d 84 74 9a be 78 75 de bd 05 13 91 bd
       0.040766835 -0.3016702 -0.10862249 -0.07083706
000210 e6 6e 58 3e f0 40 21 3d 6f bf e4 be 7e 16 db 3d
       0.21136054 0.03936857 -0.44677302 0.106976494
000220 8d 7b 1b bf 47 f3 b6 be 4b 0c 88 bd 32 39 ca be
       -0.607354 -0.3573248 -0.0664297 -0.39496762
000230 3b 8a b5 be f6 d7 95 3e af da ef 3d d0 95 df 3c
       -0.35457024 0.29266328 0.117116325 0.027293116
000240 8f df c9 bd 90 01 a1 bd ea f1 ad be 56 ef 7d 3d
       -0.098570935 -0.07861626 -0.33973628 0.061995827
000250 91 67 d6 3e 1b 7b 6d 3f d1 11 32 3e 8f 06 37 be
       0.4187589 0.9276597 0.17389609 -0.17873596
000260 47 c1 d1 bd b4 6f 0c be 3a 82 06 bf c8 a8 63 3e
       -0.10241943 -0.13714486 -0.5254246 0.22232354
000270 61 79 ad 3d ae 1c 36 3f 96 f6 d0 3d 61 47 24 be
       0.08470417 0.7113751 0.102032825 -0.16042854
000280 90 49 11 3c 28 c6 b4 be 6f 50 18 be 6a 3b 08 be
       0.008867636 -0.3530743 -0.14874433 -0.13303915
000290 2f dd ae 3e a1 82 26 be c7 f2 db bf 68 1b d8 3d
       0.34153125 -0.16260768 -1.7183465 0.10552102
0002a0 18 24 0c 3d 98 d0 11 be c9 e8 15 be 0b 62 8e be
       0.03421411 -0.14239728 -0.14639582 -0.27809176
0002b0 72 f4 2c 3e 0a 9b 03 c0 03 94 ab 3e 60 3f 0b 3d
       0.16890123 -2.0563378 0.3351136 0.033995986
0002c0 69 2d 62 3d 58 5a 86 bc 8d b7 c6 be 83 f7 16 3f
       0.055219088 -0.016400501 -0.38811913 0.5897142
0002d0 4f f9 9c 3e 4d 94 40 3f 1a ad e0 bd 62 0d b9 3e
       0.30658957 0.7522629 -0.109705165 0.36143023
0002e0 dc 1c 5f bd 76 c8 d5 3e 77 bb 26 be ae bb e7 3c
       -0.05447088 0.41754502 -0.1628245 0.028287735
0002f0 1e 56 96 3e a9 fb 04 3f 82 15 f6 3d 8f b9 8f bd
       0.29362577 0.519465 0.12015821 -0.07017814
000300 b1 47 0e 3e 20 94 3a bf a0 99 c0 3d 8f 5c a8 bd
       0.13894536 -0.7288227 0.09404302 -0.08220779
000310 86 be 29 3d c6 4c d0 3d 43 3b a0 be 40 1f 34 3d
       0.041441463 0.10170893 -0.31295213 0.043975115
000320 2b 35 98 be 26 25 35 bd 60 fd f4 3d b5 4d a9 be
       -0.29728064 -0.04422488 0.1196239 -0.33067098
000330 09 52 ad 3d 9a cd 5a c0 9b 92 51 3e a0 c6 34 be
       0.084629126 -3.418799 0.20466082 -0.17653894
000340 75 74 b9 3c ce 44 b0 bd a2 16 a8 be 94 1a c2 3e
       0.022638539 -0.086068735 -0.32829767 0.37910903
000350 34 58 04 3f 44 e5 55 3f 41 69 13 3e 08 d8 e6 3d
       0.5169709 0.83552957 0.1439562 0.112716734
000360 02 c5 c2 3d e5 09 bb 3e 7c e3 77 be 1f 2e 5c 3e
       0.095102325 0.36530986 -0.24207872 0.21501969
000370 31 91 44 3e 75 25 fd 3e 44 a9 17 be 3e b9 bc 3d
       0.19196011 0.4944264 -0.14810663 0.0921502
000380 88 6a 2d be 63 f7 15 bf 1b 0c a3 be ce 53 2d be
       -0.1693517 -0.5858061 -0.31845173 -0.169265
000390 9b 25 18 be c9 21 2b 3e e4 c2 94 3d d5 76 11 3e
       -0.14858095 0.16712107 0.07263735 0.14205487
0003a0 5c 40 6b bf ed 2b f5 bd 9e 30 83 bd 5d 24 e9 be
       -0.9189508 -0.11971269 -0.06405757 -0.45535555
0003b0 08 7c e6 be 4d 59 11 3f 6d 57 b2 3b 10 34 d7 bc
       -0.45016503 0.5677689 0.005442551 -0.026269943
0003c0 39 20 6c bd 25 d4 e7 bd 85 3d 24 bf 51 3e f1 be
       -0.057647917 -0.1131976 -0.6415637 -0.47117856
0003d0 e5 e4 12 3f c7 dc 01 3e 20 66 16 be 5d 5c 83 be
       0.57380515 0.12681876 -0.14687395 -0.25656405
0003e0 44 fd 2f bd d1 05 52 bd b5 4b 69 bf 6f f1 4a bd
       -0.042966142 -0.05127508 -0.91131145 -0.049546655
0003f0 5b e3 cc bd 8c e1 35 3f 59 85 14 be 82 fc e5 3d
       -0.10004302 0.7104728 -0.14503993 0.11229803

fc1.bias f4 [64]
000000 03 14 26 40 20 8c 97 41 fb cc 99 b8 04 c9 3a be
       2.5949714 18.94342 -7.333789e-05 -0.18240744
000010 26 20 83 41 f6 6a 81 41 52 3e 79 41 ef 1e ef 40
       16.390697 16.177227 15.577715 7.472526
000020 9d c7 a8 3c 23 44 47 3d 09 d9 ef 41 04 de 7c be
       0.020602996 0.048648965 29.980974 -0.24694067
000030 0a bb 14 be b9 c8 47 3c 3f d0 6c be 3b 0e 36 41
       -0.14524475 0.012193852 -0.23126315 11.378474
000040 ab aa e6 41 4c 4e 9a 41 7a 8a dd c1 e1 34 f3 41
       28.833334 19.28823 -27.692616 30.40082
000050 12 44 1f 41 35 0e 23 41 04 54 45 41 59 07 e1 c1
       9.954119 10.1909685 12.333012 -28.128588
000060 4e 00 99 3d 3a 1d 24 41 79 c9 8c 41 11 3c 7e 41
       0.07470761 10.257135 17.598375 15.889665
000070 14 2e 0a 41 57 52 b4 41 7b fc 67 bc 05 10 91 41
       8.63625 22.540205 -0.014159317 18.132822
000080 2b 89 e7 41 f2 7f e7 40 2e 48 9f c0 69 cb ea 41
       28.941977 7.2343683 -4.977561 29.349321
000090 cf 19 af 40 80 bc 92 41 b1 3d 21 41 45 62 e9 41
       5.4719005 18.342041 10.077561 29.172983
0000a0 a5 dd dc bd c0 e3 37 41 00 77 61 3b b2 b6 03 41
       -0.10784463 11.493103 0.0034403205 8.232103
0000b0 d6 4f 74 41 e3 ea 81 c1 37 82 2f bd 05 44 14 41
       15.269491 -16.23969 -0.042848792 9.266606
0000c0 52 e4 92 41 7d d9 12 3e f0 5d 35 41 95 a3 3a 41
       18.361485 0.14340778 11.335434 11.664937
0000d0 9f e0 0f be ee 15 bf 40 62 f8 21 3f fc 93 86 41
       -0.1405053 5.971427 0.6326963 16.822258
0000e0 d5 7a bc c0 b0 26 3d be 01 26 a0 41 6e ef db 3c
       -5.889994 -0.1847179 20.018557 0.026847567
0000f0 fe 32 3c be 22 38 93 41 ae 76 71 41 d3 78 8e 3e
       -0.18378827 18.402409 15.091475 0.27826557

fc2.weight f4 [64, 64]
000000 68 d0 d1 bc 35 7b 3e 3d 6c 91 14 bd 78 0a 38 bd
       -0.025612071 0.046504218 -0.036271498 -0.04493186
000010 5c c6 5e bd b3 96 8b 3d a7 8f 8f bd fb 88 cd bd
       -0.05438839 0.06815853 -0.070098214 -0.100358926
000020 c0 c5 78 3c 9c be 03 3d ce b0 c9 bd c0 cc 20 3d
       0.015183866 0.0321642 -0.09848176 0.039257765
000030 88 06 c4 bd b8 31 2a bd 78 e9 85 3c e9 f4 e2 bd
       -0.09571558 -0.04155132 0.016346678 -0.11081869
000040 93 79 b5 bd 30 64 ef bd 5e 23 f2 bd b3 a5 91 bd
       -0.08861079 -0.11689031 -0.11823152 -0.07111683
000050 21 31 20 3d ed 0e b2 3d b7 bb 0c bd ba 91 92 3d
       0.039109353 0.08694253 -0.034358706 0.071567014
000060 b0 b3 72 bc 7c da 53 bd 97 21 b7 bd ed 1d 96 3c
       -0.014813349 -0.051722035 -0.08941954 0.018324817
000070 17 c3 e0 bd 9d b4 aa 3a 80 3a 7f 3b c2 86 d2 bd
       -0.109747104 0.0013023798 0.003894478 -0.10279609
000080 b8 6c 43 3d b2 20 84 bd 00 c1 0a 3c 0f 9a d1 bd
       0.047711104 -0.06451549 0.008468866 -0.102344625
000090 4f 47 8d bd 37 24 0c 3d 54 15 85 bc 67 57 ce bd
       -0.06898367 0.034214225 -0.016245522 -0.100752644
0000a0 a8 49 39 bd 86 4d e9 3b 60 9a 7f 3d 6e 32 98 bd
       -0.04523626 0.007119837 0.062403083 -0.07431494
0000b0 1d bf 7a bc 00 be b5 3d ac dc 5e bd 1f 65 06 3d
       -0.015304354 0.0887413 -0.054409668 0.03281128
0000c0 44 72 e8 bd 22 24 9d 3d 49 31 4f bd 48 ff 35 bd
       -0.113499194 0.076729074 -0.05058411 -0.04443291
0000d0 88 67 41 bd 07 90 9b bd 60 9c dc bb 1b cc c6 bd
       -0.047217876 -0.075958304 -0.0067325085 -0.09706899
0000e0 8a eb d5 bd b0 09 35 3d a3 4a 70 bb 4a 7e cc 3d
       -0.10445316 0.04419869 -0.003666558 0.09985025
0000f0 68 d5 88 3c bb 1f 25 3d 85 9f 73 3d 80 69 ae 3c
       0.016703323 0.040313464 0.0594783 0.02129054
000100 83 ec 79 bc 76 12 b3 3e c0 27 65 3d 30 51 09 3e
       -0.015254143 0.34975022 0.05594611 0.13409877
000110 ae ca e0 3e 86 79 cd 3f cb 06 73 3f 16 f1 b6 3e
       0.43904632 1.6052711 0.9493224 0.3573081
000120 3c 72 15 bd 95 9f 08 3e 50 20 18 3f 0b a5 f1 be
       -0.036485896 0.13342126 0.59424305 -0.4719623
000130 8c 01 b7 bd bf 1f 06 be 50 e1 d6 be bc c2 0b 3d
       -0.08935842 -0.13098048 -0.41968775 0.03412126
000140 a2 cb 34 3f cc 53 1d 3f 53 5e d7 be 7d e7 44 3f
       0.7062322 0.6145599 -0.4206415 0.76915723
000150 8b 65 e0 3f e8 f9 12 3e 57 11 b9 3e 77 5c 8b be
       1.7530988 0.14353144 0.36146042 -0.27218983
000160 34 eb e8 bd 7b 5f ba 3e 55 55 17 3e 27 c8 a6 3e
       -0.113729864 0.3640097 0.14778645 0.3257458
000170 bb d6 1b 3f d1 0a 34 3f e3 3f c2 3d 00 07 8c 3e
       0.6087453 0.70329005 0.09484842 0.2734909
000180 ea 02 1e 3f 92 cf ae 3e e0 14 45 3f 9c 4c 08 3f
       0.61723197 0.3414274 0.7698498 0.53241897
000190 d1 f2 62 3f 57 03 14 3e 82 1b ff 3e 68 e0 e3 3e
       0.8865176 0.14454399 0.49825674 0.44507146
0001a0 4f ac 47 bd fe 37 ec 3d da b2 cc bd 18 29 7c 3d
       -0.04874831 0.11534117 -0.09995051 0.061562628
0001b0 81 d6 26 3e 6b d8 38 3d 04 a6 83 3d 13 63 41 3e
       0.16292764 0.045128267 0.06428149 0.1888545
0001c0 95 65 99 3e bc 28 58 3d 38 d8 88 3e e8 23 bc 3e
       0.29960313 0.052773222 0.26727462 0.36746144
0001d0 a2 d8 a5 ba b8 e9 21 3e 7d f9 fb 3d 9a 71 41 bf
       -0.0012653063 0.15811813 0.123034455 -0.7556397
0001e0 c4 a7 4d 3f d3 02 67 bd 90 fd de 3e c7 2b c2 bd
       0.80334115 -0.056399178 0.43552828 -0.09481006
0001f0 ff 10 c8 3b 61 b0 72 3d 56 53 52 3e 4e 48 40 bd
       0.0061055417 0.05925024 0.20539603 -0.046943955
000200 b0 d0 42 bd 96 7f ec bd c0 ed 9c 3b 42 df c8 3d
       -0.0475623 -0.115477726 0.004789084 0.09808208
000210 97 3d cc ba 27 9f a5 3d 0b 35 0a be 3d 59 6d 3d
       -0.001558232 0.080869965 -0.13496797 0.057946432
000220 b0 4e 58 bc a0 ac 7c 3c 64 35 02 be b4 ca e5 3d
       -0.013202354 0.015422016 -0.1271568 0.11220303
000230 d3 50 64 3a 80 ee 1a bd e4 05 b7 bd 90 7a 83 bb
       0.00087095535 -0.037825108 -0.089366704 -0.0040124133
000240 53 f7 08 bd 98 93 48 3d 31 bf 05 bd 6f 76 5b bd
       -0.03343899 0.04896888 -0.032653037 -0.053579744
000250 34 1d 60 bd eb 9c c4 bb 1c 07 d0 bd b0 36 cb bc
       -0.05471535 -0.0060001514 -0.10157606 -0.02480635
000260 f6 9d b9 3d 47 78 91 bd a6 e2 76 bd df 57 d3 bd
       0.09063332 -0.07103019 -0.060274743 -0.103194945
000270 65 8a ac 3b 5a 2b c3 3b cc 5b 2f 3d 1c 20 99 bd
       0.0052655214 0.0059560956 0.042812154 -0.074768275
000280 af e1 80 3d 7c 17 c1 bd c5 e7 14 be 8e 0f 4d bd
       0.06293046 -0.094283074 -0.14541538 -0.050063662
000290 f5 22 0f be 32 c9 17 3d d5 17 16 be 48 8e 23 be
       -0.13978179 0.03705711 -0.14657529 -0.15972245
0002a0 b2 21 c8 3d b3 62 b2 bd 9a cd 99 3d c3 fe bd 3d
       0.09772052 -0.08710232 0.075099185 0.092771076
0002b0 f8 18 13 3d 88 ac 9a bd 7a 2d e7 bd a9 b1 f4 bd
       0.035912484 -0.07552439 -0.11287971 -0.119479485
0002c0 95 01 13 3d 10 62 83 3c 26 dd 78 bc 71 cc 95 bd
       0.03589018 0.01603797 -0.015189445 -0.07314385
0002d0 f4 80 33 3d d8 43 6a 3d 10 78 45 3d 90 73 00 bd
       0.04382415 0.057193607 0.048210204 -0.03136021
0002e0 5c ea f6 bd 38 a1 9e bc f6 4f 59 39 5c 37 fd bd
       -0.12056419 -0.019363984 0.0002072452 -0.123640746
0002f0 3e 0f f2 bd 54 f6 2a bc 9a 58 4a bc 48 0e 9e 3c
       -0.118193135 -0.010434706 -0.012350226 0.01929392
000300 20 36 c1 bd 04 ab 5a bd 88 aa 90 bd 50 ee 6c bc
       -0.09434152 -0.05338575 -0.07063776 -0.014461115
000310 38 ac ce 3c ae b9 b1 3d a2 d3 c5 3d 80 7f 0e bd
       0.025228605 0.08677994 0.096595064 -0.034789562
000320 a0 8f 12 bd 20 d4 90 bd 86 03 c0 bd fc 4b 81 bd
       -0.035781503 -0.0707171 -0.09375672 -0.06313321
000330 00 64 76 bd 0e db a6 3d da b5 bf 3d c0 6e e2 bb
       -0.06015396 0.0814725 0.09360857 -0.006910175
000340 aa fd d7 bd 98 4c d2 bc 2c 57 67 bd 00 9a f7 3a
       -0.105464295 -0.025671288 -0.056479618 0.00188905
000350 96 4a bb bd 00 8a 4e bc 48 12 c2 bc 00 17 2f 3a
       -0.091450855 -0.012606144 -0.023690358 0.00066791475
000360 00 17 3d bd 10 12 7e 3c e8 0d eb 3c 60 e7 93 bd
       -0.046164513 0.015507236 0.028693154 -0.07221866
000370 12 ca 8e 3d f0 f4 b0 bd 2a 93 a3 3d 0e 85 d5 3d
       0.069721356 -0.08640468 0.07987054 0.10425769
000380 40 7c ef bc 80 24 76 bb c0 1b d0 bb a0 9b 49 bc
       -0.029234052 -0.0037558377 -0.0063509643 -0.01230517
000390 dc 46 fe 3d b8 f9 c1 bc a0 26 2d 3c 48 40 54 3d
       0.12415859 -0.023678645 0.010568291 0.051819116
0003a0 ec 47 e5 3d 0e 0f 95 bd 80 c8 cb bd 40 d5 64 bb
       0.11195359 -0.07278262 -0.09950352 -0.0034917146
0003b0 6e a2 92 bd 40 d2 e4 3c c2 5e e0 bd 60 55 07 bc
       -0.07159887 0.027932286 -0.109555736 -0.008260101
0003c0 2c 28 6e bd f0 b7 24 bc 98 1b 36 3d 98 e2 95 bc
       -0.05814378 -0.01005362 0.04445991 -0.018296525
0003d0 78 b6 67 3d e8 cd f2 3c dc ae af bd 74 2e c3 3d
       0.0565705 0.0296392 -0.08578274 0.095303446
0003e0 54 d4 21 bd 2a 9e 86 bd 60 42 ef 3c 84 e0 3f 3d
       -0.039509133 -0.06573136 0.029206455 0.046844974
0003f0 de af ad 3d 6a 76 ad bd 00 ba f9 3a f2 ee d7 bd
       0.0848081 -0.08469851 0.0019052625 -0.10543622

fc2.bias f4 [64]
000000 4d c1 23 bc f3 3d fd 41 4e 9d 21 be 7c 9b 72 3d
       -0.009994817 31.655249 -0.15782663 0.059230313
000010 c9 dd f3 c1 fc e7 0c 41 44 e1 f1 bd 70 b5 f0 c1
       -30.483294 8.806637 -0.11810544 -30.088593
000020 f7 6d fd 41 12 c5 33 be 3f 5b 04 be 6a 9c 75 40
       31.678694 -0.17555645 -0.12925433 3.8376718
000030 81 03 2f be a1 26 b0 40 23 f2 94 41 bb 0a c0 40
       -0.1709118 5.5047154 18.61823 6.00131
000040 48 c8 b0 bd fd b2 8d 3d 7b 9a 42 41 f5 af 8d bd
       -0.086319506 0.06918905 12.162715 -0.06918327
000050 3a a8 00 42 48 fc 07 be 89 39 83 bd 7e a3 02 41
       32.164284 -0.13279831 -0.06407458 8.164915
000060 50 f3 e9 41 3c a6 4a 3d fc 06 db 40 87 0c b0 40
       29.243805 0.04947494 6.8446026 5.501529
000070 6c e5 aa 40 6d 88 b6 ba b4 77 33 3d 08 38 e8 41
       5.3405056 -0.0013926156 0.04381533 29.027359
000080 6c dc 1b 3c 8d c1 62 be ad d5 c0 bd 58 7f 94 3c
       0.009513002 -0.22144146 -0.094157554 0.018127128
000090 c2 16 02 42 57 9b e5 bd a2 20 ca c1 e0 5a 00 42
       32.522224 -0.11211269 -25.265934 32.088745
0000a0 1b 44 f3 41 3c 9a ee 41 01 b2 66 be 17 85 8a bd
       30.408255 29.82531 -0.2252884 -0.06763666
0000b0 88 39 6c 41 84 cb 01 c2 19 98 68 c1 d0 f5 f5 c1
       14.764046 -32.448746 -14.537133 -30.745026
0000c0 94 ba e5 40 73 72 00 42 fe eb 85 40 eb 06 f8 bd
       7.1790257 32.111767 4.1850576 -0.121106945
0000d0 de 56 6e be 87 fe e8 41 d4 f2 e9 c1 3f 8f eb be
       -0.23275325 29.12428 -29.243568 -0.46007726
0000e0 68 2b e9 40 7b 5a 54 be 3c 15 10 c0 5c 4f b0 bd
       7.2865486 -0.2073764 -2.251296 -0.086088866
0000f0 7e 21 96 41 5e cf e3 bd 08 4d 04 be 8c f1 ee 3f
       18.766354 -0.111235365 -0.1292001 1.8667464

head.weight f4 [4, 64]
000000 b6 4e a6 3d 12 a6 a3 3e 00 b7 89 3d dc d6 20 3d
       0.08120482 0.3196264 0.067243576 0.039267406
000010 3a 24 80 3e de 5b 5f 3f a8 ab e6 bc d8 df 94 bf
       0.2502764 0.87249553 -0.028158024 -1.1630812
000020 1f ab 33 3f 16 68 b1 bc da a1 3d bd 46 01 ac bd
       0.70182985 -0.021656077 -0.04629693 -0.083986804
000030 db 9e 06 bd f0 8b 16 3d 26 0b 2f bf c0 a7 94 be
       -0.03286634 0.03675455 -0.68376386 -0.29034233
000040 0b 88 a5 3d 7d 5b ce bc 47 85 14 3f 61 d3 cb bd
       0.08082589 -0.02519011 0.58015865 -0.09952427
000050 59 97 cd 3e 68 1b da 3d ee 08 7d bd 8c 75 9b 3e
       0.40154532 0.106497586 -0.061776094 0.3036312
000060 a2 7e ca 3e f9 d7 36 3d d2 3e 0e bf e8 be 26 3d
       0.39549738 0.04463956 -0.55564606 0.040709406
000070 89 ef 27 be fd b7 9e 3d fe 25 ec 3d 12 30 91 be
       -0.16399969 0.07749937 0.11530684 -0.28356987
000080 3c 6e 92 3d d9 93 93 bd 38 4f ed bc 48 8d 98 bb
       0.07149932 -0.07205934 -0.028968439 -0.004655514
000090 c5 03 d9 3e de bc a7 bd 7e 93 c6 3e f9 f7 7b 3e
       0.42385688 -0.081903204 0.38784403 0.24606313
0000a0 b4 47 af 3e b1 5e 7e 3f 6a 1d 1c 3e b0 99 8f bd
       0.34234393 0.9936324 0.15245596 -0.070117354
0000b0 e6 47 d6 3d c4 79 0e bf b9 35 86 3e cf aa fa 3d
       0.10462932 -0.5565455 0.26212862 0.122396104
0000c0 58 cf 49 3f 09 3f 64 3e ca 5a e8 bc 48 06 91 3c
       0.78832006 0.22289671 -0.028363604 0.01770319
0000d0 48 ce e6 bc a5 f1 9e 3e 89 38 34 3f a5 5b fd be
       -0.028174534 0.31043735 0.70398766 -0.49483982
0000e0 83 85 45 3e d6 0f 88 bd b5 e7 b5 bd 51 40 4f 3d
       0.19289212 -0.066436455 -0.08882085 0.050598446
0000f0 ad ad 46 be 14 a6 6f bd a5 30 be bd 0b 7f ba 3e
       -0.1940219 -0.058507994 -0.09286622 0.3642505
000100 ba 69 a4 bd 2d de 99 3e 93 e6 6c bd 94 35 b3 3d
       -0.08027978 0.3005232 -0.05783708 0.087504536
000110 ff 82 a1 3e 5a 7c c2 3e 74 72 74 bd 38 6d e8 3e
       0.31545255 0.37985498 -0.059679464 0.45395827
000120 98 1d d6 3e 40 e5 f8 bd d4 50 45 bd ce 94 48 3e
       0.41819453 -0.12153101 -0.048172787 0.19588014
000130 48 8b 82 3c 27 53 41 3e 84 dd 0b bf 59 ec a6 3c
       0.015935555 0.18879376 -0.5463488 0.020376371
000140 17 16 c5 bd bf 5b 91 bd f5 32 93 3e ac 14 9a bd
       -0.09623354 -0.07097577 0.28749815 -0.07523474
000150 9e 41 7d 3e 90 dd 0c 3d 33 17 89 bd a0 ad b3 be
       0.24732062 0.034390986 -0.06693878 -0.35093403
000160 01 74 51 3e 3e 92 cd bd 42 08 12 3d 31 e4 ca 3d
       0.20454408 -0.10037659 0.035652407 0.09906805
000170 fd 6a 10 bc 01 ab 29 bd 88 bd 66 3d e2 33 cf 3e
       -0.0088145705 -0.041422848 0.056333095 0.4046927
000180 3a 4e 4e bd 71 44 8b bc 16 38 f5 3d 51 3e d5 3a
       -0.05036757 -0.017000409 0.11973588 0.0016269182
000190 2c 29 6d 3e a8 5c e3 bc 11 c1 94 be 1a 52 c5 3e
       0.23160237 -0.027754143 -0.29053548 0.385392
0001a0 86 2f 8b 3d ed 5f 38 3f 34 3c 71 bd 22 53 f1 3d
       0.06796174 0.7202137 -0.058895305 0.117834345
0001b0 88 f4 08 bf b0 5a 54 be d1 fc e0 3e 5d 70 b8 3e
       -0.53498125 -0.2073772 0.43942884 0.36023226
0001c0 7b 3f fa 3e f6 a7 bb 3e dc 64 c2 bd b4 9f 17 3d
       0.48876557 0.36651582 -0.09491894 0.03701754
0001d0 07 29 c3 bd a8 4b d7 3d 82 70 80 3d 81 6c 22 be
       -0.0952931 0.10512477 0.06271459 -0.15861703
0001e0 be 8a 96 3e 80 f3 68 bd 9e fe ba be 51 d5 b0 bd
       0.29402727 -0.056872845 -0.36522382 -0.08634437
0001f0 a8 6b 4c bf b0 bc e7 bc d8 29 c0 bd 09 ad 9e 3e
       -0.7985177 -0.028288215 -0.09382981 0.3099139
000200 04 aa d6 bd 4f 40 c9 3e 51 0e d4 bd 4a 26 d6 3d
       -0.10481647 0.39306876 -0.10354293 0.10456522
000210 c0 32 69 be ea ad 07 3f fd 40 8b bd c7 fc 99 bd
       -0.22773266 0.52999747 -0.06799505 -0.075189166
000220 fc 67 fe 3e d7 29 4b 3c f8 9c 83 3d de e2 13 3e
       0.4968871 0.012400112 0.06426424 0.14442012
000230 3b dc 90 bd c8 cd 87 3d 5c 61 5d 3d 60 33 39 be
       -0.07073256 0.066310465 0.054047927 -0.18086004
000240 cc fc c3 3a fb 54 32 bd e1 b3 25 3e d6 97 ba bc
       0.0014952659 -0.043538075 0.161819 -0.02277748
000250 c1 23 db 3e 46 d7 eb 3c b0 5e 7e 3d 46 81 7a 3e
       0.42800716 0.028789174 0.06210202 0.24463376
000260 17 09 e6 3e 8a d5 12 bd b0 b0 9c be cc 24 27 3e
       0.4492881 -0.035848178 -0.30603552 0.1632263
000270 8b a1 02 3e 2f c3 1d be a6 ec d4 bd ae 3d f9 3f
       0.12756936 -0.15406488 -0.103966996 1.9471948
000280 79 18 20 bd 92 29 e1 3c 58 29 de bc d5 55 ca bc
       -0.03908584 0.027485643 -0.027119324 -0.024699131
000290 fd e6 db 3e 44 3b e9 bc fb 83 d7 3f 64 be 13 3f
       0.42949668 -0.028470643 1.6837152 0.5771239
0002a0 a8 59 40 3f be f7 2d 3f 4d 17 7e 3d 4b ef 9e bb
       0.75136805 0.6795615 0.06203394 -0.0048503033
0002b0 26 32 9b be 10 e6 da 3d 60 ef 01 3d 4b 3d eb 3e
       -0.30311698 0.10688412 0.031722426 0.459452
0002c0 1a 76 01 be 72 0d d4 3e 2e ea 0c be 12 7b ff bd
       -0.12642708 0.41416508 -0.13761207 -0.12474646
0002d0 0e 9e 75 bd 54 b0 00 3f 0b ec 0a 3f 36 8f 67 be
       -0.059965186 0.50269055 0.54266423 -0.22613224
0002e0 62 31 60 3e b1 ba 8a bc 57 62 76 bd 48 b3 a8 3d
       0.21893838 -0.016934725 -0.060152378 0.0823732
0002f0 42 5b af 3d 04 d1 9f 3d 78 7d dd 3d 24 45 2b 3f
       0.08562328 0.078035384 0.10814947 0.66902375
000300 92 61 fb bc 9d ca 1d 3f 74 8d 43 bd d2 ad b8 bd
       -0.030686174 0.6163729 -0.047742322 -0.090175286
000310 0b 40 0a bf e9 71 1a 3e de 28 5f 3d 4a d5 00 bf
       -0.5400397 0.15082516 0.054482333 -0.50325453
000320 a9 5b 19 3f f9 eb 22 bc 30 9b 68 3d 8c 1b 46 3f
       0.5990549 -0.009943956 0.056788623 0.77385783
000330 f9 8e 1e 3c db 15 94 3e 0c 2a 24 40 4e 4e 85 3e
       0.009677642 0.28922924 2.5650663 0.26036304
000340 04 f3 65 3d b5 0d 62 bd 74 e2 c4 3e b5 6c 12 bd
       0.05613996 -0.055188853 0.3845402 -0.035748202
000350 90 d7 1d 3f 4a 1a 25 bd ba 40 94 bc 47 d1 49 3f
       0.6165705 -0.040308274 -0.01809727 0.78834957
000360 71 b6 05 3f 98 9e af 3c 0f 46 37 3f 2a 82 ec 3e
       0.5223151 0.021437928 0.71591276 0.46193057
000370 c5 6f d3 3e f8 99 7a bd 77 74 c7 bc ed 7d c8 3f
       0.4129621 -0.061181992 -0.024347527 1.566343
000380 b7 11 32 3d af 7b bf bd ed 1e 6f 3c 65 91 4c 3d
       0.043473925 -0.09349763 0.014594776 0.049943347
000390 85 b6 1f 3f 01 36 5b bd 73 76 69 3e 18 81 1f 3f
       0.6238788 -0.0535183 0.22799091 0.62306356
0003a0 cf d4 68 3f be ca 4a 40 0f 20 53 bf 86 e5 27 3d
       0.9094972 3.1686244 -0.8247079 0.040990375
0003b0 34 3a f9 3f 4c de a2 be 1e c4 7c bf 62 18 84 be
       1.9470887 -0.31810224 -0.9873675 -0.25799853
0003c0 01 6d 04 3f c6 1e 25 3f 2d dd 59 3e 1f 73 d2 bc
       0.51728827 0.6450008 0.21275778 -0.02568966
0003d0 39 57 fc bd 24 40 0e 3f 1e af 74 be 22 70 24 be
       -0.12321324 0.5556662 -0.23894927 -0.160584
0003e0 da e7 12 bf f1 54 61 bf f0 f3 51 3d 51 94 76 bb
       -0.5738503 -0.88020235 0.051258028 -0.0037625025
0003f0 5f 3d 0a 40 70 5b d9 3c f6 45 85 bd c2 ee 8e be
       2.1599958 0.026532859 -0.065074846 -0.27916533

head.bias f4 [4]
000000 dd 44 aa 41 94 a1 1d 41 c4 74 96 41 b9 ce e6 41
       21.283625 9.851948 18.807014 28.850939
