src/model-HIV.pth (torch, 63832 bytes, 8 tensors)

fc1.weight f4 [100, 42]
00000000: af5f 763d c2a2 09be c59f 18bd e561 6bbd
00000010: de96 1c3d 3d06 51bd cbf3 24be b076 bfbd
00000020: 22d7 e4bd 1757 5cbe e5c9 8c3d 8b72 28bc
00000030: 3710 25be e369 96bd 3f79 45bd 99a9 f3bd
00000040: 2c23 eebd 450a 0f3d e9b7 0dbe b3a9 eebc
00000050: f8dd 29be 6933 59bd 501e 62bd 9e21 d7bd
00000060: 0e25 ed3a 9d3e 37be f05a 21be 0129 85bd
00000070: a286 7abc c5e1 a2bd a21b c3bd f886 24be
00000080: 868f 07be bdf2 5fbd 544a cbbb ffba eebd
00000090: 2d22 49be 2acc 76bd 2d74 ecbc ddc7 46be
000000a0: bf91 a63d 692f cdbd d160 a53d 733d 2dbe
000000b0: 340b 893e 4359 4ebe 348a 5ebe dd89 023e
000000c0: 730f 2cbc cd53 27be 9bad fb3d b4d8 ecbe
000000d0: e287 48be 9f11 983c a788 20be 0d57 18be
000000e0: fd9b a6be 76f8 6abe 46c5 40bd 9db3 b5be
000000f0: 8f58 3b3e b2ef 8cbe a04e 3b3e 45f7 1fbe
00000100: ed43 b3be aff8 183e c46b dabe 34f2 67be
00000110: 127a 4abe d52c d1be be80 9abe c7f1 8bbe
00000120: 741f 65be 1941 d3bb 5b75 74be 8704 8cbe
00000130: 304e 81be 668d 8dbe b721 69be 8aeb 7dbe
00000140: 67b6 883d 0da2 56be f261 12be 28a1 debd
00000150: b56d 96be 1f64 62be d332 72be 9ec2 00bf
00000160: b42b bdbe 9124 8cbd f2df 97be 3577 87be
00000170: 46a6 91be 80ff 9ebe 5b9e 27be 6e82 6dbe
00000180: bfd3 4cbe 966c 9dbe 63e0 b8be 4871 acbe
00000190: 70de 08be 4a39 003e ff04 ddbe 64c6 b5be
000001a0: 012e b3be 6ad4 d6be 3b5e 09bf 5af2 94be
000001b0: ad7c ebbe f908 babe 8078 5ebe 2fbc f1be
000001c0: 2afa 11be fae2 1fbe 5c39 83be 2120 9ebd
000001d0: ecc4 c4be 38c0 10be 26c0 98bd fb75 903d
000001e0: 6817 cebd bbdc 5b3e 0eab c8bd da9b 47bd
000001f0: ea84 7b3e 37dd e73e d60c 39bf 4b2d 26bf
00000200: ced4 88bf 38a7 57bf a4b0 05bf c94a 1cbf
00000210: d72f f4be 81cd 0cbf a3e5 4bbf 1bcd 2ebf
00000220: 468f e2be b745 07bf 4f2c f4be 5a05 04bf
00000230: e934 43bf c5e7 f9be 74c5 8fbe c6b3 8cbe
00000240: 5722 1ebf 0440 60bf 6810 78bf ae68 83bf
00000250: 4bc4 3ebf d74f 89bf 8a89 48bf 469f 35bf
00000260: 11ce 83bf 8ec2 72bf 2e6e fabe c7c4 11bf
00000270: abca e9be b6f3 b8be 63be 41bf 6696 18bf
00000280: 54b6 4abe 2666 71be a813 31bf 3375 a7be
00000290: 4fe5 73bf 13d8 13bf c1e8 92be f17b a6be
000002a0: 146e 9642 b1d4 0042 1a99 9342 0d21 5d42
000002b0: 220e 0142 f1fa 7942 d88d 8b3e 6842 18c0
000002c0: 39c6 c541 db61 e1c1 b45c b1bf 1a30 e940
000002d0: 6677 16c0 9b1e 2440 de20 e3c1 7f6c 6b41
000002e0: 64dc 1d40 6f2e 2241 f9b4 c541 f800 e2c1
000002f0: 7540 a041 1cbb 2bc2 44d7 e0c1 224f fd41
00000300: 5126 e2c1 6b91 6a41 0e8e 2bc2 be58 8c3f
00000310: 0455 7441 7958 b340 5d2e b3bf 30f6 1b40
00000320: 4fd9 e1c1 168f 7441 2a81 3140 580d 2441
00000330: c277 ec40 ba59 2141 21c1 fc41 a785 b640
00000340: 34fc 2141 4644 8b41 297a c0be a3ea ecbe
00000350: 18bd 26be e86b d0be b75c b3be ed09 60be
00000360: bdd8 e5be a6e2 96be c580 ddbe 702b 3dbe
00000370: c667 c6be 0b39 d8be 6897 9abe ccc9 c2be
00000380: 9f0d 5abe a795 d7be 4612 69be f48a 5bbe
00000390: 1130 eabe 509d c6be 91ac adbe 3153 acbe
000003a0: c25a d9be d1cb 94be ca5d c9be b9fd 44be
000003b0: b75d adbe 9607 b6be 7cc3 2abe b342 44be
000003c0: 48e5 bebe 9135 8bbe 20fb bdbe c070 9abe
000003d0: 7bab a2be 484f 9bbe 4499 4fbe 9668 89be
000003e0: 8cbd 58be 9412 9bbe 680a 92be b458 56be
000003f0: 9e13 73be ae33 4bbb 35ef 1fbe 21b3 7cbe
0.060149845 -0.13440993 -0.037261743 -0.057466406 0.038229816 -0.05103134 -0.16108625 -0.0934881
-0.11173846 -0.21517597 0.06874446 -0.010281215 -0.16119467 -0.07344415 -0.048211332 -0.118975826
-0.11627802 0.034921903 -0.13839687 -0.029133653 -0.1658858 -0.053027544 -0.05520469 -0.10504459
0.0018092708 -0.17894979 -0.15757346 -0.065019615 -0.015290888 -0.07953218 -0.09526755 -0.16067111
-0.13238344 -0.054674853 -0.006203929 -0.116567604 -0.19641943 -0.0602533 -0.02886399 -0.1941218
0.081332676 -0.100188084 0.08075107 -0.16917972 0.2676636 -0.20151238 -0.21732408 0.12747903
-0.01050173 -0.16340561 0.12288972 -0.4625908 -0.19583085 0.01856309 -0.15677129 -0.14876957
-0.32540885 -0.22946343 -0.047063135 -0.35488597 0.18295501 -0.27526623 0.18291712 -0.1562167
-0.3501276 0.14938615 -0.42660344 -0.22650987 -0.19773129 -0.40854517 -0.30176347 -0.273329
-0.2237528 -0.006446969 -0.23872893 -0.27347204 -0.25254965 -0.2764694 -0.22766767 -0.24796882
0.066754155 -0.20960255 -0.14295176 -0.10870582 -0.29380575 -0.22108506 -0.236522 -0.5029696
-0.36947405 -0.06842912 -0.29663044 -0.26458135 -0.2844717 -0.31054306 -0.16369002 -0.23194286
-0.2000265 -0.30746907 -0.36108693 -0.33680177 -0.13366103 0.12521854 -0.43167874 -0.35502923
-0.34996036 -0.41958934 -0.5365941 -0.2909115 -0.45993558 -0.3633497 -0.21725655 -0.47213885
-0.14255586 -0.15613928 -0.256297 -0.07720972 -0.3843149 -0.14135826 -0.074585244 0.07053753
-0.10063058 0.2147092 -0.09798251 -0.048732616 0.24562421 0.4528596 -0.7228521 -0.6491286
-1.0689943 -0.8423953 -0.5222266 -0.61051613 -0.4769275 -0.55001074 -0.7964727 -0.68281716
-0.44249934 -0.5284075 -0.47690055 -0.51570666 -0.7625261 -0.4880964 -0.28080332 -0.27480906
-0.6177115 -0.8759768 -0.96900034 -1.0266321 -0.7451827 -1.072749 -0.7833487 -0.70946157
-1.0297261 -0.94828117 -0.48912185 -0.56940883 -0.45662436 -0.36123437 -0.7568113 -0.5960449
-0.19796115 -0.23574123 -0.6917062 -0.32706603 -0.9527177 -0.5775158 -0.28693202 -0.32516435
75.215 32.207706 73.79903 55.282276 32.2638 62.49506 0.27256656 -2.379053
24.721788 -28.172781 -1.3856416 7.287122 -2.3510375 2.564368 -28.391048 14.713988
2.4665766 10.136336 24.713366 -28.250473 20.031473 -42.932724 -28.10511 31.66364
-28.26871 14.660502 -42.888725 1.0964582 15.270756 5.60455 -1.3998524 2.436901
-28.231108 15.284933 2.7735085 10.253258 7.389619 10.084406 31.594301 5.703815
10.124073 17.408337 -0.375932 -0.46272764 -0.16283071 -0.40707326 -0.35031673 -0.21878786
-0.4489192 -0.29469794 -0.43262306 -0.18473601 -0.38751048 -0.4223102 -0.3019364 -0.38044584
-0.21294259 -0.42106363 -0.22760877 -0.21439725 -0.45739797 -0.38791895 -0.3392072 -0.3365722
-0.42452055 -0.2906175 -0.39329368 -0.19237413 -0.3386056 -0.35552663 -0.16676134 -0.19166069
-0.37284303 -0.27189305 -0.37105656 -0.30164146 -0.31771454 -0.30333924 -0.2027331 -0.26837605
-0.21166056 -0.3028761 -0.28523564 -0.20932275 -0.23737952 -0.0031006145 -0.15618594 -0.24677707

fc1.bias f4 [100]
00000000: 70b4 3abe 823d 563e c979 d3be 919b 50bf
00000010: 0f6e 1e43 a22e 7fbe b962 70be e916 bebd
00000020: 3c54 0abe 0572 1b43 071c 09bd 324a 9f3f
00000030: 4e0f 3d3e 163b d93d 22be 0abe 2c32 62bd
00000040: 693a 85be 5b0c a040 9193 5c3d 42e5 653f
00000050: 2c39 61be 0860 2143 1189 fd3e b63c 2943
00000060: 71f2 1d43 6ea3 953f d259 97bd 4d7e 20be
00000070: 9339 1d43 dedd 773e c1ba 2143 04f5 853d
00000080: 0094 96ba 4a8b e8be 11f5 9dbd 4651 58bd
00000090: 66c5 0e3e c0ee 24be c074 1f43 f553 70be
000000a0: ac2c c1be fd70 743f 38b1 1543 40e7 aeba
000000b0: a194 a43c 3f42 713e 3561 0d43 faa0 04bf
000000c0: 1790 21be da78 0bbe 9b8d 0bbe fca1 93bd
000000d0: 4bdf 883d b268 40bf 0c3e 1743 f046 1bbc
000000e0: 8b89 1c43 c8e1 dfbe e865 bd3d 09bb 6dbe
000000f0: 5a37 38be 8de3 2343 b6e1 1943 5656 2143
00000100: 2893 77bd 21c3 1c43 b1c7 873c 8b85 10be
00000110: bb45 7e3f 4c9c 2043 e662 803f 3900 763d
00000120: 2bd4 97be 7cfd f9bd ba8f a3bc 0dfa 32be
00000130: 609d 283d 1ce0 2343 96ff 2a3f fbad 5abd
00000140: 555c 08be 1cf1 093d 2e24 33be e5d8 0a3e
00000150: 82a9 953e a39f 043e 36cd 1d43 3a15 c43d
00000160: 9df3 1a43 b4ea 2043 bc60 1c43 954c e2be
00000170: 095e 1a43 9ef6 52bd 0a92 c5bd e020 743e
00000180: 2082 243f f2e2 d1be 0400 2243 2490 ecbe
-0.18232894 0.20921901 -0.41303852 -0.81487375 158.42992 -0.24920133 -0.2347516 -0.092817135
-0.13508695 155.44539 -0.033473995 1.2444518 0.1846287 0.10606973 -0.13549092 -0.05522363
-0.26021126 5.001508 0.053851668 0.89802945 -0.21994466 161.37512 0.49518636 169.23715
157.94704 1.16905 -0.07390179 -0.1567318 157.2249 0.2420573 161.7295 0.06540874
-0.0011488199 -0.4541877 -0.07712758 -0.052811883 0.13942489 -0.16106701 159.45605 -0.23469527
-0.37729394 0.95484906 149.69226 -0.0013344064 0.020090403 0.23560427 141.37971 -0.5180813
-0.15777622 -0.1362032 -0.13628237 -0.072086304 0.06683215 -0.7515975 151.24237 -0.009477362
156.53728 -0.43726945 0.09247953 -0.2321588 -0.17989865 163.88887 153.88168 161.33725
-0.060443074 156.76222 0.016574712 -0.14113443 0.9932515 160.61053 1.0030181 0.060058806
-0.2965406 -0.122065514 -0.019965995 -0.174782 0.04116571 163.87543 0.66796243 -0.053388577
-0.13316472 0.033677205 -0.1749427 0.13559301 0.29230887 0.12951522 157.8016 0.09574361
154.95161 160.91681 156.37787 -0.44199052 154.36732 -0.051504724 -0.09646995 0.23840666
0.64261055 -0.40993458 162.00006 -0.4620372

fc2.weight f4 [64, 100]
00000000: e979 893d 481b 1bbe e800 f7bc 8cc8 f5bc
00000010: dca4 01be a0a9 1e3b 5743 133d 4ddd 6ebd
00000020: 1130 b03d 9835 8abd 618c 9a3d bd36 01bb
00000030: be9b 81bc 21eb c53d 4cf4 e5bc b1bd a03d
00000040: 377c e1bd f121 883d e252 c9bd c6a9 dabb
00000050: 4021 04bc bc44 ffbd d65f 093d b313 9cbe
00000060: 1da7 98bc 9430 f8bd 7742 beba 1f71 b33d
00000070: 7653 b7bd f8e8 9bbc f0c9 f2bd 408e 563c
00000080: 6c2c aa3c 000a 1f39 444b de3c fdb9 3abd
00000090: 137a 51bc 49c6 923c c06c 87be 60f7 9e3c
000000a0: 406f 0cbb acf1 65bd bde0 0dbf 37f6 ba3d
000000b0: 5ce3 88bd 37cf cbbd 1b26 64be a5a0 95bd
000000c0: d6eb 453c 39c9 9a3d 0a0d 493d d435 e9bc
000000d0: 117c aebd 7dc2 9fbe 73f2 2bbe 239a 9abd
000000e0: 7814 81be f83e 963c 1b7d 8e3d a016 6fbb
000000f0: 589a 2ebc 4e64 82be ed42 3dbd 22db d2be
00000100: 29b5 e43c 3c3a dfbe 7074 a6bd b651 653d
00000110: 7a29 82bd 20c6 93be 59e2 e0bd ea83 1fbd
00000120: 0dde 27bd d29f 093d 2c6d 22be a262 91bd
00000130: 184d b3bd 6e3e eebe 99a1 2fbc 3a7f 67bd
00000140: 32f2 edbd 006a 68bb 269e efbd 9d5b a93d
00000150: 5404 22be 3ca1 89bd 89f5 13bf 1636 8abd
00000160: d07b 32bc bbca d4bd 00ef c7bd 5aad 65be
00000170: 33cb 89be a79f 58bd 60d1 4dbb 0228 55bc
00000180: c316 dc3b 716d 81bc 3466 bfbe 837d 4fbe
00000190: bae3 5a3d 7d84 a1bd 511a 1d3e afda e23e
000001a0: 12b3 9bc0 a0bd b8bd 47bf 00be 7184 963d
000001b0: 9292 013e ed97 8cc0 fe5c c23d 09dc f9bd
000001c0: 15fa 74bd d057 803b 2b5b c83d d358 5abd
000001d0: 1589 253d 55a5 c3c0 fed6 7e3d 13fe ec3c
000001e0: f92c c53d a378 acbf d3c5 92bd 7c63 9dbf
000001f0: 6cd0 63c0 4a35 95be dc30 10bd 5fd2 033d
00000200: ecfa 49c0 6117 8c3d ddf1 f4bf 5053 48bd
00000210: 295b b73d 586c 573c aa27 71be cbdf 883d
00000220: 12dd 743c a4e2 80bd 8306 aebf 517f 8a3d
00000230: 6fd5 2bbd b552 7fbd 1460 bcc0 50d1 433c
00000240: f3c2 cf3c eb7d eb3c 8be8 5740 0251 0f3d
00000250: 8357 34bd cf9e 803d 30bd 79bd a560 ccbd
00000260: 0bac f0bc c67f 5b3d 1278 a8bf 0023 9abc
00000270: 25d3 07c0 2e07 1b3d 2c21 a8bc 38c9 5c3d
00000280: 1747 503b ca97 193e 24b7 b0bd 305d 25c0
00000290: 5ce5 08be b52c 7bc0 f9d4 dfbd d151 893d
000002a0: bc44 32be 77fb 223d 4703 143e f024 103e
000002b0: 207c c83c 549d 373d 86e3 fbbd 9b0f 863e
000002c0: c01f af3c 4e4b 15c0 deec e0bd 678d 9dbc
000002d0: 011f 183e ecf8 efbc 41d0 0ebc 0383 7fbd
000002e0: b412 b03d b886 9e3c 4e68 cf3f 5cf1 cc3c
000002f0: 6e1e 0d3e fcfd 0ec0 1d59 8fc0 b67d cabc
00000300: 2c1e a8c0 3d43 ae3d 08f4 cebc c304 dabc
00000310: ce79 c3bd 37cf 463d 71cb 11c0 2e1a 3e3d
00000320: 4432 d1bd 77d2 563c 3f73 813c 8dbc a53d
00000330: fab7 a6bc 5284 7e3d 73e3 443d 0044 d0bb
00000340: 3fdc 803d e6c6 aebd 81a4 323d ed7d 27be
00000350: e279 643d ec8e 86bc bb01 97bd db99 b9bd
00000360: 3d88 133d c4ae 02bd 47b4 7d3d 72c1 17be
00000370: 22a7 313d 100f 9fbd cae1 1b3d 53c9 1abe
00000380: 1657 c8bd ac8e 8fbe 9825 cbbd c709 853d
00000390: fcf7 dabd 25d3 97bd 4edc b1bd d022 86bd
000003a0: 3413 eabc 50c4 703c aa95 bbbd 4c4f 0cbd
000003b0: 7659 ecbc 1756 00bd 8465 3fbe 48c1 1e3d
000003c0: edb5 44bc 81a6 74bd 3adc 22be b31f 943d
000003d0: b0a9 fc3d f035 003d bdd3 01bd 8790 78be
000003e0: 361a 4cbd 9773 7dbd 7446 0f3d 8983 b33d
000003f0: 775f 343d d1da 9fbd b5b4 67bd 1aae 18bd
0.06712706 -0.15147126 -0.0301518 -0.030002855 -0.12660545 0.002420999 0.035952892 -0.058316518
0.08602918 -0.067485034 0.075463064 -0.0019716464 -0.015821334 0.09663988 -0.028070591 0.07848681
-0.1101002 0.06647099 -0.09830262 -0.0066730706 -0.008064568 -0.12464282 0.033538662 -0.3048378
-0.018634373 -0.121186405 -0.0014515658 0.087618105 -0.08951466 -0.019031987 -0.11854923 0.0130954385
0.020773135 0.00015167147 0.027135499 -0.04558753 -0.012785452 0.017916815 -0.26450157 0.019405067
-0.0021428615 -0.05613868 -0.5542105 0.09128993 -0.0668399 -0.099516325 -0.22280161 -0.07306031
0.012080153 0.075579114 0.0490847 -0.02846805 -0.085197575 -0.3120307 -0.16791706 -0.075489305
-0.2521093 0.018340573 0.06957456 -0.0036481991 -0.010656916 -0.2546715 -0.046206404 -0.4118281
0.027918415 -0.43599117 -0.081276774 0.05598613 -0.06355567 -0.28862095 -0.109806724 -0.038944162
-0.04098325 0.033599682 -0.15861958 -0.07098891 -0.08754939 -0.46532005 -0.01071968 -0.056517817
-0.11618461 -0.0035463572 -0.11700086 0.08269427 -0.15821964 -0.06720206 -0.5779653 -0.06748597
-0.010893777 -0.1039023 -0.097623825 -0.2242941 -0.2691284 -0.05288663 -0.0031405315 -0.013010027
0.0067165806 -0.015799256 -0.37382662 -0.20262723 0.053439833 -0.07886598 0.1534207 0.44307467
-4.865609 -0.09020543 -0.12572967 0.0734948 0.12653568 -4.3935456 0.09490393 -0.122001715
-0.05980881 0.003916718 0.09783014 -0.053307366 0.040413935 -6.113932 0.06221675 0.028929746
0.096277185 -1.3474315 -0.07166638 -1.2295985 -3.559596 -0.2914222 -0.035202846 0.032183047
-3.15594 0.06840397 -1.9136311 -0.048907578 0.08952934 0.01314839 -0.23550287 0.0668331
0.014945285 -0.06293228 -1.3595737 0.06762565 -0.041951593 -0.062334735 -5.8867283 0.011951759
0.025361514 0.028746566 3.3735683 0.034989364 -0.04402877 0.0628029 -0.06097144 -0.09979371
-0.029378911 0.05358865 -1.3161643 -0.018815517 -2.1222622 0.037848644 -0.02052363 0.053902835
0.0031780654 0.14999309 -0.08628681 -2.5838127 -0.13368744 -3.9246037 -0.10929293 0.06705058
-0.17409033 0.039790597 0.14454375 0.1407659 0.02447325 0.044827774 -0.12299256 0.2618378
0.021377444 -2.3327212 -0.10982679 -0.019232465 0.14855577 -0.0292935 -0.008716644 -0.062380802
0.08597317 0.019351348 1.6203706 0.025017433 0.13781139 -2.234252 -4.479628 -0.024718147
-5.253683 0.085089184 -0.025262848 -0.026613599 -0.09544717 0.04853746 -2.278042 0.046411686
-0.102146655 0.013111702 0.015802024 0.08092604 -0.020351399 0.06213791 0.048068475 -0.0063557625
0.062920086 -0.085340306 0.043613914 -0.1635663 0.0557803 -0.016425572 -0.07373377 -0.09062549
0.0360186 -0.03190495 0.061939504 -0.14819887 0.04337228 -0.07766545 0.038057126 -0.15115862
-0.09782235 -0.28038538 -0.0991928 0.064960055 -0.106918305 -0.074133195 -0.08684598 -0.06549609
-0.02857361 0.014695242 -0.091594055 -0.03425531 -0.028851252 -0.0313321 -0.18691069 0.038758546
-0.012006265 -0.059729103 -0.15904322 0.07232609 0.12337053 0.03130144 -0.03169607 -0.24273883
-0.049829684 -0.061877813 0.0349793 0.08765323 0.044036355 -0.07805408 -0.05656882 -0.03727541

fc2.bias f4 [64]
00000000: f585 7dbe ed5e be42 466f 72be 1e87 08bf
00000010: 9cb1 81be bd5c 2c43 1b9f 28be f8f5 aa40
00000020: 5b81 4abf 5928 e1bf 4b93 cbbe 5f7a 6ebf
00000030: 6830 0143 3122 9cbe a5d2 edbe 2f76 2c43
00000040: 0a53 853f 7122 ffbe bcf7 80bf a359 6cbf
00000050: 3504 4cbe a91e 6141 b07a 54bf 09c9 0abd
00000060: c966 a440 a914 38bc 12ef 82bf 6ef2 00bf
00000070: 9772 14be 2114 9540 e244 7bbd 04c7 a840
00000080: fa2d 3040 1240 3dbf 0477 983f a57c 1243
00000090: 9a7e 5abe 9cbf 43bf a5a5 0b41 25c8 1241
000000a0: b1dc 02bf be97 0740 829b 45be f379 18bf
000000b0: 7db6 d9be 50f1 0643 d95c dd40 c3a7 5bbe
000000c0: c3e5 f740 a9c8 e440 f80e 2b43 7628 81bf
000000d0: faf6 d0be 66c2 5e40 ba82 23bf 8f3a 1abf
000000e0: ce2e 1fbf 6b78 a8bf 5547 1cbe 448b 09bf
000000f0: 08f4 0d43 a4cb 9abf 3f42 83be ff27 bd40
-0.24758132 95.1854 -0.2367526 -0.5333117 -0.25330818 172.36226 -0.16466944 5.3425255
-0.7910363 -1.7590438 -0.39760813 -0.93155473 129.18909 -0.30494836 -0.46449772 172.46165
1.0415967 -0.49830964 -1.0075603 -0.92324275 -0.1992348 14.069985 -0.82999706 -0.03388313
5.137547 -0.0112353945 -1.0229208 -0.5036992 -0.14496838 4.658707 -0.06134499 5.274294
2.7528062 -0.7392589 1.1911321 146.4869 -0.21337357 -0.7646425 8.727941 9.173863
-0.51118 2.1186366 -0.19297603 -0.5956108 -0.4252204 134.94263 6.917584 -0.21450715
7.746797 7.1494946 171.05847 -1.0090473 -0.40813428 3.4806151 -0.6387135 -0.60245603
-0.62180793 -1.3161749 -0.15261586 -0.5372813 141.95325 -1.2093396 -0.2563648 5.9111323

fc3.weight f4 [64, 64]
00000000: a032 acbf 770d a340 ccaf a440 3788 40bf
00000010: 29c3 35bf 6ceb 2e40 7950 3dbf 99cd 0541
00000020: 0dbb edbf ccb1 2dc0 db39 24c0 d954 18c0
00000030: 185d ec3f b573 13c0 fde2 3d40 8f91 0040
00000040: 708b 0e41 29c3 be40 319e b940 2681 ddbf
00000050: 224a 6cbf 902e 9440 192a 1cc0 718b 3a40
00000060: 67c3 61bf f3ca 6740 b07e 9740 bf6f 17c0
00000070: 708f e0bf fffc 7fbf c4ba d1bf 15fd 0f3e
00000080: b244 2c3f 84a1 21c0 edcf 0e41 1d5c ed3f
00000090: 4665 d9be 7dd6 8040 4912 66be 843a e240
000000a0: ba9e eebf f60b de40 ffa4 bebf 4275 37c0
000000b0: 3ba6 10c0 540b d840 eb97 9a40 bc3c 06c0
000000c0: e1c5 6cbf de20 44c0 2ca6 a6c0 3919 2dc0
000000d0: d7e1 10c0 fc15 5d40 0785 adbf 1367 b140
000000e0: ae2f 27bf 4c57 a83f 9d7a c240 d713 5641
000000f0: 0235 f63f d191 9abf 3bff 12c0 eca0 a340
00000100: 1da9 a33b 6d8b acbd 022e fa3c 1e72 0dbd
00000110: 627b 2d3e 312d e0bd b559 f8bb b531 09be
00000120: f520 10be 396d 1ebe b188 82bd 88a1 93bc
00000130: a3a7 ecbd bd48 d6bc a16a 893d 9918 e3bd
00000140: d5dc 90be 1958 b3bd 45dd a3bd 86c6 91bd
00000150: 2c98 a23c 445c 593e b805 c6bd f80b 5dbd
00000160: a560 b63d 55f9 9cbc 0ae9 833d a79f 94bd
00000170: 9271 5d3c cb77 543e 4fee 4dbd cd67 4e3e
00000180: c6ab e33d ea97 81bc 1c44 66bd b6d8 56be
00000190: 0b1f a5bd 9472 aabd 7ebf 383e 5eb5 263e
000001a0: 8b84 8abc 21cf 8ebe c4ad 413d b36b eb3c
000001b0: 1264 d4bc 8a45 513e 52ed 7cbe 85f7 b93d
000001c0: 554e cabc 3138 983d 0926 d0bd f3f7 a3bd
000001d0: efa4 b0bd 4907 a43d 3872 aebc 86b5 0abe
000001e0: 2e9b 56be c134 e9bc 384d 0cbe b868 16bd
000001f0: 7034 8c3e 71ea 0dbe 77a0 30be 75c4 5abd
00000200: 0a71 0c40 8ae6 1240 7271 5b41 708b 23bf
00000210: 3e82 3940 0146 a9c0 ed44 c7bf ceb4 5a41
00000220: a65f fb3f 7a9d 4b3f 82e6 eb3f 77ac 9dbf
00000230: c367 efbf 754e f63f f77f 9e40 85ab dabf
00000240: f6be 4041 3d49 1741 be7f 3f41 b8a1 f63f
00000250: d361 a63f 40e1 37be 65db 293e b3a3 eb40
00000260: a2e7 3940 fb71 9340 7a78 3e41 47e3 3ec0
00000270: 5828 1b40 6019 16bf 15c7 f13f b4b9 8d3f
00000280: 3c22 0741 688b b53f 5771 6141 46d0 79c0
00000290: 16f4 3ebd dbc7 0141 e319 c1be fdbb ea40
000002a0: a1ec 5c40 e6c3 d340 3e13 5840 f3a9 643f
000002b0: 1670 e53f 8b44 cc3e 7042 ef40 86cc 9ebf
000002c0: bd50 1440 3db4 5940 fe04 92c0 47fa 803f
000002d0: dc02 cf3f 5822 e040 c2bb 2240 1bb5 dc40
000002e0: eb37 b1bf fe20 0c40 718e 9540 793f 9641
000002f0: b711 e3c0 fc20 4340 d396 1f40 3c27 ce3f
00000300: 372c 2abe ebf8 9abd 42b0 13be 0bab 65bd
00000310: bb71 9dbe ead9 46bd 35a2 0a3b 561f efbd
00000320: 354b 8bbe 8ffd f9be 40fd 133e 20ad b7bd
00000330: 89ca 7cbd 3092 d3be 24c4 333d d79a efbe
00000340: 0cb1 b0bc d2c6 a63d 867e d9bc cd1e 133e
00000350: 852a 92be ca59 2a3b 1116 563d 2b22 1fbe
00000360: 58a6 03bf 919f 85bd 3ae3 943e fcf0 f1bd
00000370: 4a4c eebd 0804 cabd 2351 cbbe ad8c 90be
00000380: 4027 343e f0e9 94be ebf1 703f 5785 68be
00000390: b2f8 61bd 3e2c d5bd cfe2 ac3e 659a 58be
000003a0: efc9 9abe 8bbb b7bd ea31 2ebe 1ec9 12bf
000003b0: c07c 9dbd 1ecb 0bbf 6767 85bc 1158 25be
000003c0: d3b4 b3be 6596 aabe 134e 1abd 613d f03e
000003d0: da25 f3be e506 f9bc c000 05bf 6031 8ebc
000003e0: 412d 033d 3b90 05be d4cd 843d 16ad 42be
000003f0: 8d5e d5be eb7d 02bc 6d12 04bf 85c1 fbbd
-1.345295 5.0953937 5.1464596 -0.7520785 -0.71000916 2.733119 -0.73950917 8.362695
-1.8572708 -2.7139769 -2.5660312 -2.3801787 1.846591 -2.3039372 2.9669793 2.0088842
8.909042 5.9613233 5.8005605 -1.7305038 -0.9230062 4.630684 -2.4400694 2.9147608
-0.88188785 3.621762 4.734215 -2.3661954 -1.7543774 -0.99995416 -1.6385121 0.14061387
0.6729232 -2.5254831 8.925763 1.8543736 -0.42460078 4.0261827 -0.22467913 7.069643
-1.864219 6.93896 -1.4894103 -2.8665318 -2.260146 6.751383 4.8310447 -2.097457
-0.9248944 -3.064506 -5.2077847 -2.7046645 -2.2637842 3.4544668 -1.3556222 5.5438323
-0.6530713 1.3151641 6.0774674 13.379844 1.9234927 -1.207575 -2.296828 5.113394
0.004994525 -0.08425031 0.030539516 -0.03453266 0.16941598 -0.109461196 -0.0075790533 -0.13397868
-0.14075072 -0.15471353 -0.06373728 -0.01802136 -0.11555412 -0.026157731 0.06709791 -0.11088676
-0.2829348 -0.08757038 -0.08001188 -0.071179435 0.019847952 0.21226603 -0.096690595 -0.053966492
0.08905152 -0.01916186 0.06440933 -0.07257014 0.013515847 0.20748822 -0.050276097 0.20156784
0.111167476 -0.015819509 -0.056217298 -0.20981106 -0.080625616 -0.08322635 0.18041798 0.16280124
-0.016908905 -0.27892402 0.047284856 0.028737878 -0.025926623 0.20436683 -0.24699906 0.09080414
-0.024695555 0.07432593 -0.10163505 -0.08006277 -0.086252086 0.08009202 -0.021294698 -0.13545808
-0.20957634 -0.028467538 -0.13701332 -0.03672096 0.27383757 -0.13858964 -0.17248712 -0.053410012
2.1943994 2.295321 13.715197 -0.6388464 2.8985744 -5.2897954 -1.556791 13.669142
1.9638565 0.79537165 1.842972 -1.2318257 -1.870354 1.9242693 4.9531207 -1.7083594
12.046621 9.45538 11.968687 1.9268103 1.2998604 -0.1795702 0.16587599 7.363733
2.9047627 4.6076636 11.904413 -2.982622 2.4243374 -0.5863247 1.888888 1.1072297
8.445858 1.4183168 14.090171 -3.903337 -0.046619497 8.111293 -0.37715062 7.335448
3.4519427 6.6176634 3.3761744 0.8932182 1.7924831 0.39896044 7.47686 -1.2406166
2.3174279 3.4016259 -4.5631094 1.0076379 1.6172748 7.0041924 2.5427098 6.8971076
-1.384519 2.1895137 4.673638 18.780993 -7.0959125 3.0488882 2.4935806 1.6105723
-0.16618429 -0.075670086 -0.14422706 -0.056071322 -0.30750832 -0.048547663 0.0021153812 -0.11675899
-0.27205816 -0.48826262 0.14452076 -0.08968568 -0.06171659 -0.4132247 0.043888226 -0.4679782
-0.021568798 0.08143391 -0.026549589 0.14367218 -0.28548065 0.002599346 0.052267138 -0.15540378
-0.51425695 -0.065245755 0.2907961 -0.11813542 -0.11635645 -0.0986405 -0.3971034 -0.28232327
0.17593098 -0.2908473 0.9411914 -0.22707115 -0.055168815 -0.10408829 0.3376679 -0.21152647
-0.30232188 -0.08971318 -0.17011228 -0.5733813 -0.0768981 -0.5460681 -0.016284658 -0.16146876
-0.35098895 -0.33317867 -0.037672114 0.46921828 -0.47489816 -0.030398795 -0.5195427 -0.017357528
0.03202558 -0.13043301 0.06484571 -0.1901134 -0.416737 -0.0079645915 -0.51590616 -0.1229277

fc3.bias f4 [64]
00000000: fccb 5143 35a0 5c42 92e0 ec42 a511 b0bd
00000010: 9260 2b43 7b1a a4bd a225 d1bd ab92 e242
00000020: 1ae8 5943 3643 4742 15ff 2d43 1093 14bf
00000030: 1bc0 8abf ae52 cf41 3523 6342 aab8 9fbe
00000040: 8ec2 0243 d3fe e142 fca6 e142 b50a 5e41
00000050: d9a4 4b43 cce3 8ebd 9f76 70bd d61d d542
00000060: 68c0 8841 28d5 f442 57c8 da42 1f56 41bf
00000070: f315 b942 3b92 a1bf 383f 7743 08f2 8e42
00000080: d4ef e042 5763 4343 550a cc42 1666 63be
00000090: 8616 2fbe 012f 0143 8423 9440 8f5f 5642
000000a0: ec9e 9441 044b ed42 9e0f 4043 43bd ce41
000000b0: 605a 4142 732f 5443 8e5b fe42 0409 a1be
000000c0: 189f 1542 aed4 2e43 5bd1 94be f392 f441
000000d0: 1541 7243 e77f 2043 b9c0 d841 d79b c642
000000e0: f48c e2bd 64ac 2a43 70dd 0243 8ce5 5542
000000f0: d4d0 8842 560d 4943 8333 6c43 090e 6742
209.79681 55.156452 118.438614 -0.085971154 171.37723 -0.08012863 -0.10212256 113.28646
217.90665 49.815636 173.99641 -0.580369 -1.0839876 25.91537 56.78438 -0.31195575
130.75998 112.9977 112.82614 13.877614 203.64394 -0.069770426 -0.058706876 106.55827
17.093948 122.41632 109.39129 -0.75522035 92.54287 -1.2622751 247.24695 71.47272
112.468414 195.38805 102.02018 -0.22206911 -0.17098436 129.18361 4.6293354 53.59332
18.577599 118.646515 192.061 25.842413 48.338257 212.18535 127.17882 -0.3145219
37.405365 174.83078 -0.29065976 30.571753 242.25423 160.49962 27.094103 99.304375
-0.11062041 170.6734 130.86499 53.474167 68.40787 201.0521 236.20122 57.763706

head.weight f4 [4, 64]
00000000: 068b 0440 3c82 503d 8991 2740 8094 ebbd
00000010: 71f4 9b3d 3221 40be cba0 913e 5bba f9bd
00000020: f730 2b40 a44a 4040 4676 2240 2a84 8a40
00000030: dc93 b93d 5b2e 1f40 31a9 b1c0 dc7d f6ba
00000040: 10f3 80bc 6f35 b940 cfb4 bbbc bd2d 343d
00000050: ecab 853f 0b6c e23d e469 95be ad68 cd3e
00000060: 64fb ca3c 0147 133f 8a47 08bd fb14 78bd
00000070: 1da0 c53f 6730 42be e2e7 6fbd bf2e e23f
00000080: fac5 c33e f8bc 0a3d 2b43 9140 1238 c43d
00000090: 8f86 ff3c 94ef 2840 c469 283e 9e1d b63c
000000a0: c6d5 cdbd db26 13be 1969 5ebe 8112 7540
000000b0: 2aff 93be 61e6 49be 48ea 2e40 0ffd fb3e
000000c0: 899c d73f 5d3b a6be 87f0 083e 75fc 4d40
000000d0: 287e 4b40 6d20 5e40 5ed9 f83e 327a a13e
000000e0: 8620 a83d 0bb2 4740 32c6 193e 0f4d 613d
000000f0: e663 af3f 4fc7 953e 9a88 3c40 a2cc 0abe
00000100: e574 4940 6bcd d73d 7c6f 5b40 6c9d 0e3e
00000110: 4c76 e23e a013 67bc b98b 64bf 34a4 a43d
00000120: 0134 9740 4d5d 7d40 3b61 8640 dc06 3f3d
00000130: a06c 023e ba7b 2c40 6afd f1c0 e790 9b3e
00000140: b14e d53e 0293 e340 978d 2a3e 75f8 593e
00000150: 5ddb 1a40 4bfe e33a 7240 073e 7922 953e
00000160: a306 783e be5f 073c 42aa f53b 91ba c23e
00000170: bfa8 4b40 5a17 b5be a511 6fbf 8424 7a40
00000180: 3fe7 7fbe 784a 403f 8f3a d740 bb0c 77be
00000190: 8d36 1f3e 564c 6640 e85f 2ebd 0aa8 dc3c
000001a0: ca17 70bc dd61 2fbe 55eb 7840 0ab9 c440
000001b0: 42fe 18bf aacf 31be 8c3f 5d40 038f 13bf
000001c0: 2963 0e40 4805 da3f b8e3 cabd 6669 9940
000001d0: 189f 8740 6dd3 9240 eabd 1d3e 3e57 e8bc
000001e0: b631 5dbc 8d83 8040 94cc f2bc c169 763c
000001f0: 3835 3b40 f287 fc3e 845c 7b40 84a4 bb3d
00000200: 7d7a 2a40 0985 143c ba80 6e40 8d24 eb3b
00000210: e071 28bd a353 033f c6c1 36bf 8cdd 3cbe
00000220: 4457 3140 6ea1 8440 3f39 7a40 65b5 cc3d
00000230: e596 4abd f70c fb3f 949f f2c0 892d ebbe
00000240: 63d8 bc3e c49a fd40 e46e e43d 8017 20bf
00000250: 18da d93f 6ba9 8e3d 5c04 18bf 06e2 a43d
00000260: 9112 04bf abe7 da3e 5001 f1bd ff8a 0cbf
00000270: efef f33f e67c 0dbe 1d46 103f 8310 1340
00000280: ca0a 71be 6b85 8cbe a8f7 e440 ce08 a6bd
00000290: b9bb 2a3d 28bd 6840 2d01 91be d472 6bbc
000002a0: cbe8 19bf e416 81be 964d 8f3f fc66 a540
000002b0: 0b5e 11bf 5181 f33e 9f93 5540 1eaf 62be
000002c0: a52b 4940 2eac b4be 6919 c23c bf78 3c40
000002d0: ec13 8c40 2d8c a140 5448 93be 3972 debd
000002e0: d23f a2be c1d4 5b40 0b1f 2b3e c8f1 1ebd
000002f0: fe38 6b40 f10a 6e3d 3337 6540 a076 c43c
00000300: 91b8 e33f ef4d cf3d 1d3f 6c40 af48 93be
00000310: 05df ec3d 5244 963d a80c 8fbe dbb7 893e
00000320: 247d 1840 89ec 8040 216a 7640 3d92 99be
00000330: dbe0 343d 9fa6 2940 7ddf e4c0 0ee5 7bbc
00000340: faa0 a4be a62f 0641 99ae ca3e 8a87 acbe
00000350: 7ae7 813f d6c2 ea3c b9e3 c4be b6b6 8cbd
00000360: 76fc bbbe 1f58 3e3e 838d 493d bb99 8ebd
00000370: 9390 893f 96a7 55bd 7716 fa3e ec16 be3f
00000380: c421 c53d bde0 40be a745 df40 479d 3b3c
00000390: 31f5 78bd df3b 4740 959c a93e 8b1d ba3b
000003a0: 1b54 46bd 48ae 3c3e 92c4 1fbf 431f a840
000003b0: 79aa e33e 42a2 24be 673e 4840 4e3e e9bc
000003c0: a98d 3940 311e 38bf f6ff 803d 8ba7 8240
000003d0: ffea 7a40 1e89 9440 80e5 c73d a6b9 e23d
000003e0: ee87 883d 13d2 6e40 2bd9 7b3c 0369 ddbc
000003f0: 0913 7440 3b70 90be ed0f 5240 6fa0 4b3c
2.0709853 0.05090545 2.6182578 -0.115029335 0.07614983 -0.18762663 0.28442988 -0.121937476
2.6748636 3.0045557 2.5384688 4.3286333 0.09061405 2.4872043 -5.5519032 -0.001880582
-0.015740901 5.7877727 -0.022913365 0.043988932 1.0443091 0.11055764 -0.2918235 0.40118924
0.024778076 0.5753022 -0.03327135 -0.060566884 1.5439488 -0.18963777 -0.05857075 1.7670516
0.38236982 0.03387162 4.539449 0.09581007 0.031192092 2.6396227 0.16446596 0.02223092
-0.1005054 -0.14370291 -0.21719779 3.8292544 -0.28905612 -0.19716789 2.7330494 0.49216506
1.6844646 -0.32467166 0.13373004 3.2185338 3.179575 3.470729 0.48603338 0.3153854
0.08209328 3.1202419 0.15017012 0.05500513 1.3702362 0.29253623 2.9458375 -0.13554624
3.1477597 0.10537227 3.4286795 0.13927239 0.44230878 -0.0141038 -0.892757 0.08039132
4.725098 3.9588196 4.199369 0.0466374 0.1273675 2.6950517 -7.5621843 0.3038399
0.416616 7.1116953 0.16655575 0.21286185 2.4196389 0.0017394511 0.13208178 0.29127863
0.24221282 0.008262573 0.007497103 0.38032964 3.1821744 -0.35369378 -0.933863 3.9084787
-0.24990557 0.7511363 6.7258983 -0.2412595 0.15548153 3.5984092 -0.042571932 0.026935596
-0.014654109 -0.17127176 3.8893635 6.147588 -0.59762967 -0.17364374 3.4570036 -0.57640094
2.2248023 1.7032862 -0.09906715 4.794116 4.2381706 4.588309 0.15404478 -0.028361913
-0.013500622 4.0160584 -0.029638566 0.015039862 2.9251232 0.49322468 3.9275217 0.09162238
2.663726 0.009064921 3.7266068 0.007175988 -0.041124225 0.51299495 -0.71389425 -0.18443888
2.7709513 4.144706 3.909744 0.09995536 -0.04946031 1.9613332 -7.5819798 -0.45933178
0.3688384 7.9251423 0.11153963 -0.6253586 1.7019682 0.06965908 -0.5938165 0.08050923
-0.5159083 0.42754874 -0.117678285 -0.5489959 1.9057597 -0.13817176 0.56356984 2.2978828
-0.23539272 -0.2744554 7.1552315 -0.08107148 0.041682933 3.6365452 -0.2832121 -0.014370639
-0.6012084 -0.25212777 1.1195552 5.1688213 -0.56784123 0.47559598 3.337135 -0.22137114
3.1432889 -0.35287613 0.023693757 2.9448698 4.377432 5.0483613 -0.2876612 -0.1086163
-0.31689316 3.4348605 0.1671106 -0.0388048 3.6753535 0.058115903 3.581494 0.023982346
1.77907 0.101222865 3.6913521 -0.2876639 0.11565975 0.0733725 -0.27939343 0.26898083
2.382638 4.028874 3.8502276 -0.29994383 0.04415975 2.6507947 -7.1522813 -0.015374435
-0.32154065 8.386633 0.39586332 -0.33697158 1.0148766 0.028657358 -0.3845499 -0.06870787
-0.3671605 0.18588303 0.04920722 -0.069629155 1.0747246 -0.052161776 0.48845264 1.4850745
0.09625581 -0.18835731 6.9772525 0.011451072 -0.060780708 3.1130292 0.33127275 0.0056797913
-0.048420053 0.18425858 -0.6240932 5.253816 0.44465998 -0.16077521 3.1288087 -0.028472092
2.8992712 -0.7192107 0.06298821 4.082952 3.920593 4.641738 0.097605705 0.11070566
0.066665515 3.731572 0.015371601 -0.027027613 3.8136618 -0.28210625 3.282222 0.012428387

head.bias f4 [4]
00000000: 42fe bb42 3ff6 d442 d276 1f43 c60d 5343
93.9966 106.48095 159.46414 211.0538
