src/model-HIV.pth (torch, 49432 bytes, 8 tensors)

fc1.weight f4 [100, 6]
00000000: 2e2f 0ebe 80e3 07bd 96ed a1be 028c bcbe
00000010: 4097 94bb 2e91 923e 69c4 61be d2c9 07bf
00000020: 0969 133f 62db a7be ef70 dcbd bc45 00bf
00000030: 4a3c 5bbe 90a0 9dbd 1aca 1f3e 08c7 bd3d
00000040: 1344 e7bc a9f3 84bd f512 80be c0b9 ce3d
00000050: 01cd 40be 24d9 533e 88e2 42be 804d eabb
00000060: e305 1fbf d91c 4bbe 4bac edbe 0e38 0abf
00000070: 83b7 c2bd 321c aabe f8bf cbbd 0e7b 59be
00000080: 6efd 9e3e 264e 07be 80c2 f73c d093 793e
00000090: 5a75 0fbf 34aa 553d f2ab 95be ccbd 7e3e
000000a0: 1953 4bbd fb08 f23e 023c 1dbf bae6 0fbf
000000b0: 47d9 f53d 576c c1be 9641 1d3e ccd6 68be
000000c0: 660b 08be d042 aa3d 8bde 53be fc7d a33e
000000d0: 2c88 c1be c6b5 08be 69c8 c2be 438f d83d
000000e0: e73b 87be 9a9b cf3d 809e 8f3b 1d31 0dbf
000000f0: b266 f4bd 7ad6 a6be 40d5 b7bd b6eb dcbd
00000100: 499f 0dbf 7baa 2bbd 79fc 78be 28c3 403d
00000110: 1f51 94be 1626 a33e ec2b 04be 5c58 aa3e
00000120: e78b 6ebd 6c88 92bd e7e8 06bf 00ae 26bf
00000130: 7bca 953c 9ae8 a53d 0ea4 09be fe79 25bd
00000140: 8377 1d3d 64a8 77be c87c ebbe d1f0 0fbf
00000150: 0f38 afba ed85 f5be ccde 053c 811c 5f3d
00000160: 1bb5 1fbf 4499 1ebd ebee 7fbd 8a4d adbe
00000170: 0028 aebe da86 44bf ae1d 83be efc6 8dbe
00000180: d070 a1bc 6cf8 aabd 4ec3 c8be 784f b3bd
00000190: 97c4 b2be 28d8 8c3e 2cc2 7bbe 9557 76be
000001a0: b91e 76be 90fc bfbe d9fb a8be d844 cebd
000001b0: 8034 47bf 74fc acbe 4580 5cbf 6c49 63bf
000001c0: cb22 65be b026 ecbe c1cd 1cbe e773 4bbe
000001d0: e976 d6bd 5e65 80be f6a4 ebbd 340b c3be
000001e0: 2013 2fbe 7e7f e8be dd48 c2be 39cb 38bf
000001f0: ea91 35be f9b0 a4be 99b6 91be b88f debe
00000200: baa8 08bf 0cac 09bf 0808 3fbe 01cd adbe
00000210: 5ecd c4be c44a 89bd 6403 9dbe 3804 6abe
00000220: 68b5 8dbe 0819 8bbd 66f4 c2be d6f2 a33e
00000230: 7c74 293e 30d8 5d3e bcdc 18be 26df 933e
00000240: 2358 0bbd 90db 2dbc 3edd 4fbe 46f7 c63d
00000250: 280b c7bd f785 f2be 6852 74ba ff5f 86bd
00000260: 64ef 5dbe 76f2 a5be 9ebf a9bd b933 acbd
00000270: f45f 87be 21d2 4a3d ef80 45be ff70 37be
00000280: c393 02be 4150 9fbb 783e 35be e6db 683e
00000290: 6520 bcbd cb1a 06be a6ea 35be 370e d2be
000002a0: 803a 2dbf d2ba 93bd 8597 833c 3d35 1d3e
000002b0: 27f7 6ebe f3bf 04bd e421 58be 5286 57bf
000002c0: d644 353e 4b5b 69bf 6909 1abf 58d7 bcbd
000002d0: 5b42 f4bd 35f3 f9be c0c3 71be c0a6 3a3d
000002e0: 7d85 7abd d632 403e ea57 54be 28ce 1bbe
000002f0: 4549 883d 2c1a 55bf 7ab5 a4bd 112f 8bbe
00000300: 2e5f 73be 7fb4 34bf 16f7 b23d 5784 05bf
00000310: bd60 583d e6b9 82be 862a 05be 0027 ee3b
00000320: 60f0 773e 269f 6abe 14de 50be 34d3 0f3e
00000330: 640c 31bc 20bf 3a3e 4671 3d3e 2718 df3d
00000340: 7d67 d2be 4545 7bbd 1c32 2ebf 183f 50bf
00000350: 64ab 07bf 9776 16bf f1d1 e5bd add2 b5bd
00000360: 354e 20be 7342 a8be af74 81be fe2c 433e
00000370: bc63 33bd a2ac 683e 4a57 ccbc 628e 28bf
00000380: d8d2 343e ca05 84b9 1e29 0fbf a084 d03e
00000390: 130e 9abe b065 083e 1a67 8dbe 38f3 2bbe
000003a0: 20e4 83bd fcb2 313e b69d 1dbe 64c4 c9be
000003b0: 084d ebbe 4115 edbe ae75 b83d b604 18bf
000003c0: 1075 a6bc 70a0 923d 08b0 073e da98 be3e
000003d0: 54a4 06be 0c27 793e 3e16 1abf 6370 d1be
000003e0: efcf c3be 2b0e a2be f666 98bb 511c 44bf
000003f0: e86e 02be b854 0ebf 2f05 04be b853 24be
-0.13885185 -0.033175945 -0.31626576 -0.36825567 -0.004534632 0.28626388 -0.22047581 -0.5304233
0.57582146 -0.32784563 -0.10763728 -0.50106406 -0.21409717 -0.076966405 0.1560444 0.09266478
-0.028230703 -0.06491787 -0.25014463 0.10094023 -0.18828203 0.20688301 -0.19031727 -0.007150352
-0.6211836 -0.19835223 -0.46420512 -0.5399178 -0.09507658 -0.33224636 -0.099487245 -0.21238348
0.31052727 -0.13213405 0.030244112 0.24372792 -0.5603844 0.05216427 -0.29232746 0.2487709
-0.049639795 0.47272477 -0.6141969 -0.56211436 0.12004333 -0.3777797 0.1535705 -0.22738189
-0.13285598 0.08313525 -0.20690362 0.31932056 -0.37799203 -0.13350591 -0.38043526 0.105742
-0.2641289 0.101371005 0.0043829083 -0.55153066 -0.1193365 -0.32585508 -0.08976221 -0.10787146
-0.55321175 -0.04191063 -0.2431506 0.047061116 -0.2896814 0.31864995 -0.1290738 0.33270538
-0.05823889 -0.07154927 -0.5269913 -0.6510925 0.018285027 0.08101006 -0.13441488 -0.040399544
0.038444053 -0.2418533 -0.45993638 -0.5622683 -0.0013368147 -0.4795374 0.008170795 0.054470543
-0.6238572 -0.038720384 -0.06248371 -0.3384822 -0.34014893 -0.7676827 -0.2560858 -0.27690837
-0.019707114 -0.08348164 -0.39211506 -0.08755392 -0.3491561 0.27508664 -0.2458579 -0.24056847
-0.24035157 -0.37497377 -0.33004645 -0.10071725 -0.77814484 -0.33786356 -0.86133224 -0.8878391
-0.22376554 -0.46123266 -0.15312864 -0.19868432 -0.10471899 -0.25077337 -0.11506073 -0.38094485
-0.1709714 -0.4540977 -0.37946215 -0.72185093 -0.17731443 -0.3216627 -0.28459623 -0.43469024
-0.53382456 -0.5377815 -0.18655407 -0.33945468 -0.38437933 -0.067037135 -0.3066665 -0.22853172
-0.27677464 -0.06791884 -0.38077086 0.32021207 0.16548342 0.216645 -0.14927953 0.28881186
-0.0340196 -0.01061143 -0.20299241 0.097151324 -0.09718925 -0.47367832 -0.0009320141 -0.065612786
-0.21673352 -0.32411546 -0.08288501 -0.08408303 -0.26440394 0.0495168 -0.19287466 -0.17914198
-0.12751679 -0.004861862 -0.17699611 0.22740135 -0.09185866 -0.13096158 -0.17765293 -0.4102647
-0.6766739 -0.072133675 0.016063461 0.1535234 -0.23336469 -0.03240962 -0.21106678 -0.8418933
0.1770204 -0.91154927 -0.6017061 -0.09220761 -0.11926719 -0.48818365 -0.23609829 0.04556918
-0.06116246 0.18769392 -0.20736662 -0.15215361 0.066546 -0.8324306 -0.080424264 -0.27184346
-0.23766777 -0.70587915 0.08738534 -0.5215506 0.05282663 -0.25532454 -0.13004503 0.0072678328
0.2421279 -0.22912273 -0.20397216 0.14045411 -0.010806177 0.18236971 0.18500242 0.108932786
-0.4109458 -0.061345357 -0.6804521 -0.81346273 -0.52995896 -0.58774704 -0.11221684 -0.08878074
-0.15654834 -0.32863197 -0.25284335 0.19060132 -0.043796286 0.22722104 -0.024943966 -0.6584226
0.17658556 -0.00025181315 -0.55922115 0.40726185 -0.30088863 0.1332004 -0.27617723 -0.16792
-0.06439996 0.17353433 -0.15392193 -0.39407647 -0.45957208 -0.46305278 0.090068206 -0.5938219
-0.020319492 0.07159507 0.13250744 0.3722599 -0.13148624 0.24331301 -0.6019019 -0.40906057
-0.38244578 -0.31651434 -0.004650946 -0.7660571 -0.1273762 -0.5559802 -0.12892602 -0.16047561

fc1.bias f4 [100]
00000000: 1c3d 583e 579f eabc acbf 193e 8402 173e
00000010: dcd5 18bf 0078 e239 f273 b8bd 5329 10bf
00000020: 879d a4be 7ea3 dbbe fc24 6b3d 5c5d 183e
00000030: 99b8 9abe a226 96be 8c42 24bf 4a73 25bf
00000040: 5442 2f3e 844b 4f3e 575f c8be b5a4 eebe
00000050: ed3c e3be 6824 5dbf 8056 59bc b409 0fbe
00000060: 53c4 cdbd 4810 d3be 9114 65be 10c2 7cbe
00000070: 6335 95bd 9d55 16bf 9a52 1e3e ba7d 1cbe
00000080: 109a c4bc 2de6 c6be 0773 763e afbc 3cbf
00000090: 4144 40be d260 353e cc59 a03d 1ba4 06bf
000000a0: ce4d 2fbe 33ed 5abe 5b22 d4be d07c 853d
000000b0: 1a26 0bbf 9441 a1be 1cf2 27bf cf26 8bbe
000000c0: ff2d be3d 4600 bf3e 3996 aabe 1661 a3be
000000d0: c502 f1be 49d0 f3be 2001 513e 12b8 32bd
000000e0: 0622 52bf a946 3c3e 4f89 d93d e8d8 163e
000000f0: ea8e b1be 18b8 503e 27fa 4abf c32e dfbd
00000100: c361 683e 6804 f1bd a099 6b3d 8906 01bf
00000110: ce0a 69be 719c b5bc abbe 1abf 1242 d5be
00000120: 989c 063d 6053 5cbc b09c b63d b261 a83e
00000130: a288 c43e 63a5 d8be 7d8e 09bf aefd a9be
00000140: 3499 3cbe a210 4cbf ff1d 20bf 9d0f 6cbe
00000150: defc 16bd 1b23 2dbe 90e7 7fbd 6e52 5fbe
00000160: c442 ad3e bb90 9fbd 33cb 2fbf 4741 81be
00000170: 4b45 86be 13a4 b43d efec 153d b357 96be
00000180: 7828 dbbe cda1 413d 5524 1abf f88d 32bd
0.21117061 -0.028640432 0.15014523 0.14747053 -0.59701324 0.00043195486 -0.0900649 -0.56313056
-0.32151434 -0.42898172 0.057408318 0.14879364 -0.30218962 -0.2932635 -0.6416404 -0.6462904
0.17115146 0.2024365 -0.3913524 -0.46610036 -0.4438242 -0.86383677 -0.013265252 -0.13968545
-0.100472115 -0.4122336 -0.22371127 -0.24683404 -0.07285573 -0.58724385 0.15461197 -0.15282336
-0.023999244 -0.38847485 0.24067317 -0.7372541 -0.18776037 0.17712715 0.078296274 -0.52594155
-0.17119524 -0.21379547 -0.4143246 0.06517947 -0.54355013 -0.31495345 -0.65603805 -0.27178046
0.09286117 0.37304896 -0.33317736 -0.31910008 -0.47072425 -0.47619846 0.20410585 -0.043632574
-0.82083166 0.1838633 0.10621893 0.1473118 -0.34679347 0.20382726 -0.7928795 -0.10897591
0.22693543 -0.117684186 0.057519555 -0.50400597 -0.22758028 -0.022169324 -0.60447186 -0.4165197
0.032864183 -0.0134476125 0.089166045 0.32887036 0.38385493 -0.4231368 -0.53733045 -0.33201355
-0.18417817 -0.7971288 -0.6254577 -0.23052831 -0.036862247 -0.16907923 -0.062476695 -0.21808788
0.3384 -0.07791277 -0.6866943 -0.25245115 -0.2622474 0.08820357 0.03660291 -0.29363784
-0.42804313 0.047273446 -0.6021169 -0.043592423

fc2.weight f4 [64, 100]
00000000: 7c2c f73c dbdd 583d 0b96 0bbe 1bb9 92bd
00000010: 8345 5ebe 6d1f ad3d e040 69be 053c bebe
00000020: 92ad 4f3d a9df 0a3e 8acc 0bbe 8c2f f13c
00000030: d217 853d 8267 93bc c920 b7bd 018b c8bd
00000040: 231f a83d 4a4c a7bd b195 dabd b613 db3c
00000050: 71ad 4a3e 121b 853d b85c 9a3c 9445 973c
00000060: e1b5 e0ba 6734 9cbd 89b3 0cbe 8c98 5b3c
00000070: 9025 42bc 83e5 913e c6b7 ac3d 95f6 9dbe
00000080: d67f d7bd 2e4f 9fbd 4edd ebbd 5522 57be
00000090: a4e8 9a3d 3693 5bbe 02fd 333d cc39 023d
000000a0: 40b9 563c a4ea 8bbd 0d2e a8bd c072 84bc
000000b0: 61c4 eebc cc14 0fbd 2677 76bd 2954 04be
000000c0: 964b 803a b198 b23d 64b8 353e 5972 f2bd
000000d0: 742f 04bd 3da5 0cbe 0b60 febd be4a 053f
000000e0: 0a55 36be 2bf3 11bd 2718 45bd 20b2 cc3c
000000f0: 3562 cb3d 4c59 b9bc ba9b 6cbe 2e95 0d3d
00000100: 1d30 0abe e646 153d 728a 4e3d d5ed 3ebe
00000110: 5d24 d0bd 843e 9aba 8262 163f e8a8 583c
00000120: 8460 d53c d505 923d 723f 303d 1e83 0d3d
00000130: 3ac0 c6bd e3a1 3abd 16d0 b93e 888f ec3c
00000140: dda6 c7bd 0016 d2bd 8446 023e eaa4 acbd
00000150: b65b 4dbe 454d 99be 0010 73bb b53b 30bd
00000160: 2779 5cbd b655 903e eabb 99bd 0551 6f3e
00000170: 42ba 86be d1f6 37be ac78 113c 5896 133b
00000180: 20be 48bd 4cdb 0abe 7421 8fbe 1408 a9bc
00000190: 9b62 bd3d f2a4 bcbe 16fc 663d 4811 cabc
000001a0: 2d6f a13e 5a3b 08bd c403 84bd ba25 9fbd
000001b0: e2ad 593d 72ff 8bbd 7cd4 13bc 0462 15bd
000001c0: db30 cabd 3070 1c3d 1f3f 03be 82ae 6fbd
000001d0: b210 2a3d 1002 0cbc f7bb b73d 361c 5c3d
000001e0: 0c6f 9abe 0032 19bf cd42 99bd 5a35 c4bd
000001f0: 680b 9fbc 4a99 1fbd 5e49 6d3e a419 11bd
00000200: 5eed 493d f96f b1be aedf 4b3d 17d5 6fbd
00000210: 8f08 5e3e 4b95 a7bd cee1 53bd b1aa e6bd
00000220: 408c 49bc 49d1 83bc 30ec 83bd 40e8 c8bd
00000230: d4d9 b73c 439b 9bbe a52a 1cbd 107a ccbd
00000240: 81f8 15be 588e c0bc c419 87be 9268 713d
00000250: 02c5 813b b182 a13d f79e 91be f93d 873c
00000260: e7a8 373d e270 00bf b3f7 b8bd 9097 43be
00000270: 70ec e5be 3022 07bc 3117 bd3d b764 c53d
00000280: d837 b33c fb1a 2c3c 17b2 b8be cf51 a3bd
00000290: bf54 3abd 1a11 183d de7c a6bd 1b63 09be
000002a0: f2ff 87be 00cc 4dbc ea89 bebd 20df 78bd
000002b0: 2292 713d c92d a03d d0cc e1bb 4f5c ba3d
000002c0: 4bd3 bcbd b24e 713c 16f1 6c3e 5d34 9fbd
000002d0: bdbf 12be e1b7 1f3d d8c7 c63e 7785 c6bd
000002e0: b016 b5bd 46a7 0ebd 180b 2e3c d4e6 54bd
000002f0: 0c96 f7bc 99de c8bb d02a 71bd b706 6dbd
00000300: f071 7dbe afc8 8fbe ba96 2abd 2417 d43c
00000310: e5ca 10bd cef9 cd3b 7544 9fbe 7e51 723d
00000320: 80d3 d43b 0020 97bd e8c3 173c fa2d 5cbd
00000330: 783a 8e3e 6a3c 8bbd 9fb9 b6bd 666b aabe
00000340: 1472 eabc 268e 94be 7fd0 55bd 66d1 653d
00000350: 022c bcbd c793 0cbe b4ee 9fbd 0e3c 9fbd
00000360: 37da 59bd 94e6 893c eecf 92bd 41b4 c7bd
00000370: 615f c4bd eb70 9abd 3d14 27bd 1482 bdbc
00000380: a472 92bd 113c 9bbd 2a25 643e e004 913c
00000390: 224e 6c3d fd08 3fbd 5a9e fcbd 6050 99bd
000003a0: 2681 4dbb c874 b13c 3cb3 343d a7de da3b
000003b0: 0d09 bf3d 5bb3 91be 230c 94bd ea19 0fbe
000003c0: d080 dbbb 2d3f 683d fa59 bdbd b4bb 883c
000003d0: 6bcb 96bc eac8 aabd cc7d 893c 607e 83bc
000003e0: 91d8 03bd 002c 6e39 7228 98bb 4e41 86bb
000003f0: 30cb 6dbd 8c13 0bbd 85d8 c6bd 81c7 29bd
0.030172579 0.052945953 -0.13631456 -0.07164212 -0.21706204 0.084532596 -0.22778654 -0.37155166
0.05070264 0.13561882 -0.13652244 0.029441617 0.06498684 -0.017993692 -0.089418 -0.09792138
0.08209064 -0.08168848 -0.106730826 0.026742797 0.19792725 0.06499304 0.01884304 0.018465795
-0.0017144048 -0.076271825 -0.13740362 0.013403069 -0.011849776 0.28495416 0.084334895 -0.3085219
-0.1052243 -0.07778774 -0.1151682 -0.2100919 0.07563904 -0.21442875 0.04394246 0.0317934
0.0131056905 -0.068318635 -0.082119085 -0.016167998 -0.029146375 -0.034931943 -0.060172223 -0.1292273
0.0009788151 0.0872053 0.1774612 -0.11838216 -0.032271817 -0.13734908 -0.124206625 0.5206717
-0.17805877 -0.035632294 -0.048118737 0.02498728 0.09930841 -0.022625588 -0.2310628 0.034566097
-0.13494916 0.036444567 0.050425 -0.18645413 -0.10163186 -0.0011767899 0.5874406 0.013223864
0.026046999 0.071300186 0.043029256 0.03454887 -0.09704633 -0.045564543 0.3629157 0.028877035
-0.097486235 -0.102581024 0.12722212 -0.08429892 -0.20054516 -0.29941764 -0.0037088394 -0.04302569
-0.053826477 0.28190392 -0.07506545 0.2337075 -0.26313978 -0.17965247 0.008878868 0.0022520032
-0.049009442 -0.13560218 -0.2795521 -0.020633735 0.09247323 -0.36844593 0.05639275 -0.024666443
0.31530133 -0.033259727 -0.06446031 -0.07770868 0.053144343 -0.06835832 -0.009022828 -0.036470428
-0.098726 0.038192928 -0.12817048 -0.058516033 0.04151983 -0.008545414 0.08971398 0.05373784
-0.30162847 -0.5984192 -0.07483444 -0.095804885 -0.019414619 -0.038964547 0.23172519 -0.035424843
0.049298637 -0.3465574 0.049773864 -0.058552828 0.21682952 -0.08182772 -0.051729016 -0.112630256
-0.012301505 -0.016091006 -0.064415336 -0.09809923 0.022442736 -0.30391893 -0.038126606 -0.09984219
-0.14645578 -0.023505375 -0.26386845 0.058937617 0.0039602527 0.078862555 -0.28441593 0.016509043
0.044838812 -0.50172246 -0.0903162 -0.19100785 -0.4490695 -0.008247897 0.09232939 0.096383505
0.021877214 0.0105044795 -0.36073372 -0.07974588 -0.045490976 0.037125684 -0.08129285 -0.13416712
-0.26562458 -0.012560844 -0.09303649 -0.060759664 0.058977254 0.07821233 -0.0068908706 0.09099638
-0.092199884 0.014728235 0.23138842 -0.077736594 -0.14330955 0.03899372 0.38824344 -0.09693425
-0.08842218 -0.034827493 0.010622762 -0.051977947 -0.030222915 -0.0061300513 -0.05887872 -0.057867732
-0.24750495 -0.28082797 -0.04164765 0.02588994 -0.035349745 0.0062858826 -0.31106916 0.05915975
0.0064949393 -0.073791504 0.009263016 -0.053754784 0.27778983 -0.067986324 -0.08922123 -0.33285064
-0.02861885 -0.290147 -0.05220079 0.0561079 -0.09188081 -0.13728248 -0.07809201 -0.077751264
-0.05318662 0.016833581 -0.07168566 -0.097511776 -0.095885046 -0.07541069 -0.040790785 -0.023133315
-0.07150772 -0.07579816 0.22279802 0.01770252 0.0576917 -0.04663943 -0.12334891 -0.074860334
-0.0031357496 0.021662131 0.044116244 0.0066793743 0.09327898 -0.2845715 -0.072288774 -0.13974729
-0.0066987053 0.056700874 -0.09245677 0.016691066 -0.018407544 -0.083391026 0.016783617 -0.016051471
-0.032188956 0.0002271384 -0.0046434933 -0.0040971404 -0.058055103 -0.03395419 -0.097092666 -0.041450027

fc2.bias f4 [64]
00000000: e170 94be fb7f f6be 9997 01bf 00e7 33bc
00000010: 9145 1bbe 2c13 62bd f409 e8be 0ce4 a1be
00000020: db89 10bf eb62 58be 3d8d babe b0df d4bc
00000030: a277 3fbf bc34 64be c827 0fbe c542 b9be
00000040: 639f 82be c412 05bf fc40 a4be a6ea e8be
00000050: ff2f e5bc d38e cfbd a571 c7be d5a9 36bf
00000060: 6bcc d0bb ebf9 10bf 29c9 c0bb e1db 9fbe
00000070: fd36 ebbe 1e45 edbc 148a 54bd dbaa 97be
00000080: ade7 8cbe 97f7 d4be 1527 2fbc c22a 41bf
00000090: d9f4 10bf 6ce9 26bf d9da 17bf cdd2 76bc
000000a0: d7ad 6fbd 968b 2cbf 0fc1 8ebe 8381 a0bf
000000b0: a720 30bf 9c42 4bbd 8236 eabe 5582 d9be
000000c0: cb4e 3bbf c5c1 c8bc 6c5e 8dbe 9a93 9fbc
000000d0: 9a28 b9be 02d3 44bf 2b1b 28bc 219e babe
000000e0: ab24 a4bb 7521 80bd f10f 49bf c5a3 84bf
000000f0: f330 2fbc a753 62be 3fd5 b9bd 13a4 87bd
-0.2899237 -0.48144516 -0.50621945 -0.010980368 -0.15163256 -0.055194065 -0.45320094 -0.31619298
-0.5646035 -0.21131484 -0.3643588 -0.025985569 -0.7479192 -0.22285742 -0.13980019 -0.36183754
-0.25512227 -0.5198176 -0.3208083 -0.45491523 -0.027976988 -0.101346634 -0.3895389 -0.71352893
-0.006372025 -0.56631345 -0.005883355 -0.31222442 -0.4594039 -0.028963622 -0.051889494 -0.2962254
-0.27520505 -0.41595146 -0.01069047 -0.7545587 -0.5662361 -0.65199924 -0.5931831 -0.015064907
-0.058515396 -0.6740049 -0.27881667 -1.2539524 -0.68799824 -0.04962407 -0.4574471 -0.42482248
-0.73167104 -0.024506459 -0.276111 -0.019479562 -0.3616379 -0.7688447 -0.010260384 -0.36448768
-0.005009254 -0.062563814 -0.7853995 -1.0362478 -0.010692823 -0.22102223 -0.090738766 -0.066230915

fc3.weight f4 [64, 64]
00000000: ae57 8cbe 1af6 7f3d 23a8 e1bc 1bb1 97bd
00000010: 33b3 373d 323b ba3d 8f66 2cbe 54eb 283e
00000020: a1e4 7ebe c3fb 95bd 6c8d 8ebf 80a2 483e
00000030: 3669 13bf e05d 97bd 174e 1c3f 32a1 80be
00000040: 5cf2 1fbf 7f33 94be 72cd a13f 183f 50bf
00000050: be3b 0b3e 1256 7abf ca55 77bf 0339 2e3e
00000060: 0bc0 42bf 527e 7fbe 7386 b6bf ab90 a63e
00000070: ac60 b1bd f5af 13bf 1419 87be 1e8e df3d
00000080: a623 a2bf ae32 dbbb f00d 28be ecea c3bf
00000090: 2efd d8bf c8f5 cbbf ad04 5e3e 86fc 4cbf
000000a0: 0a45 8ebf 6f46 4cbf 9a70 b63c 7e56 3abf
000000b0: 6b5c 98bf 0ce3 35bd 0621 4fbf b4fe c8bf
000000c0: 224d cfbe ff40 71bf 8684 dcbf 4176 a8bf
000000d0: b720 863e 2404 b9bd b0fa a0bf eea5 033d
000000e0: 9160 4dbf 744f bbbe d199 39bf 5236 0fbf
000000f0: 7700 5dbf 9db7 53be 105a 62be e947 04bf
00000100: 16f8 62be f174 cbbd 2a0b 86be f5e8 473d
00000110: fb73 81bd 0fae e6bd 2b36 a4bd 17d0 02be
00000120: ae8b 4e3d 29aa b1be 141b 90be f930 39be
00000130: 7558 f5bc b744 03be ad27 7cbe b2a4 06be
00000140: 37e9 f0bd 2494 2f3d 8b96 89bd 6456 cbbe
00000150: 1d07 db3c fc68 1dbe 7ae1 b2be 8aca 91be
00000160: e252 28be dcf8 b5bd 2274 46bc b77d d9bc
00000170: 79f9 b0bd 6839 b8bd 5206 33be f9aa 86bd
00000180: d7f4 d1bd ceb1 5bbe 8efd 0fbf 2ddc dabd
00000190: a0f9 60be f9bd 30be 3265 5ebe 561d c53c
000001a0: c70a c3be 0dfc 38bf 778d 26be de2d 643d
000001b0: 5635 dfbd c2cf 1d3d de81 1cbe 5fb2 503c
000001c0: e139 c5bd c056 71bc 475b acbe 5259 49be
000001d0: 2c8d dfbe e029 c1be 7a3c bebd 0d08 37be
000001e0: 0312 9cbe fd5e 93bd ffa9 f9bd a256 8dbd
000001f0: f818 a6be f394 a8be c1dd d1bd 1780 89be
00000200: 86c1 293f 7801 46be 5336 30c0 312e 6c3f
00000210: 3f94 f93d fc02 46be bed5 edbe 4e63 1abe
00000220: 2c5c 48bf ac6f 2dbe 4130 0540 e26b 01c0
00000230: 12aa 903d 4066 4cbf d8a7 b53e 33a4 8abe
00000240: 9eaf b9be 4a15 ad3c 9bef d2bf 81f7 a13f
00000250: d226 7cbf 807d fabf cba5 aebf cbc4 eebe
00000260: bc78 16c0 37c8 803c e8c7 2dbe 5695 a3bf
00000270: 87d6 893b fd24 0b3f eb9f a9be 7a0d 10bf
00000280: df30 cabe 1383 39bf 9aba c5bd ca39 3fbf
00000290: dd96 34bf 3a7e 81be e21f f13d e8b4 d03e
000002a0: 7ec3 b4be d28f 04c0 7df2 3dbf 73a9 a83f
000002b0: 9153 803f 4c8a ed3d f4ba 59bf e698 50bf
000002c0: dd5a 68bf d21e 20bd d87e 55bf 3217 0cbd
000002d0: 0b30 623f c998 1e3f 851c 3e3c 6029 be3e
000002e0: 19f4 30bf b1ee 61bf f643 803d 8ac6 04bf
000002f0: f0a9 003f 7327 253f 8c2e a5be caa7 9cbf
00000300: 4fa9 c03d 291a 26be e17d f4bd a1bd 9dbb
00000310: e240 bf3e 40cb 5f3e 5c4b 6b3f 7522 143f
00000320: 891b 223e 8f55 3bbe 49ea aa3f 93c5 243c
00000330: 36c5 fabe c1d6 8d3e da22 c73f d37c d13e
00000340: c4d2 363e dd00 29bd 186b 7a3f e8da bdbe
00000350: 5f74 d03e 790d 2cbf 9a39 24bf bb62 123f
00000360: 00cc 41bc daa1 5a3d 1400 d3bf 78be 1fbf
00000370: 28d7 a0bd 408a b3bd 327f 4fbe c935 06c0
00000380: 0246 163f 19a0 893e ed79 a3bf 03eb dabd
00000390: 2cfd aa3f 4b37 2740 d310 303e 8a4a 323e
000003a0: 1854 40bd a594 e6be 2dfc 7dbf 6d19 e6be
000003b0: a3a4 c23e 76d5 ee3f c0c9 3e3f f66e d53e
000003c0: 0314 123f 1341 3ebf d5a4 9a3f 7def a53e
000003d0: 1e6f 40bf 96f2 3e3f d8fc f9be 2a52 493c
000003e0: 70df 6e3e b3b7 12bf 9078 083d eace 6cbe
000003f0: ab2f 8d3e a9fa 5abf e6da f0bf ca7c 713f
-0.27410644 0.06249056 -0.027545994 -0.07406827 0.044848632 0.09093322 -0.16835998 0.1649602
-0.24891903 -0.0732341 -1.1136909 0.19593239 -0.57582414 -0.07390952 0.61056656 -0.25122982
-0.62479186 -0.28945538 1.2640822 -0.81346273 0.13597009 -0.9778758 -0.9661528 0.17013936
-0.76074284 -0.24950531 -1.4259781 0.32532248 -0.08661017 -0.57690364 -0.2638632 0.109157786
-1.2667129 -0.006689391 -0.16411567 -1.5306067 -1.6952264 -1.5934381 0.21681471 -0.8007282
-1.1114819 -0.79794973 0.02227049 -0.72788227 -1.1903204 -0.044405982 -0.80909765 -1.5702729
-0.40488535 -0.942398 -1.7227943 -1.3161088 0.26196834 -0.09033993 -1.2576504 0.032140665
-0.80225474 -0.36584055 -0.7250033 -0.5594226 -0.86328834 -0.20675512 -0.22104669 -0.51672226
-0.2216495 -0.09934414 -0.26180393 0.04880615 -0.0632095 -0.11263668 -0.08018144 -0.12774692
0.050426178 -0.34700134 -0.2814566 -0.18085088 -0.029949406 -0.12819181 -0.2462451 -0.13148764
-0.11763232 0.042865887 -0.06718167 -0.39714348 0.02673679 -0.1537208 -0.3493765 -0.28474838
-0.16437867 -0.08885357 -0.012112649 -0.026549203 -0.08641333 -0.089953244 -0.1748288 -0.06575579
-0.102517776 -0.21454546 -0.5624627 -0.106865264 -0.21970224 -0.17259969 -0.2171829 0.02406184
-0.3809416 -0.722596 -0.16264902 0.055707805 -0.10898845 0.03852821 -0.15283915 0.0127378395
-0.0963018 -0.0147301555 -0.3366339 -0.19662979 -0.43662393 -0.3772726 -0.09288879 -0.17874165
-0.30482492 -0.07195852 -0.12190627 -0.069012895 -0.32440925 -0.3292614 -0.10247374 -0.26855537
0.6631092 -0.19336498 -2.7533157 0.9225798 0.12186479 -0.19337076 -0.46452135 -0.15076944
-0.78265643 -0.1693713 2.0810702 -2.0222096 0.07063688 -0.7984352 0.35479617 -0.270784
-0.36266798 0.021128315 -1.6479372 1.2653657 -0.98496735 -1.956955 -1.3644346 -0.46634516
-2.351119 0.01572047 -0.1697079 -1.2779949 0.004206482 0.54353315 -0.3312982 -0.56270564
-0.3949041 -0.7246563 -0.09654732 -0.74697554 -0.705427 -0.25291616 0.11773659 0.4076302
-0.353054 -2.071278 -0.7419813 1.3176712 1.0025502 0.11598644 -0.8505089 -0.81483305
-0.90763646 -0.039091893 -0.83396673 -0.03420181 0.8835456 0.6195188 0.011603479 0.37140942
-0.69122463 -0.8825484 0.062629625 -0.51865447 0.50259304 0.6451332 -0.32262075 -1.2238705
0.09407293 -0.16220917 -0.11938072 -0.0048138653 0.3735419 0.21854877 0.91911864 0.5786508
0.15830816 -0.18294357 1.3352748 0.010056871 -0.48978585 0.27702907 1.5557511 0.40915546
0.17853838 -0.04126059 0.9781966 -0.37081075 0.40713784 -0.6720806 -0.64150393 0.571819
-0.011828423 0.05337701 -1.6484399 -0.6240001 -0.07853538 -0.087666035 -0.20263365 -2.0970328
0.58700573 0.26879957 -1.2771584 -0.10689356 1.3358512 2.6127498 0.17193918 0.17411247
-0.046955198 -0.45035282 -0.99212915 -0.44941273 0.38016233 1.8658893 0.74526596 0.4168622
0.57061785 -0.74318045 1.2081553 0.32409278 -0.7516955 0.74588907 -0.48825717 0.012287656
0.23327422 -0.5731155 0.033318102 -0.23125806 0.2757543 -0.8553873 -1.8816803 0.9433104

fc3.bias f4 [64]
00000000: c1a0 18bf e6c3 12bf a69f 5ebf 45c2 c5bf
00000010: 94d4 6e40 4b52 9dbf 0ca9 cdba 3904 c5bf
00000020: 0138 d2be 5f08 12c0 c389 e6bd 80a7 80bf
00000030: addc 90be 3c97 18bd 6549 98bf d79d 67bf
00000040: 6b7b 82bf e16c 9bbf f654 36c0 4c4d b5bf
00000050: e2b2 75bf 35e1 73bf 9574 3abb 25cd 2dbe
00000060: 3857 bcbf 56ef acbf a8db 71be 40ce 39bf
00000070: 58d6 a4be 1784 27c0 02d4 88bf e7fe 84bf
00000080: 8ce4 0cbc d27b 58be ee1e a6bb df81 9a40
00000090: 69a4 95bf 48dd a4be 03f8 54be a5a8 e0bf
000000a0: 57c1 a4be 41d4 6f41 39c9 8ebf d2cd 43bf
000000b0: 751a 44ba 6d15 2ac0 94bf 18bf 74a4 b3bf
000000c0: 6e0e fabe 46d0 3fbf 4537 fabf e195 c7bd
000000d0: cda2 aabe a0a0 39bf 0cb1 99bf 3137 33bf
000000e0: 212b d9be ed1f 52c0 7d1a a4be 0f93 cdbf
000000f0: 9ccc e1bd d92c 0abb 0b41 faab 4986 f2bf
-0.5962029 -0.5733017 -0.86962354 -1.5449911 3.7317247 -1.2290739 -0.0015690639 -1.5391914
-0.41058353 -2.281761 -0.11256745 -1.0051117 -0.28293362 -0.037253603 -1.1897398 -0.9047522
-1.0193914 -1.2142602 -2.8489356 -1.4164214 -0.9597608 -0.95265514 -0.0028450836 -0.16972788
-1.4714117 -1.351054 -0.23618948 -0.7258034 -0.3219478 -2.6174371 -1.06897 -1.039029
-0.008599412 -0.21140984 -0.005069605 4.8283534 -1.1690799 -0.32200074 -0.20797734 -1.7551466
-0.32178757 14.98932 -1.1155158 -0.7648593 -0.0007480749 -2.6575577 -0.59667325 -1.4034562
-0.48839134 -0.74927175 -1.9548117 -0.09745384 -0.33327332 -0.7251072 -1.2007155 -0.7000609
-0.42415717 -3.2831986 -0.3205146 -1.6060504 -0.11025354 -0.002108386 -1.7781621e-12 -1.894723

head.weight f4 [4, 64]
00000000: a682 b33e 6b71 b0bc 266a d83f 4b59 97bf
00000010: 5dd3 9e3c 54f2 2b3d 2bef de3e c790 e2be
00000020: 39b3 013d a5c8 33bf 5bb6 1a40 818a 253f
00000030: c336 85bf bc96 59bd 2373 223f 8901 1cbd
00000040: d3ef ae3e a603 05bf dc9c 7b3f 946d adbf
00000050: f6d1 28bf c727 003e 71ea d640 47ef 2341
00000060: 16df 97bf 766f dcbe 6321 3abf 3d0a be3f
00000070: f3a6 153c 8a02 99bc 5561 0cbe 58ef 6d40
00000080: e987 6a41 39b5 8f3d b789 b9bf ac3c be3f
00000090: 366a 6340 672b 8bbe 0bd2 afbd 9b1b b53d
000000a0: 22e0 f63f eaff cb40 58c3 1240 1eb5 6a3f
000000b0: 1049 a53e 2dde 423f a6bd 4dbe d57b be3e
000000c0: 1b33 2bbe cb7f 6cbe ce46 6abf 870f 1ebf
000000d0: 8d54 c13e 6d46 6abd 55bd 4040 313e 6b3e
000000e0: e23c 9a3f 4f05 03be 484c dd3e 2dab 99bf
000000f0: 6d33 303e 5287 e7bd 1a85 b340 c7cc f03f
00000100: df75 c23e 0893 0fbd fd7d 193f 9ee0 783e
00000110: d1a5 2a3e 6b5b 943d 807f 333f 0dcb aebe
00000120: 0568 823d 22b8 cbbe fc8d ac3f a6c0 1dbf
00000130: 1acf 6dbe 14f4 dc3e 2abb 4d3f db1c b9bd
00000140: 8a3b 0b3f 8ff7 533f c923 593f 5db9 bbbc
00000150: 120e 3abf 918a 783f 46af 3d40 1b09 2241
00000160: ddb0 a0be 7eeb 87be d621 86bf 5800 563d
00000170: e1b6 2ebe b176 33be 1fc1 c3bd 16ff 5c40
00000180: f3b7 5141 76ad 2c3f 550e e53d be13 513f
00000190: b909 4240 9e5d d13e 24bc 9f3c 35f9 db3c
000001a0: 2f29 553e a8a6 cc40 7843 b73f cf8a cd3e
000001b0: e7d7 0a3e d6f0 06bf 81c9 a7be 5fa9 91be
000001c0: 018f 62bd e0d0 94be 6655 133f b0f2 5ebf
000001d0: 3455 e93e 57cc 363e 7b0a 6b40 3c51 ab3d
000001e0: 75ac bb3f b9bc d4be 6cbe 503f 0ff6 61bf
000001f0: 9494 e33d 2262 f63e a44e 5f40 6488 e13f
00000200: 8b30 103f 08f5 acbd d181 1841 6eec 94bf
00000210: 2aa4 9a3f 6d5d 9ebd 6d96 ac3e 65db c7bd
00000220: d763 d23d 4f5f 9fbf 5d76 1240 fa1b c03e
00000230: 031b c1be 05f4 2dbd 9c2a 523d 10e3 c83d
00000240: d3ef 083f 17a0 15bf 1375 743f c75f 0abf
00000250: 8f4a 66bf 29f7 abbf 0972 d240 6d7b 3c41
00000260: fa09 4bbe f600 93be 1790 6bbf b5ba ae3f
00000270: ce02 1bbe 00a4 19be 1eda c5bd d438 6040
00000280: b320 6241 18f0 843e 0cf4 1fbd 23a3 a53f
00000290: 9692 6040 211f 29bc 515d e83b 9a15 b63d
000002a0: be40 6b3f 872b ca40 3470 acbd 8450 b23e
000002b0: 7f41 b63e 5724 193f de3d dcbd edf7 7abd
000002c0: 3b34 4dbd c722 b8bd b1e6 8abf f3fe 54bf
000002d0: 4187 a13f 9055 c73c 6aae 8040 8d78 b43d
000002e0: 9d41 ef3f 72c0 1ebe 6c4c 043f cd2a 74bd
000002f0: 7dde 633e 5843 0e3f 08cd cd40 1432 0b3f
00000300: c545 233f cb3e 853c d0c0 9940 e0ba 5abf
00000310: 3a5b a03f 3aba 04be 8bcc 173f e699 9bbe
00000320: d133 373e d430 17bf 205a 3e40 b0f3 b9bf
00000330: dd76 d4bf 725e 003f f1c6 943f 4793 853d
00000340: 2075 eabd 9b88 3a3f 085f 773e 9601 21bf
00000350: c91e 18bf db84 d1be 879e f340 9d18 5241
00000360: 62ec 773f e2d8 3fbe 06e2 6dbf fd5c 053f
00000370: b2f6 efbd 63ae f1bd 366e 16be 2d56 9640
00000380: 84d7 3341 01c0 29be fccd 6dbd 2406 ce3e
00000390: 00b6 a340 2152 193f e6af 62be 6b5e c5bc
000003a0: f68d cb3e 1f15 cc40 460c 7b3e d47d 453f
000003b0: 7f65 433f ec38 f0be 8a8d b0be df85 65be
000003c0: 3d0d c1bd a5db 8cbe 9aba a6be 9ea6 88bd
000003d0: 2cbe 0c40 1dd9 54bd dbde 5240 c1f4 03bf
000003e0: 4b34 a23f 69a4 f2bd 35af c5be 2bea 8ebf
000003f0: 56ff 763d e27f f5bd b810 9c40 9025 9c3f
0.35060614 -0.021538457 1.6907394 -1.1824125 0.019387895 0.04197915 0.43541846 -0.4425108
0.03166506 -0.70228034 2.41738 0.64664465 -1.0407337 -0.053122267 0.63456935 -0.0380874
0.34167346 -0.5195869 0.98286223 -1.3549066 -0.65945375 0.12515174 6.7161183 10.245917
-1.1864955 -0.43053788 -0.72707194 1.4846874 0.009134042 -0.018677969 -0.13709004 3.7177334
14.658181 0.07016987 -1.4495152 1.4862266 3.5533576 -0.2718155 -0.085849844 0.08843156
1.928715 6.3749895 2.2931728 0.9168261 0.32282305 0.76120263 -0.20091876 0.3720385
-0.16718714 -0.23095624 -0.9151429 -0.6174244 0.3775982 -0.05719607 3.011556 0.22972943
1.204983 -0.12794994 0.4322226 -1.2005364 0.17207117 -0.11305107 5.6099977 1.8812493
0.37980554 -0.03505233 0.5995787 0.24304435 0.16664816 0.07243999 0.70116425 -0.3413929
0.063674964 -0.3978892 1.348083 -0.61622083 -0.23223534 0.43154967 0.80363715 -0.09038707
0.54387724 0.8279962 0.8482023 -0.022915537 -0.7267772 0.97086436 2.9638228 10.127223
-0.31384936 -0.26546854 -1.0479076 0.05224642 -0.1706195 -0.17525746 -0.09558319 3.4530692
13.1074095 0.6745218 0.11184374 0.8167075 3.0318434 0.40891737 0.019498892 0.02685223
0.20816492 6.395344 1.4317465 0.40144965 0.13558923 -0.52711236 -0.32770923 -0.28449532
-0.05531216 -0.2906561 0.5755218 -0.8708906 0.45572817 0.17851387 3.6725147 0.083651036
1.4662005 -0.41550234 0.8154056 -0.8826608 0.111123234 0.48121744 3.4891748 1.7619748
0.5632407 -0.084451735 9.531693 -1.1634653 1.2081349 -0.07732663 0.33708516 -0.09758643
0.10272949 -1.2450961 2.2884743 0.37521344 -0.3771592 -0.042469043 0.051310167 0.09808934
0.5349094 -0.584474 0.9549114 -0.54052395 -0.8995752 -1.3434802 6.5764203 11.780133
-0.19828025 -0.2871167 -0.9201674 1.3650728 -0.15137789 -0.15003967 -0.09660743 3.5034685
14.132983 0.25964427 -0.0390511 1.294041 3.508947 -0.010322363 0.0070912023 0.08890839
0.91895664 6.3178134 -0.084198385 0.34827054 0.35596845 0.59821075 -0.10753988 -0.061271597
-0.05009864 -0.08991008 -1.0851651 -0.8320152 1.2619401 0.024332792 4.021291 0.08812056
1.8691899 -0.155031 0.5167911 -0.05961113 0.22252841 0.5557151 6.431278 0.5437329
0.63778335 0.016265294 4.8047867 -0.854414 1.252784 -0.12961665 0.5929648 -0.30390853
0.1789086 -0.5905888 2.9742508 -1.4527493 -1.6598774 0.5014411 1.1623212 0.065222315
-0.11448121 0.72864693 0.24157345 -0.62893045 -0.59421974 -0.40921673 7.6131015 13.131009
0.96845067 -0.18735078 -0.9292301 0.52095014 -0.11716975 -0.1180084 -0.1469048 4.6980195
11.240116 -0.1657715 -0.05805777 0.4023906 5.115967 0.59890944 -0.22137412 -0.024092874
0.39756745 6.3775783 0.245164 0.77145123 0.76326746 -0.46918428 -0.34482986 -0.22414349
-0.09426353 -0.27511325 -0.3256424 -0.06672405 2.1991072 -0.051964868 3.294852 -0.5154534
1.2672209 -0.11847765 -0.38610235 -1.1165212 0.0603021 -0.11987282 4.877041 1.2198963

head.bias f4 [4]
00000000: 44da b845 c45d bc45 0330 de45 c9a7 f445
5915.283 6027.7207 7110.0015 7828.973
