src/model-HIV.pth (torch, 63832 bytes, 8 tensors)

fc_1.weight f4 [100, 42]
0.080211505 -0.25363928 -0.040158458 0.09138112 -0.050336227 -0.013308709 -0.017167721 -0.06152065
0.17824365 -0.13499497 -0.02667061 -0.15279241 -0.20738702 -0.19432183 -0.1680344 -0.13659759
-0.16821614 -0.015157456 0.0909681 0.012495325 0.051214438 0.07923923 0.035962667 -0.05285048
0.036930226 -0.26686597 -0.061263394 -0.11646821 -0.1133625 -0.14286932 -0.025916507 -0.031742305
0.12031907 -0.0043019587 -0.24198431 -0.20778163 -0.082508355 -0.17296442 0.14093971 -0.1352383
-0.15334181 -0.10470998 -0.054468807 -0.0969239 -0.041629646 -0.1606264 0.021190317 -0.098091386
-0.14236932 -0.048073377 -0.050624546 0.09160741 -0.16181393 -0.018797915 -0.06094162 -0.17290615
-0.17203046 -0.1727661 -0.103209905 -0.030588306 0.041742824 0.08459816 -0.019827459 0.018185027
-0.05934285 0.050993685 -0.12387857 -0.07601772 -0.20109563 -0.01880405 -0.068290375 -0.13407268
0.03815641 0.021359101 -0.03557425 -0.020061882 -0.00941447 0.027746215 -0.008501676 -0.19752395
-0.18649346 -0.12802894 -0.0023014524 -0.05841245 29.934566 -4.589589 33.550346 -2.341922
-1.938915 39.812393 4.3562365 -24.750277 15.205146 -25.98944 -23.135885 14.25671
-24.561445 -19.053356 -21.9343 -22.41515 -17.54536 -10.817579 15.404724 -21.941568
11.5404 -26.460836 -21.849691 31.126596 -25.91932 -22.372757 -26.54271 -24.12996
-20.310028 -4.974059 -23.02274 -17.531498 -21.868235 -20.257902 -15.764113 -8.280061
14.08736 -10.7846575 31.146933 -5.2273636 -8.261186 15.826153 -0.040283315 0.13325255
-0.06986706 -0.098101884 0.045989633 0.031112716 -0.07696595 -0.033302538 0.055741668 -0.08603117
-0.042857043 0.07754819 -0.11504398 0.07168503 0.047697872 0.1305703 -0.07888833 0.07416496
-0.08866392 0.0322994 -0.049508788 0.058908567 0.014058098 -0.10729073 -0.11762713 -0.056132294
0.074588075 -0.124898836 -0.045987256 0.153895 -0.023968443 -0.12726384 -0.057123885 -0.08580587
-0.09459466 -0.11933316 0.09762208 0.0610954 -0.06905377 0.09802832 -0.023929417 -0.146592
-0.035906743 -0.19917132 -0.08920144 -0.13280982 -0.0022549324 -0.18827063 -0.21002428 -0.005167742
-0.06095612 -0.110720016 -0.039835498 0.054013353 -0.081852615 -0.21294792 -0.1675218 -0.14781496
-0.033846065 -0.15913111 -0.044868793 -0.033529304 -0.09598559 0.0021911052 -0.03933459 -0.10704911
-0.05435595 -0.04603716 0.04357302 -0.049958643 -0.07271859 -0.093413144 -0.008542733 -0.18265419
0.056067333 -0.0068069636 0.014527808 0.04636259 -0.18165742 0.051068977 0.017097363 -0.19964623
-0.11601776 -0.019367334 -0.021044174 0.012483297 -0.16052173 -0.06268924 -0.047213145 0.00688045
-0.203082 -0.21997996 0.005048311 -0.0738784 0.0107064275 0.026599795 -0.020449331 -0.14869814
-0.03408428 -0.1822181 -0.11784988 -0.1579616 -0.21835533 -0.106866755 -0.15452324 0.059288092
-0.14730355 -0.17475343 -0.18718101 -0.039268732 -0.024005786 -0.16836582 -0.10008782 -0.124592245
-0.005127898 -0.19021209 -0.02391353 -0.07291877 -0.0005851491 -0.1644778 -0.09115532 -0.05226524
-0.089617714 -0.15190749 -0.14220229 -0.18377133 0.04854207 -0.08606161 -0.00070065283 0.03938468
00000000: ee45 a43d 02dd 81be 327d 24bd 0626 bb3d
00000010: 5c2d 4ebd c50c 5abc 52a3 8cbc 14fd 7bbd
00000020: 8185 363e 1f3c 0abe 537c dabc 9d75 1cbe
00000030: 435d 54be 4dfc 46be 3611 2cbe 3de0 0bbe
00000040: da40 2cbe fa56 78bc 7c4d ba3d 31b9 4c3c
00000050: 3bc6 513d 2d48 a23d 974d 133d bf79 58bd
00000060: 2644 173d a8a2 88be 53ef 7abd e386 eebd
00000070: 992a e8bd 564c 12be db4e d4bc 3804 02bd
00000080: d869 f63d 72f7 8cbb bcca 77be b5c4 54be
00000090: 24fa a8bd 961d 31be 8052 103e e97b 0abe
000000a0: a305 1dbe 3072 d6bd af1a 5fbd 0a80 c6bd
000000b0: d983 2abd 3f7b 24be 5197 ad3c 23e4 c8bd
000000c0: 43c9 11be 97e8 44bd af5b 4fbd aa9c bb3d
000000d0: 8db2 25be 16fe 99bc ec9d 79bd 4f0e 31be
000000e0: c128 30be 99e9 30be b75f d3bd 5494 fabc
000000f0: 86fa 2a3d cd41 ad3d 326d a2bc c4f8 943c
00000100: 7d11 73bd c1de 503d 0cb4 fdbd 2eaf 9bbd
00000110: 03ec 4dbe f30a 9abc d3db 8bbd 594a 09be
00000120: e549 1c3d 48f9 ae3c 4eb6 11bd d158 a4bc
00000130: 263f 1abc 084c e33c 9d4a 0bbc b843 4abe
00000140: 24f8 3ebe 051a 03be f7d3 16bb e541 6fbd
00000150: fe79 ef41 eadd 92c0 8e33 0642 0de2 15c0
00000160: 5e2e f8bf e43f 1f42 4a66 8b40 9100 c6c1
00000170: 4748 7341 60ea cfc1 4b16 b9c1 7c1b 6441
00000180: d77d c4c1 466d 98c1 7279 afc1 3a52 b3c1
00000190: e65c 8cc1 ce14 2dc1 c079 7641 5588 afc1
000001a0: 7aa5 3841 cbaf d3c1 2bcc aec1 4503 f941
000001b0: c45a cfc1 68fb b2c1 7857 d4c1 280a c1c1
000001c0: f07a a2c1 7e2b 9fc0 922e b8c1 8240 8cc1
000001d0: 25f2 aec1 2f10 a2c1 cf39 7cc1 217b 04c1
000001e0: d465 6141 f58d 2cc1 eb2c f941 9046 a7c0
000001f0: d12d 04c1 ec37 7d41 1e00 25bd 5b73 083e
00000200: 7616 8fbd a4e9 c8bd a05f 3c3d 18e0 fe3c
00000210: 53a0 9dbd 3e68 08bd 6051 643d 1c31 b0bd
00000220: de8a 2fbd 96d1 9e3d 2e9c ebbd 9acf 923d
00000230: d85e 433d 39b4 053e 3490 a1bd cce3 973d
00000240: 6e95 b5bd 604c 043d bac9 4abd 1c4a 713d
00000250: f053 663c 3ebb dbbd 7ee6 f0bd faea 65bd
00000260: a2c1 983d f6ca ffbd 225d 3cbd a796 1d3e
00000270: 7859 c4bc 7451 02be bcfa 69bd fdba afbd
00000280: d8ba c1bd f264 f4bd 16ee c73d 2c3f 7a3d
00000290: 106c 8dbd 12c3 c83d a007 c4bc 371c 16be
000002a0: f312 13bd 91f3 4bbe 3faf b6bd 4cff 07be
000002b0: 7dc7 13bb 04ca 40be 9b10 57be 2956 a9bb
000002c0: 20ad 79bd 2dc1 e2bd 8c2a 23bd 1b3d 5d3d
000002d0: 58a2 a7bd 050f 5abe d68a 2bbe ce5c 17be
000002e0: 2ca2 0abd 44f3 22be 57c8 37bd 0656 09bd
000002f0: 1894 c4bd a598 0f3b 4f1d 21bd 903c dbbd
00000300: 58a4 5ebd 7691 3cbd 9f79 323d 6fa1 4cbd
00000310: 7ced 94bd 644f bfbd d2f6 0bbc b309 3bbe
00000320: dca6 653d f30c dfbb 0b06 6e3c b3e6 3d3d
00000330: 6704 3abe b42d 513d c50f 8c3c 1070 4cbe
00000340: b89a edbd 3ea8 9ebc d564 acbc be86 4c3c
00000350: cf5f 24be 3763 80bd 9262 41bd 6675 e13b
00000360: baf4 4fbe 6d42 61be 4d6c a53b 8f4d 97bd
00000370: 036a 2f3c d0e7 d93c 5b85 a7bc 5344 18be
00000380: f59b 0bbd 6297 3abe 475b f1bd b0c0 21be
00000390: 8a98 5fbe f5dc dabd 573b 1ebe 12d8 723d
000003a0: bed6 16be 90f2 32be 61ac 3fbe 40d8 20bd
000003b0: c8a7 c4bc 1768 2cbe d8fa ccbd 382a ffbd
000003c0: ed07 a8bb f5c6 42be 4fe6 c3bc 7056 95bd
000003d0: b164 19ba de6c 28be a4af babd 1414 56bd
000003e0: 7e89 b7bd a38d 1bbe 7a9d 11be 8d2e 3cbe
000003f0: 0dd4 463d 1241 b0bd 04ac 37ba d551 213d

fc_1.bias f4 [100]
0.0022585327 -0.11329561 52.073685 0.12126307 0.025891677 0.06890266 -0.09140443 -0.03012449
-0.077283725 0.027209293 -0.14849931 0.0059549394 -0.04841982 -0.18958806 -0.40347973 0.13076137
-0.16576146 -0.05808146 52.44962 -0.1152609 1.7060012 -0.22387457 0.5666321 8.197613
-0.021008715 -0.43759635 50.769314 -0.08064781 0.21621111 0.021698318 -0.18310304 -0.19725911
0.47191507 56.295853 -0.07655359 8.659223 0.06928754 -0.14330877 1.670965 -0.22440198
-0.037555523 -0.1340944 -0.16362762 -0.04797583 -0.019534886 -0.19821815 0.06603838 -0.008770645
-0.14038439 -0.105630115 -0.22950585 1.6947216 53.053432 -0.49258104 -0.17965703 0.06826154
-0.055687338 53.815548 -0.03350555 -0.031946253 0.09684298 -0.119860165 -0.047164395 -0.073054574
57.927002 -0.1425913 0.1097712 48.451603 53.996246 0.11140324 -0.18181333 0.060383618
1.1293004 3.857429 -0.1303229 0.09827365 0.088284716 -0.10152113 0.92132825 56.24532
0.7986036 58.023426 -0.22742425 -0.46541208 1.3288362 -0.05635295 0.116025284 57.38202
0.0792197 -0.11960742 -0.035027385 0.03653483 0.6610565 -0.13238771 0.16667347 -1.3183608
-0.09670411 0.103870966 -0.15649708 -0.07813473
00000000: e403 143b 8707 e8bd 744b 5042 c658 f83d
00000010: c81a d43c d61c 8d3d 3f32 bbbd a2c7 f6bc
00000020: ee46 9ebd 06e6 de3c 3410 18be a721 c33b
00000030: dc53 46bd 5f23 42be e594 cebe 4fe6 053e
00000040: 5fbd 29be d3e6 6dbd 69cc 5142 e80d ecbd
00000050: 3f5e da3f 603f 65be cd0e 113f 6c29 0341
00000060: 781a acbc a10c e0be c713 4b42 ae2a a5bd
00000070: 7266 5d3e acc0 b13c 5d7f 3bbe 4bfe 49be
00000080: da9e f13e f42e 6142 21c8 9cbd 2d8c 0a41
00000090: a0e6 8d3d 89bf 12be 2ee2 d53f a2c9 65be
000000a0: d2d3 19bd 0b50 09be 008e 27be 4e82 44bd
000000b0: a007 a0bc b3f9 4abe 213f 873d c0b2 0fbc
000000c0: edc0 0fbe 9a54 d8bd 9503 6bbe a3ec d83f
000000d0: b736 5442 9533 fcbe 03f8 37be b5cc 8b3d
000000e0: 6818 64bd 1f43 5742 1e3d 09bd 13da 02bd
000000f0: 9d55 c63d 3f79 f5bd 742f 41bd a39d 95bd
00000100: 40b5 6742 7403 12be b9cf e03d 71ce 4142
00000110: 28fc 5742 6227 e43d 462d 3abe d054 773d
00000120: ea8c 903f 1ee0 7640 5e73 05be b243 c93d
00000130: 9ece b43d 4fea cfbd 2bdc 6b3f 35fb 6042
00000140: 4971 4c3f fd17 6842 e7e1 68be 7e4a eebe
00000150: 4e17 aa3f 5ad2 66bd aa9e ed3d 3087 6542
00000160: f03d a23d bcf4 f4bd e078 0fbd 8ca5 153d
00000170: 003b 293f a590 07be 73ac 2a3e 0cc0 a8bf
00000180: ce0c c6bd 4dba d43d c540 20be 1a05 a0bd

fc1.weight f4 [64, 100]
-0.036864363 -0.13449344 1.6876439 -0.017090224 -0.015990337 -0.02476901 0.036936693 -0.050363217
0.0008387363 0.029466286 0.011925099 0.0019450308 -0.054676306 -0.0876783 0.3694695 0.09494113
0.0801738 -0.014038556 4.6936245 0.03720134 -0.12999786 0.057207886 -0.071073994 -0.0016723522
0.093935914 -0.25286236 5.025317 0.025346972 0.09462226 -0.013411945 -0.032441758 0.04778477
-0.26628596 2.4166915 0.08250415 0.41166383 -0.1167418 -0.050348498 -0.11943984 0.062217087
-0.017179945 0.03717748 -0.023575414 -0.03522338 0.024567425 -0.06511356 -0.03902463 -0.079237506
0.057736065 -0.0473614 0.06661608 0.0346285 1.7952845 0.26821908 0.1498057 0.1443508
0.040500388 4.4272833 -0.04675435 0.07140872 -0.06344062 -0.007782651 -0.05275007 -0.06605191
3.8179076 0.09068375 0.03945692 4.43385 4.7231474 0.07755507 -0.0797179 -0.010389609
-0.07749565 0.00019494246 -0.09515528 -0.042335443 0.07107235 0.1363978 -0.1273202 4.4067307
-0.0045555737 3.282888 -0.055017248 0.2867848 -0.07371916 -0.049713183 0.06784447 4.2290077
-0.030327259 0.26457796 -0.12609981 -0.048612464 -0.2540541 -0.007944621 0.07150606 0.12942477
-0.058051538 0.032639235 0.1581016 -0.058004227 0.044901736 -0.013190189 8.721521 -0.04277433
-0.084058635 -0.012052349 -0.020766856 0.043374017 0.09739181 0.04890512 -0.08710732 -0.068208806
0.016756937 -0.1147082 0.3286505 0.071904235 0.037602194 -0.16148001 -0.3086426 -0.023894213
0.35059646 0.034633774 -0.1705713 1.7150142 -0.06289047 -0.2284381 0.2401045 0.06669032
-0.11193871 -0.010367998 0.022454996 -0.0641198 -0.40123716 6.093235 -0.085615166 4.641956
0.023595652 -0.053716194 0.0031949154 0.009731644 -0.03212838 -0.006142329 -0.011488838 0.014685594
-0.09905913 -0.03795466 0.05016524 -0.08644389 -0.091191165 -0.07984601 -0.1305446 -0.013655288
8.024186 0.26814657 -0.14725578 0.01141385 0.033884194 2.2908795 -0.017855957 -0.046598338
-0.1634267 0.08022221 -0.16744387 -0.10561485 3.567684 -0.06406392 -0.13949455 -1.0268567
1.1234692 0.05204042 -0.095464274 0.045818612 -0.07419349 -0.034867488 0.010531273 -0.027180327
-0.022978202 -0.18206638 0.03753308 2.3805628 -0.0931976 4.3335457 -0.078873 0.28937444
-0.0012189746 0.0059477836 -0.050959468 2.7093647 0.043013856 -0.22389968 -0.027445186 -0.032033246
-0.46989474 -0.033681966 -0.08355207 0.04577357 0.05041679 -0.1646646 -0.17998351 -0.010213755
-0.032384712 -0.0091624325 -0.14168602 -0.042725563 0.00232356 -0.045889676 0.028514076 0.09355054
0.060241304 0.09859824 -0.03144225 -0.12003895 -0.024909832 0.030642468 0.008363853 -0.06743596
0.09502202 -0.079483695 -0.16489848 0.0018746984 0.079553135 0.068708315 -0.05876227 0.053920116
0.0223549 0.072253846 -0.114733726 -0.09310528 0.025311694 -0.03796734 0.01285803 -0.028150754
-0.06151129 -0.22858678 0.008472742 -0.071058996 -0.10814269 0.06492705 -0.04982018 0.012759023
-0.07710214 0.061745822 0.0022865897 -0.06636776 0.05918563 -0.020172337 -0.012233481 -0.0066328794
0.008416469 -0.00038913637 -0.0055369944 -0.10977895 -0.17369823 -0.043266885 -0.0958686 0.028953297
00000000: 16ff 16bd a6b8 09be b704 d83f cc00 8cbc
00000010: 2bfe 82bc 61e8 cabc ee4a 173d a949 4ebd
00000020: a4de 5b3a 4863 f13c 7e61 433c 67f0 fe3a
00000030: 43f4 5fbd ae90 b3bd 1b2b bd3e 7f70 c23d
00000040: 2932 a43d f901 66bc 2c32 9640 6f60 183d
00000050: 291e 05be d152 6a3d 3e8f 91bd d432 dbba
00000060: 7961 c03d 2d77 81be 66cf a040 74a4 cf3c
00000070: 51c9 c13d c6bd 5bbc a6e1 04bd f7b9 433d
00000080: a256 88be 13ab 1a40 f0f7 a83d 9ac5 d23e
00000090: 5316 efbd 3a3a 4ebd e09c f4bd 58d7 7e3d
000000a0: f5bc 8cbc 6a47 183d 3a21 c1bc 6446 10bd
000000b0: a041 c93c 425a 85bd 4ad8 1fbd 4647 a2bd
000000c0: a77c 6c3d 07fe 41bd 036e 883d 9dd6 0d3d
000000d0: e2cb e53f 0354 893e aa66 193e b2d0 133e
000000e0: bce3 253d 4eac 8d40 7d81 3fbd bc3e 923d
000000f0: 28ed 81bd 9c05 ffbb 7510 58bd 3946 87bd
00000100: 9958 7440 67b8 b93d 949d 213d 19e2 8d40
00000110: 0624 9740 31d5 9e3d 2343 a3bd 2e39 2abc
00000120: 0ab6 9ebd 7869 4c39 c5e0 c2bd ee67 2dbd
00000130: 618e 913d ddab 0b3e 3a60 02be f003 8d40
00000140: ec46 95bb d61a 5240 c459 61bd 75d5 923e
00000150: 12fa 96bd 0da0 4bbd 0bf2 8a3d 0854 8740
00000160: df70 f8bc c376 873e 4f20 01be dd1d 47bd
00000170: 6113 82be 282a 02bc c571 923d ed87 043e
00000180: 73c7 6dbd b8b0 053d 63e5 213e d795 6dbd
00000190: e2ea 373d aa1b 58bc 5a8b 0b41 2334 2fbd
000001a0: ef26 acbd 3777 45bc 411f aabc f4a8 313d
000001b0: 5b75 c73d bc50 483d 5365 b2bd 0fb1 8bbd
000001c0: d845 893c 22ec eabd e144 a83e 8742 933d
000001d0: c204 1a3d 045b 25be 6706 9ebe ccbd c3bc
000001e0: 6181 b33e 25dc 0d3d 3eaa 2ebe 9685 db3f
000001f0: b8cc 80bd adeb 69be f4dd 753e ef94 883d
00000200: 1f40 e5bd 89de 29bc 8af3 b73c 3e51 83bd
00000210: f56e cdbe c8fb c240 0157 afbd e78a 9440
00000220: ab4b c13c 8305 5cbd c961 513b 7971 1f3c
00000230: 0c99 03bd 9745 c9bb ae3b 3cbc d89b 703c
00000240: 83df cabd 5876 1bbd 117a 4d3d 7f09 b1bd
00000250: 6fc2 babd 4e86 a3bd 7cad 05be 6eba 5fbc
00000260: 1163 0041 824a 893e 38ca 16be 2801 3b3c
00000270: 27ca 0a3d c59d 1240 a846 92bc e6dd 3ebd
00000280: 5459 27be 8b4b a43d 6876 2bbe 994c d8bd
00000290: ef54 6440 f233 83bd a9d7 0ebe 0a70 83bf
000002a0: d7cd 8f3f 5628 553d c682 c3bd 4cac 3b3d
000002b0: c2f2 97bd 36d1 0ebd 5c8b 2c3c 47a9 debc
000002c0: c83c bcbc 9c6f 3abe 49bc 193d 245b 1840
000002d0: 62de bebd 68ac 8a40 2b88 a1bd e328 943e
000002e0: 00c6 9fba a0e5 c23b e0ba 50bd 3b66 2d40
000002f0: 4c2f 303d f545 65be bad4 e0bc 4b35 03bd
00000300: 0b96 f0be 1af6 09bd 591d abbd 117d 3b3d
00000310: d681 4e3d d69d 28be 994d 38be 9857 27bc
00000320: d5a5 04bd 071e 16bc 2416 11be 0001 2fbd
00000330: de46 183b d0f6 3bbd 5a96 e93c 6d97 bf3d
00000340: 96bf 763d e0ed c93d 97c9 00bd fbd6 f5bd
00000350: b40f ccbc ea05 fb3c 8b08 093c dd1b 8abd
00000360: e89a c23d 59c8 a2bd 26db 28be 71b8 f53a
00000370: c1ec a23d f2b6 8c3d b5b0 70bd 57db 5c3d
00000380: a021 b73c d3f9 933d 84f9 eabd fbad bebd
00000390: 785a cf3c a483 1bbd 7daa 523c 699c e6bc
000003a0: 43f3 7bbd a712 6abe 41d1 0a3c 6187 91bd
000003b0: ea79 ddbd 79f8 843d 3f10 4cbd 390b 513c
000003c0: bae7 9dbd 30e9 7c3d 9cda 153b d2eb 87bd
000003d0: a26c 723d 7540 a5bc f06e 48bc a058 d9bb
000003e0: 3be5 093c 0005 ccb9 ad6f b5bb c9d3 e0bd
000003f0: f3dd 31be 9e38 31bd c256 c4bd 772f ed3c

fc1.bias f4 [64]
45.52696 45.20671 0.0137289455 -0.121214874 -0.37523764 -0.157653 0.38025635 -0.026042936
0.12173283 0.27732423 0.045661896 -0.412081 4.9197373e-05 0.3122682 -0.07506399 -0.12929383
0.02265681 48.107067 -0.19344082 0.058899317 -0.10637539 8.7860404e-05 -0.023009837 -0.06508555
-0.08003449 -0.3902975 11.774317 -0.29198235 46.782154 0.1888193 -0.021043051 -0.10510934
-0.045519 0.97970694 -0.044147797 -0.03261971 -0.3286063 -0.07423955 1.0591028 -0.22656576
-0.25896218 0.2571883 0.038796984 0.22450972 0.24816094 49.348553 1.2285057 -0.042517472
50.971188 -0.15328081 -0.00068847084 -0.15139453 0.033194978 -0.095697775 -0.070170015 -0.14928724
1.7880876 47.680084 51.33498 -0.2542644 0.07259414 -0.009712665 0.021929799 -0.13303564
00000000: 9b1b 3642 acd3 3442 5fef 603c 813f f8bd
00000010: 261f c0be ca6f 21be f6b0 c23e ff57 d5bc
00000020: 104f f93d 71fd 8d3e f807 3b3d 48fc d2be
00000030: 4759 4e38 9ee1 9f3e 26bb 99bd 9a65 04be
00000040: c69a b93c a36d 4042 5a15 46be 6940 713d
00000050: 57db d9bd b241 b838 207f bcbc 934b 85bd
00000060: 1fe9 a3bd 13d5 c7be 9a63 3c41 b67e 95be
00000070: ed20 3b42 d959 413e 7a62 acbc 9143 d7bd
00000080: 2272 3abd 13ce 7a3f 52d4 34bd 3f9c 05bd
00000090: 163f a8be e80a 98bd ae90 873f db00 68be
000000a0: b196 84be 2fae 833e 96e9 1e3d e0e5 653e
000000b0: e71d 7e3e eb64 4542 ad3f 9d3f cd26 2ebd
000000c0: 7fe2 4b42 a5f5 1cbe 7f7a 34ba 2b07 1bbe
000000d0: 75f7 073d 32fd c3bd 4cb5 8fbd c1de 18be
000000e0: 0ee0 e43f 68b8 3e42 0557 4d42 f22e 82be
000000f0: 3dac 943d df21 1fbc 1fa6 b33c 7f3a 08be

fc2.weight f4 [64, 64]
-0.16596028 -0.12142858 -0.044350967 0.02000159 0.04369923 -0.029711425 -0.022125358 -0.10579535
-0.03797414 -0.04061404 0.050786227 -0.04526652 0.09971182 0.09359822 -0.11349048 -0.12385231
-0.028919647 0.045053214 -0.010798916 -0.112912394 -0.12342632 -0.06644465 0.05490865 0.06462437
-0.051999554 -0.022732764 -0.1293852 0.0851908 -0.15171497 0.07250139 0.0060262103 -0.123594865
-0.010820248 -0.03799568 0.05585472 0.044618443 0.04380527 -0.045226242 -0.043532547 0.050941564
0.05768718 -0.1268652 -0.036160275 -0.010631349 -0.13868195 -0.11127409 -0.033083577 -0.11429736
0.044623926 -0.0541211 -0.11991596 0.04171417 -0.07236937 0.043495107 0.051582396 0.09554723
-0.17806861 -0.1673935 -0.011638451 0.03035906 0.02900368 -0.05723264 -0.044148818 -0.09460072
-0.0341319 -0.17181696 0.037815206 -0.15355109 -0.08130568 -0.1783218 -0.048288193 -0.06306419
-0.062294208 0.012014195 -0.047282428 0.023912104 -0.17213328 0.0050017834 0.0025259256 -0.13208716
-0.08338691 -0.2333073 -0.052485853 -0.12967017 -0.0031522545 -0.03195569 0.020116718 0.017126266
-0.051354066 -0.15338524 -0.080308706 -0.11490667 -0.094447464 -0.06010267 0.12443568 -0.10723523
-0.109582216 -0.12113489 0.09800663 0.087610826 -0.006197205 -0.045152314 -0.22421408 0.009528262
-0.019072536 -0.119368784 -0.23044382 0.054004516 0.15066297 -0.121690646 -0.10017577 -0.081567466
-0.18711977 -0.107948825 -0.036116004 -0.1583824 -0.109839134 -0.098017514 0.061565585 0.09522848
0.015665967 -0.06509203 -0.17877716 0.0029057413 0.09944914 -0.07940053 0.020757081 -0.0461258
3.8440418 5.348714 -0.08479398 0.041075334 -0.23577772 0.090393655 0.05218309 -0.088152945
-0.0496541 0.032412056 0.1439717 -0.26990205 0.006783752 0.12241966 -0.039233483 0.01662758
0.021762982 4.347739 0.11796359 0.016675953 0.0603212 0.057206616 0.16191716 0.0349655
-0.18605793 -0.057240985 -0.8392387 -0.11585488 4.1487722 0.062266137 0.059452545 0.05452683
-0.013024146 0.05374089 0.06425638 -0.0013730107 -0.034764517 0.056604784 -0.6483779 -0.01698514
-0.15373985 0.03943857 0.021729821 0.12091227 -0.19006774 4.76131 0.10365444 -0.084306344
5.1877913 -0.12302185 -0.019369433 0.10507422 -0.033801097 0.1764723 0.041168675 0.1519304
0.07885347 4.0637774 5.324406 -0.3202099 -0.035892993 -0.06296238 0.0957796 0.07134938
-0.17387407 0.106314525 0.0072052097 -0.09173599 -0.18441242 0.03726554 0.0006939148 0.11242412
-0.14741664 -0.017502367 -0.06098087 -0.050887145 0.06271507 0.12161885 -0.05325289 -0.08128269
-0.070269965 -0.17094043 0.00999406 -0.10649851 -0.1338292 0.09228405 -0.09183955 -0.08459975
-0.084807426 0.0009725094 -0.0822231 -0.022876918 -0.12367423 0.009021282 -0.080882646 0.028451666
0.058615766 -0.019879298 -0.08094195 -0.0365718 -0.08178121 -0.07301618 -0.11215489 0.034582704
-0.00036506803 0.10947682 0.10230553 0.01416204 -0.13016622 -0.045450535 0.055982705 0.020916224
-0.10005531 -0.003214219 0.08736624 -0.064691775 0.046766207 -0.16176546 -0.003696701 0.024164185
-0.07398321 -0.18323071 -0.06450309 0.10914089 0.10838084 0.10535391 -0.014589369 -0.16114257
00000000: 7ef1 29be 8caf f8bd 5ca9 35bd 60da a33c
00000010: f7fd 323d 6065 f3bc 3d40 b5bc 3cab d8bd
00000020: c68a 1bbd e85a 26bd 3805 503d 6369 39bd
00000030: b635 cc3d 6cb0 bf3d b26d e8bd 48a6 fdbd
00000040: e5e8 ecbc b889 383d f0ed 30bc 9d3e e7bd
00000050: f0c6 fcbd 2214 88bd e5e7 603d c859 843d
00000060: 7cfd 54bd 103a babc 8e7d 04be 8478 ae3d
00000070: 2b5b 1bbe 9c7b 943d 8477 c53b 4e1f fdbd
00000080: 6947 31bc 5ca1 1bbd ebc7 643d d4c1 363d
00000090: 286d 333d 273f 39bd 2f4f 32bd 1aa8 503d
000000a0: 6449 6c3d f3e8 01be cc1c 14bd 1c2f 2ebc
000000b0: a402 0ebe ace3 e3bd a582 07bd bc14 eabd
000000c0: 94c7 363d 16ae 5dbd 8096 f5bd 7adc 2a3d
000000d0: 6436 94bd ed27 323d 1048 533d 44ae c33d
000000e0: 9e57 36be 3469 2bbe 34af 3ebc 90b3 f83c
000000f0: 2099 ed3c c66c 6abd 64d5 34bd 06be c1bd
00000100: e4cd 0bbd c9f0 2fbe 1ee4 1a3d 7f3c 1dbe
00000110: 9883 a6bd fd99 36be d7c9 45bd cc27 81bd
00000120: 3628 7fbd 30d7 443c 38ab 41bd 51e3 c33c
00000130: b543 30be 00e6 a33b 008a 253b db41 07be
00000140: c2c6 aabd 1ce8 6ebe 68fb 56bd 42c8 04be
00000150: 0e96 4ebb f8e3 02bd d1cb a43c 624c 8c3c
00000160: a458 52bd 0511 1dbe e478 a4bd 3054 ebbd
00000170: ac6d c1bd 382e 76bd 22d8 fe3d 259e dbbd
00000180: a46c e0bd 9215 f8bd b3b7 c83d 4e6d b33d
00000190: ec11 cbbb a2f1 38bd 6098 65be 6d1c 1c3c
000001a0: 023e 9cbc 9f77 f4bd 77f9 6bbe d733 5d3d
000001b0: 6547 1a3e f238 f9bd f428 cdbd d80c a7bd
000001c0: 539c 3fbe 4614 ddbd 60ee 13bd ff2e 22be
000001d0: 57f3 e0bd 68bd c8bd 322c 7c3d 2607 c33d
000001e0: ea55 803c f84e 85bd 5c11 37be 406e 3e3b
000001f0: feab cb3d bf9c a2bd c10a aa3c 68ee 3cbd
00000200: c804 7640 aa28 ab40 77a8 adbd 9c3e 283d
00000210: b76f 71be 4f20 b93d f0bd 553d 8889 b4bd
00000220: 1962 4bbd 81c2 043d 516d 133e 9a30 8abe
00000230: 3c4a de3b 29b7 fa3d 4ab3 20bd 9036 883c
00000240: 4848 b23c ae20 8b40 e596 f13d 029c 883c
00000250: 5d13 773d 7c51 6a3d 9dcd 253e fc37 0f3d
00000260: f885 3ebe 8675 6abd 59d8 56bf 5345 edbd
00000270: bec2 8440 c70a 7f3d 8384 733d 8657 5f3d
00000280: 3a63 55bc 681f 5c3d d998 833d 98f6 b3ba
00000290: 3d65 0ebd 6bda 673d 18fc 25bf 6c24 8bbc
000002a0: fb6d 1dbe 578a 213d bd02 b23c daa0 f73d
000002b0: 1ea1 42be a75c 9840 c748 d43d cea8 acbd
000002c0: 6302 a640 e1f2 fbbd a5ac 9ebc 2731 d73d
000002d0: 0573 0abd 28b5 343e 7ca0 283d a593 1b3e
000002e0: ee7d a13d 770a 8240 8961 aa40 8df2 a3be
000002f0: 8804 13bd 6cf2 80bd 1828 c43d a01f 923d
00000300: 0b0c 32be 6ebb d93d ae19 ec3b 14e0 bbbd
00000310: 9cd6 3cbe c0a3 183d d5e7 353a 9e3e e63d
00000320: 63f4 16be 2061 8fbc 14c7 79bd 0a6f 50bd
00000330: c270 803d 4e13 f93d b41f 5abd 8a77 a6bd
00000340: b3e9 8fbd 020b 2fbe 20be 233c e41b dabd
00000350: 860a 09be 6cff bc3d 6016 bcbd a242 adbd
00000360: 84af adbd 00f0 7e3a 9664 a8bd 6068 bbbc
00000370: ea48 fdbd 00ce 133c cda5 a5bd 7813 e93c
00000380: 1617 703d e9d9 a2bc e5c4 a5bd 50cc 15bd
00000390: e87c a7bd 8289 95bd 77b1 e5bd 98a6 0d3d
000003a0: 9a66 bfb9 6235 e03d 9085 d13d e707 683c
000003b0: 4b4a 05be 572a 3abd 1f4e 653d 8058 ab3c
000003c0: cce9 ccbd a5a5 52bb 12ed b23d 1f7d 84bd
000003d0: ec8d 3f3d d8a5 25be 5a44 72bb f8f3 c53c
000003e0: 8284 97bd d5a0 3bbe 321a 84bd 4285 df3d
000003f0: c6f6 dd3d cac3 d73d 4008 6fbc 8f02 25be

fc2.bias f4 [64]
-0.02068607 0.019845033 41.80882 -0.16964324 -0.0015575376 41.741817 -0.02859491 0.022338135
0.6919872 -0.02866797 -0.20148891 -0.06496737 5.9317126 0.02884179 -0.03239654 0.020970605
35.319763 -0.16544741 -0.03612371 11.599735 -0.110853314 0.25225604 0.5247847 0.57380354
39.225826 0.012436165 -0.10662464 -0.024302544 -0.16884984 5.4862657 38.27549 -0.091961056
0.0531605 -0.16533157 -0.016320277 -0.16799767 0.48945317 -0.15906724 -0.16606459 -0.0019408739
0.03807351 -0.12465691 0.018038973 38.562717 -0.17262372 38.639427 -0.06333614 0.020694252
-0.09097075 -0.01591615 -0.15235269 -0.18153313 0.061647825 3.748054 0.04573694 -0.04904514
0.39990503 0.019426502 39.329296 0.040523108 -0.0149658015 1.0965537 39.410076 -0.025257504
00000000: d575 a9bc 0d92 a23c 3b3c 2742 f5b6 2dbe
00000010: 4a26 ccba 9ff7 2642 df3f eabc 77fe b63c
00000020: 1326 313f 17d9 eabc 1c53 4ebe 9d0d 85bd
00000030: 97d0 bd40 9e45 ec3c 3cb2 04bd 8cca ab3c
00000040: 7047 0d42 0c6b 29be 75f6 13bd 8498 3941
00000050: 1007 e3bd b427 813e 4a58 063f cae4 123f
00000060: 3fe7 1c42 0ec1 4b3c 055e dabd 2116 c7bc
00000070: f9e6 2cbe 7d8f af40 1a1a 1942 1456 bcbd
00000080: d3be 593d ae4c 29be 1ab2 85bc 9507 2cbe
00000090: 9b99 fa3e 86e2 22be d60c 2abe ec64 feba
000000a0: f8f2 1b3d 1f4c ffbd 78c6 933c 3940 1a42
000000b0: 46c4 30be c68e 1a42 61b6 81bd fe86 a93c
000000c0: df4e babd 9662 82bc 5802 1cbe d2e3 39be
000000d0: 6e82 7c3d 1ee0 6f40 a856 3b3d 8fe3 48bd
000000e0: 5ac0 cc3e 5424 9f3c 3351 1d42 8ffb 253d
000000f0: 1f33 75bc df5b 8c3f eba3 1d42 d3e8 cebc

head.weight f4 [4, 64]
0.0025973115 -0.03163931 3.7902732 -0.121609494 -0.08310543 3.5886526 0.078599185 0.09902498
0.03214435 0.057359204 -0.2708112 0.040078584 -7.9531384 0.0431528 0.07981735 0.031052262
1.0319946 0.08394343 -0.015126494 -6.7404313 0.114149004 0.05290975 0.029107979 0.059758674
2.368226 0.0080338605 0.07054813 0.05212298 0.05359272 0.25511453 2.2522144 -0.124283135
0.053274233 0.05771971 -0.02908839 0.066782795 0.029595975 -0.07329062 0.031796113 -0.0007200666
-0.10420771 0.040608887 0.021740101 7.6235538 -0.13897702 2.2933617 0.19126795 0.11222708
0.06072672 -0.04536226 0.01770618 0.08102007 -0.013369341 0.037195254 0.095467836 0.12740971
-0.07588127 0.03816378 2.8386738 0.042603884 -0.027130775 0.086358584 2.923338 0.1034554
0.0038367403 -0.08746283 4.1915255 -0.056431964 -0.14632687 4.116791 0.078373365 0.11824643
-0.116511494 0.17924763 0.118680015 0.061731685 -4.0607724 -0.015697112 -0.019958034 -0.028905736
2.6511164 0.073666975 -0.012221658 -7.0454307 -0.13726279 0.14579915 -0.19143344 0.07377902
3.4246187 0.13468277 0.0073734745 0.02597971 0.014584964 -0.10565243 3.4669645 -0.043408863
-0.009540836 0.009001156 0.09414892 0.040010843 -0.15279135 0.012997821 0.03564192 0.050000623
-0.08354153 0.1646259 0.0980974 5.0391917 -0.10776801 3.3939717 0.095168546 -0.112851135
-0.05694102 0.052860335 -0.06507535 -0.029471025 -0.0364278 0.02539043 0.073139 0.029404279
-0.23151025 0.010623799 3.7651577 0.09114256 -0.03693715 -0.19563411 3.8925755 -0.030616475
-0.0132163055 -0.05086814 3.1835804 0.034274638 -0.04871536 3.219297 0.11751235 0.0015061647
0.058286615 -0.025796069 -0.06630826 0.025435971 5.8642793 -0.067258716 0.058363147 -0.020026645
3.9855504 -0.06385247 -0.0958612 5.593498 -0.11458276 -0.049393658 0.10632466 -0.0070477445
3.696928 -0.004962423 0.041374143 0.038967267 -0.041506853 0.015321838 3.798397 -0.14897682
-0.056832105 0.030434288 0.0038755485 0.06675381 0.081224546 -0.023790019 0.009385738 0.14250052
0.08958855 0.12717338 -0.0538661 1.8337035 -0.1460418 3.7630336 0.057597157 -0.09748752
-0.15047403 0.053866174 -0.036269814 -0.006141463 0.08718869 -0.0003157023 -0.006913911 0.043950252
-0.18164286 0.050836187 3.742146 0.039024156 0.21621564 0.10264048 3.745802 0.055333234
0.071483746 -0.074848846 2.9456735 -0.12423432 0.0001662915 3.0036936 -0.01707008 0.118099086
0.009530533 -0.015582587 0.2483071 0.012078472 8.139548 0.06811374 -0.022539048 0.013557721
4.193648 0.124558106 0.0060604485 9.000243 0.10840344 -0.005181948 0.18581991 0.0054129027
3.695211 -0.028662918 0.020070864 -0.0074752574 0.13054481 0.16130565 3.911756 0.048491735
-0.055935953 0.016622417 0.03524517 0.031933896 0.002286424 0.004499351 0.07259773 -0.012671649
-0.12733516 -0.040912356 0.13823082 1.3678429 -0.152989 3.7731473 -0.029999679 -0.09644587
0.048876382 0.121790096 0.07642971 -0.10918983 0.08209373 -0.0008106222 -0.054061025 -0.009376738
-0.11970867 0.027285112 3.6281886 -0.005095943 0.040892497 0.23847508 3.6462152 -0.033594456
00000000: a837 2a3b 3998 01bd d693 7240 660e f9bd
00000010: 2e33 aabd 7cac 6540 9cf8 a03d 9ccd ca3d
00000020: cba9 033d 7cf1 6a3d c4a7 8abe 7129 243d
00000030: 1c80 fec0 fec0 303d 4777 a33d 5061 fe3c
00000040: 6618 843f 88ea ab3d 1dd5 77bc 9db1 d7c0
00000050: f4c6 e93d e5b7 583d db73 ee3c 83c5 743d
00000060: 0491 1740 74a0 033c 8a7b 903d e87e 553d
00000070: 0a84 5b3d 5f9e 823e 4824 1040 2888 febd
00000080: 1536 5a3d 816b 6c3d c64a eebc 6bc5 883d
00000090: 4273 f23c 6519 96bd a43c 023d dac2 3cba
000000a0: da6a d5bd 8155 263d 4c18 b23c 27f4 f340
000000b0: fe4f 0ebe 70c6 1240 bfdb 433e 50d7 e53d
000000c0: 95bc 783d c7cd 39bd 8d0c 913c daed a53d
000000d0: 150b 5bbc 0d5a 183d a484 c33d b177 023e
000000e0: a467 9bbd a051 1c3d d5ac 3540 6981 2e3d
000000f0: 5c41 debc c5dc b03d f817 3b40 6de0 d33d
00000100: d271 7b3b b61f b3bd fa20 8640 3425 67bd
00000110: b6d6 15be c0bc 8340 3782 a03d 2f2b f23d
00000120: 949d eebd b18c 373e 820e f33d 5dda 7c3d
00000130: d9f1 81c0 3b97 80bc 087f a3bc b9cb ecbc
00000140: e4ab 2940 b6de 963d 593d 48bc 2b74 e1c0
00000150: 9e8e 0cbe 5f4c 153e 2107 44be 7419 973d
00000160: f42c 5b40 48ea 093e 309d f13b 67d3 d43c
00000170: c6f5 6e3c 4d60 d8bd bfe2 5d40 7ecd 31bd
00000180: 2b51 1cbc 9679 133c 26d1 c03d 69e2 233d
00000190: 5675 1cbe d0f4 543c 43fd 113d 74cd 4c3d
000001a0: d217 abbd b193 283e 4ae7 c83d 0f41 a140
000001b0: 79b5 dcbd d536 5940 bae7 c23d 7f1e e7bd
000001c0: fd3a 69bd 1484 583d 3a46 85bd 386d f1bc
000001d0: 5135 15bd 97ff cf3c e6c9 953d 3ee1 f03c
000001e0: 0611 6dbe 710f 2e3c 58f8 7040 f3a8 ba3d
000001f0: 694b 17bd 4f54 48be f51f 7940 67cf fabc
00000200: 3489 58bc 1c5b 50bd c8bf 4b40 9063 0c3d
00000210: c289 47bd f608 4e40 51aa f03d 806a c53a
00000220: f2bd 6e3d 4752 d3bc a0cc 87bd 195f d03c
00000230: 2da8 bb40 f0be 89bd 320e 6f3d eb0e a4bc
00000240: 4213 7f40 15c5 82bd e052 c4bd f0fd b240
00000250: 5eaa eabd 0151 4abd bec0 d93d c4f0 e6bb
00000260: 789a 6c40 d29b a2bb ef77 293d 249c 1f3d
00000270: 1703 2abd 7208 7b3c f018 7340 618d 18be
00000280: c8c8 68bd 5451 f93c eafc 7d3b 39b6 883d
00000290: 0e59 a63d 49e3 c2bc a3c6 193c a8eb 113e
000002a0: 347a b73d bd39 023e b3a2 5cbd ccb6 ea3f
000002b0: fb8b 15be 8bd5 7040 ffea 6b3d 89a7 c7bd
000002c0: dd15 1abe c7a2 5c3d a88f 14bd 533e c9bb
000002d0: fc8f b23d d884 a5b9 178e e2bb 2e05 343d
000002e0: 9600 3abe 9b39 503d 527f 6f40 cbd7 1f3d
000002f0: a267 5d3e 2c35 d23d 38bb 6f40 1aa5 623d
00000300: 1266 923d 5a4a 99bd ea85 3c40 906e febd
00000310: 895e 2e39 843c 4040 8dd6 8bbc efdd f13d
00000320: f425 1c3c 1b4e 7fbc 3744 7e3e c9e4 453c
00000330: 973b 0241 377f 8b3d cfa3 b8bc 3421 5e3c
00000340: 5d32 8640 5218 ff3d ba96 c63b ff00 1041
00000350: 9f02 de3d 55cd a9bb 9347 3e3e b85e b13b
00000360: 567e 6c40 7fce eabc a76b a43c 01f3 f4bb
00000370: 8aad 053e 4f2d 253e 365a 7a40 459f 463d
00000380: 191d 65bd bc2b 883c 3d5d 103d 1ecd 023d
00000390: d4d7 153b 4b6f 933b 1eae 943d c09c 4fbc
000003a0: 2664 02be b793 27bd 618c 0d3e 7a15 af3f
000003b0: 26a9 1cbe 3f7b 7140 e3c1 f5bc 6a85 c5bd
000003c0: 9a32 483d 166d f93d 2e87 9c3d eb9e dfbd
000003d0: c220 a83d ef7f 54ba 186f 5dbd e4a0 19bc
000003e0: d229 f5bd 0785 df3c 3e34 6840 defb a6bb
000003f0: e47e 273d d032 743e 975b 6940 579a 09bd

head.bias f4 [4]
22.809046 21.618158 19.545778 19.839725
00000000: ed78 b641 fdf1 ac41 c15d 9c41 c2b7 9e41
